backed2/data.pth (torch, 53802 bytes, 6 tensors)

l1.weight f4 [8, 660]
0	0x3f8dfdfe	1.1093137
1	0xbf03c90b	-0.5147864
2	0x3fda2879	1.7043601
3	0xbf36f99b	-0.7147462
4	0x3dfa85ab	0.122325264
5	0x3f27ebd0	0.65594196
6	0x3fdb8a39	1.7151557
7	0xbfdd2b98	-1.7278929
8	0x3f62dde7	0.88619846
9	0x3f73306d	0.94995767
10	0x3dca2cd9	0.09871835
11	0x3fcff3b5	1.6246248
12	0x3fc7620a	1.5576794
13	0x3f8559af	1.0417994
14	0xbf49d25a	-0.78836596
15	0xbf05cc5b	-0.52264947
16	0x3f790d51	0.97285944
17	0x3f4e4a17	0.805818
18	0x3fcfef32	1.6244872
19	0x3fcfdc8e	1.6239183
20	0xbf9a41d1	-1.2051336
21	0x3f932097	1.1494321
22	0x3e316012	0.17321804
23	0x3f41878d	0.7559746
24	0x3fd4750b	1.6598219
25	0x3f2f7da4	0.6855109
26	0x3f0923c8	0.5357022
27	0xbf80f618	-1.0075102
28	0xbf0abbd1	-0.54192835
29	0xbf52d20b	-0.8235175
30	0x3ecbec8a	0.39828902
31	0x3e9eef62	0.3104201
32	0xbde9632c	-0.11395869
33	0xbfa0f111	-1.2573568
34	0x3f37f95a	0.71864855
35	0x3e9d72e0	0.30751705
36	0xbfaded82	-1.3588107
37	0xbf9252d6	-1.143153
38	0x3f910eb1	1.1332608
39	0x3efb90dd	0.4913396
40	0xbe09e99b	-0.1346802
41	0x3f1b9478	0.6077342
42	0x4019eda0	2.4051285
43	0x3f3fb423	0.7488424
44	0x3fd0db63	1.6316952
45	0x3fd1e904	1.6399236
46	0x3f18de2f	0.59714025
47	0x3f91c216	1.1387355
48	0x3e95a233	0.2922531
49	0x3f56f20d	0.8396309
50	0x3f164dc5	0.58712417
51	0x3e9361e2	0.28785616
52	0x3f43c697	0.764749
53	0xbf89443b	-1.0723947
54	0x3fe7392e	1.8064325
55	0x3da64214	0.08118072
56	0x3fa9e61a	1.3273346
57	0x400e687f	2.225128
58	0x3f788a9e	0.97086513
59	0x3faa139c	1.3287234
60	0x3f579018	0.84204245
61	0x3eed7ac2	0.4638272
62	0xbfe51381	-1.7896577
63	0x3fed854e	1.8556306
64	0x4004656c	2.0686903
65	0xbf3065bb	-0.6890523
66	0x3f07076d	0.52745706
67	0x3f6ab98f	0.9168939
68	0xbdd960ce	-0.10614167
69	0x3f30766b	0.6893069
70	0xbec819ce	-0.39082187
71	0xbebf5c1a	-0.37374955
72	0xbfd37434	-1.6519837
73	0xbf1d9e73	-0.615699
74	0xbf19ffb0	-0.60155773
75	0xbfae78f7	-1.3630666
76	0xbce7c64a	-0.028292794
77	0x3ea2f830	0.31829977
78	0x3fb294c4	1.395165
79	0x3f1c6c8a	0.6110312
80	0x3f787693	0.9705593
81	0xbf3a53d2	-0.7278415
82	0x3f20e291	0.6284571
83	0xbf45728f	-0.7712793
84	0xbf3e01df	-0.74221605
85	0x3f228f3d	0.63499814
86	0xbf08115c	-0.5315149
87	0x3f55140e	0.83233726
88	0x3f23c75d	0.6397608
89	0x3fbf64a5	1.4952589
90	0x3ed831fc	0.42225635
91	0x3fbe3914	1.4861169
92	0xbf8cb047	-1.0991296
93	0x3fbfaa52	1.4973853
94	0x3f754ba1	0.95818526
95	0xbf8a2452	-1.0792334
96	0xbfacb9b9	-1.3494178
97	0xbf490dd0	-0.785367
98	0x3f94664e	1.1593721
99	0x3f83da39	1.0300971
100	0xbeb0f14b	-0.34559092
101	0x3e2e191a	0.17001763
102	0x3f6dbe32	0.9286834
103	0x3e1c5811	0.1526797
104	0xbd18c3d1	-0.03729612
105	0x3f6476ec	0.8924396
106	0xbfad1fd5	-1.3525339
107	0xbfc39ff6	-1.5283191
108	0xbf3aec14	-0.73016477
109	0x3f2d32f1	0.67655855
110	0x3ebf78be	0.37396806
111	0xbf286549	-0.6577955
112	0xbdcbc4b3	-0.09949627
113	0x3f751258	0.95731115
114	0xbe7ae6d6	-0.2450212
115	0x3f8953df	1.072872
116	0xbf045552	-0.5169269
117	0x3f8d45a6	1.103688
118	0x3ef264c2	0.47342497
119	0x3f8681b8	1.0508337
120	0xbf4941ba	-0.78615916
121	0xbf07aabd	-0.529949
122	0xbf98348f	-1.189104
123	0xbeb0fab3	-0.34566268
124	0x3f996e18	1.1986723
125	0x3f7a3b97	0.97747177
126	0xbf521342	-0.82060635
127	0xbfb9066e	-1.4455087
128	0xbf42d21b	-0.76101846
129	0x3fafd320	1.3736305
130	0x3f87c134	1.0605836
131	0x3eb00e9a	0.3438614
132	0xbebcdf88	-0.3688929
133	0x3fbff2c9	1.4995967
134	0x40393f16	2.8944755
135	0xbf3dbeb0	-0.7411909
136	0x3f6d2542	0.92634976
137	0xbf9b99bf	-1.2156295
138	0xbf92a59c	-1.145679
139	0xbd5cdd9e	-0.053922288
140	0x3fac587c	1.3464503
141	0x3fdb6909	1.7141429
142	0x3f877fb9	1.0585853
143	0x3fa6e520	1.3038673
144	0xbf9c158a	-1.2194073
145	0xbf80ff78	-1.0077963
146	0xbfba2778	-1.4543295
147	0x3e6b5210	0.22980523
148	0x3fc46dad	1.534597
149	0x3f840ab7	1.031577
150	0x3f6a49fc	0.9151914
151	0xbfe88727	-1.8166245
152	0xbf4f0cd1	-0.8087893
153	0xbf9908bb	-1.1955789
154	0xbdc74a5c	-0.0973098
155	0xbfc3a6b3	-1.5285248
156	0xbf91b5b6	-1.1383579
157	0x3f6f9c04	0.93597436
158	0x3fb2d990	1.3972645
159	0x3f597220	0.84939766
160	0x400d6cdd	2.2097695
161	0x3fbdc01c	1.4824252
162	0x3fc455d5	1.5338694
163	0x3f45dfcc	0.7729461
164	0xbf4f85f8	-0.81063795
165	0xbf4b380c	-0.79382396
166	0xbe412a36	-0.18863758
167	0x3df8d5fd	0.1215019
168	0xbf64eafa	-0.89421046
169	0xbef7827a	-0.48341733
170	0xbf4aa60d	-0.79159623
171	0xbfbd7c18	-1.4803495
172	0x3ff87121	1.9409524
173	0x3ec0fd4b	0.37693247
174	0xbcbbda1a	-0.022931147
175	0xbd17d635	-0.037069518
176	0x3f162ef5	0.586654
177	0xbf7488e4	-0.9552138
178	0xbe684a0b	-0.22684495
179	0x3fd9e4e4	1.7022977
180	0xbee4c3c9	-0.44680622
181	0x40166d8e	2.3504367
182	0x3fed0ad3	1.8518928
183	0xbfa9c8cd	-1.3264405
184	0xbf0bf13c	-0.5466497
185	0x3f17f0f6	0.5935205
186	0x3f3f4bb3	0.7472488
187	0x3dc1ab75	0.09456531
188	0xbe9f5711	-0.31121114
189	0xbf733c01	-0.95013434
190	0x3ebef225	0.37294117
191	0x3f7afb73	0.9803993
192	0x3ecbbf3d	0.3979434
193	0x3f1777fa	0.59167445
194	0xbf93ad11	-1.1537191
195	0x3e660f2b	0.22466724
196	0xbf089392	-0.53350174
197	0xbf1509e1	-0.582182
198	0x3eafad68	0.34311986
199	0xbee3bc8c	-0.44479787
200	0x3fc90b8b	1.5706648
201	0xbf4a2d93	-0.7897579
202	0xbec345c4	-0.38139164
203	0x3fae7cc5	1.3631827
204	0xbe6aa917	-0.22916065
205	0xbdfab388	-0.12241274
206	0xbef65d6d	-0.48118153
207	0x3ebd3792	0.3695646
208	0xbf82f72e	-1.0231683
209	0xbf99bf56	-1.2011516
210	0xc0086d3a	-2.1316667
211	0xbf85599a	-1.0417969
212	0x3d9183cc	0.071052164
213	0x3e89119e	0.26771253
214	0xbfbd7c7f	-1.4803618
215	0x3f75bdbf	0.95992655
216	0xbaad3dfe	-0.0013217328
217	0xbf85ee6e	-1.0463388
218	0x3e7b41cc	0.24536818
219	0xbdb6c6e4	-0.08924654
220	0x40154e0f	2.3328893
221	0xbf53ddea	-0.8276049
222	0x3f2a4805	0.66516143
223	0x3f076d38	0.5290103
224	0x3ec26218	0.37965465
225	0x40102e0a	2.25281
226	0x3f81c971	1.01396
227	0xbf9243af	-1.1426905
228	0x3d9d5d30	0.0768379
229	0xbd64bbdb	-0.055843215
230	0x3ea60524	0.32425797
231	0x403327d8	2.7993069
232	0xbf9f93da	-1.2466996
233	0x40112423	2.2678306
234	0xbf79dac3	-0.9759943
235	0xbf8ea97e	-1.1145475
236	0x3f9eead2	1.2415411
237	0x3f3ac83e	0.72961795
238	0xbfaebd34	-1.365149
239	0x3e8b4e90	0.27208376
240	0x3fc5ffae	1.5468652
241	0x3fc64c6c	1.5492072
242	0x3f125e79	0.57175404
243	0xbf6c6817	-0.9234633
244	0xbfa8b704	-1.3180852
245	0x3ffbd822	1.9675333
246	0x3d625460	0.055256248
247	0x3f6e6ac4	0.9313166
248	0xbf311e77	-0.6918711
249	0xbecfc29e	-0.4057817
250	0xbe4ffee6	-0.2031208
251	0x3d924505	0.07142071
252	0x3f37a163	0.7173063
253	0x3ee5245d	0.44754305
254	0xbe3eb12f	-0.18622278
255	0x3fabf193	1.3433098

l1.bias f4 [8]
0	0x400f5753	2.2397048
1	0x3f66edf4	0.9020684
2	0x3e90ac28	0.28256345
3	0x3f9fd1e5	1.248593
4	0x3fecf5cb	1.851251
5	0x3fb3c488	1.4044352
6	0x3f9ada17	1.2097806
7	0x3f690254	0.9101918

l2.weight f4 [8, 8]
0	0x4009ceee	2.153255
1	0x3cdf609b	0.027267745
2	0xc03b7134	-2.9287844
3	0x407a153e	3.9075465
4	0x3fb1be93	1.3886284
5	0x3f3e4ab1	0.7433272
6	0xbd1308a4	-0.035896912
7	0xc07da01e	-3.9628978
8	0x40066d8d	2.1004364
9	0xbffde2e0	-1.9834862
10	0x4003a1ed	2.0567582
11	0x3fecdec1	1.8505479
12	0xbfd369f5	-1.651671
13	0x3f80d7ef	1.0065898
14	0x3f85d147	1.0454491
15	0xbc9ca409	-0.019121187
16	0xbe2937e7	-0.16525231
17	0xbe9510ff	-0.2911453
18	0x3db06edc	0.08614895
19	0x3de42a38	0.11140865
20	0x3c6c3900	0.014417887
21	0xbdeadc0e	-0.11467753
22	0xbeab50bc	-0.33460033
23	0xbcf2a610	-0.0296202
24	0x403c15af	2.9388235
25	0x409199db	4.550031
26	0x3ff42e62	1.9076655
27	0xbfabde44	-1.3427205
28	0x4016dcaa	2.3572183
29	0xbf74eaaf	-0.956706
30	0xc001edbb	-2.030135
31	0xbeb5fe35	-0.35545507
32	0x3fc889cf	1.5667056
33	0x402d79e8	2.7105656
34	0xbf4c4018	-0.797853
35	0xbe9c80a3	-0.30566892
36	0xc020134d	-2.501178
37	0x3f87eebd	1.0619732
38	0x4038a7e4	2.8852472
39	0x3faac894	1.3342462
40	0xbe6e48db	-0.2326998
41	0x3fda750c	1.706697
42	0x40385e5c	2.8807592
43	0x400293ac	2.0402632
44	0xbf2698c9	-0.6507688
45	0x4002ccf4	2.0437593
46	0xc00bc06c	-2.1836195
47	0x3f9f3d64	1.244061
48	0xbcf46d80	-0.02983737
49	0xbfd656f1	-1.6745282
50	0xbfb6c839	-1.4279853
51	0x3ecc3c51	0.39889768
52	0x4039e121	2.9043658
53	0x4086468a	4.1961107
54	0x3fae13c3	1.3599781
55	0x4054c4f3	3.3245208
56	0xbf57ff75	-0.8437417
57	0x3f8403fc	1.0313716
58	0x405b7805	3.4292004
59	0x3f95e26c	1.1709723
60	0x3fadf251	1.3589574
61	0xbfdf51ce	-1.744684
62	0x40866376	4.199641
63	0xc011a4fb	-2.2756946

l2.bias f4 [8]
0	0x4004a8c4	2.0728006
1	0xbcf31a4b	-0.029675623
2	0xbe188001	-0.1489258
3	0x400022bd	2.0021203
4	0x3f38ecfc	0.7223661
5	0xbfa9540d	-1.3228775
6	0x3fe4c075	1.7871233
7	0xbefaae80	-0.48961258

l3.weight f4 [230, 8]
0	0xc01f3440	-2.487564
1	0x3e2fb8b8	0.17160308
2	0x3e731056	0.237367
3	0x3f0ebd60	0.55757713
4	0x3e0fcd0b	0.14043061
5	0x3f14b13a	0.58082926
6	0xc05842f1	-3.3790858
7	0xbf89faec	-1.07797
8	0xbe71c590	-0.2361052
9	0xc09f43b7	-4.977016
10	0xbe54b9da	-0.20774022
11	0x3f9fd3c5	1.2486502
12	0xbe854f95	-0.2603728
13	0xc02cd6b5	-2.7006047
14	0xbe77fb06	-0.24216852
15	0xc017e1e4	-2.3731623
16	0x3f0978c5	0.53699905
17	0x3f881a7d	1.0633084
18	0x3e218002	0.15771487
19	0xbfa5891b	-1.2932466
20	0xbeb79042	-0.35852247
21	0xc0a94b66	-5.290454
22	0xbe95b8df	-0.29242608
23	0x3d87ad3d	0.066248395
24	0x3f9ee511	1.2413656
25	0xc090429a	-4.50813
26	0x3e96ffe9	0.2949212
27	0xbf1769b3	-0.5914566
28	0xc07dfaf2	-3.9684415
29	0xc0901da8	-4.50362
30	0x3e857587	0.2606623
31	0x3dca5ed2	0.09881367
32	0x3ed4fc21	0.4159861
33	0xc01bfca3	-2.4372947
34	0x3cf992c0	0.030465484
35	0xbb2a306d	-0.0025968805
36	0xc08ae1ee	-4.3400793
37	0xc02de377	-2.7170084
38	0xbe366d89	-0.17815222
39	0x3f43813c	0.7636907
40	0x3f1f141f	0.6214008
41	0xbdfefce8	-0.12450582
42	0xbc95a6a0	-0.01826793
43	0xbf88209c	-1.0634952
44	0xc00a317f	-2.159271
45	0xc04de5a3	-3.217141
46	0xbe0c785a	-0.13717785
47	0x3f31d497	0.6946501
48	0x3d3d203e	0.046173327
49	0xc07db400	-3.9641113
50	0x3ccbf580	0.024897337
51	0xbeb40d96	-0.35166615
52	0xc0887b27	-4.2650332
53	0xc084548c	-4.1353207
54	0x3f8bab3e	1.0911634
55	0xbe8052d5	-0.25063196
56	0xc00de197	-2.216894
57	0x3f3412d1	0.7034121
58	0x3e06a004	0.13146979
59	0xbf07b9c0	-0.53017807
60	0x3e2fabe4	0.17155415
61	0xbecb2bba	-0.39681798
62	0x3f057d36	0.5214418
63	0xbfeab958	-1.8337812
64	0x3f8c0dcf	1.0941714
65	0xbff69986	-1.9265602
66	0x3dc3ed6c	0.09566769
67	0x3f14e8df	0.58167833
68	0xbf8d34da	-1.1031754
69	0xc0bc2b38	-5.8802757
70	0x3eb7f730	0.35930777
71	0xbfd7c545	-1.6857077
72	0x3f683afc	0.90715003
73	0x3f06ae08	0.526093
74	0x3e08a74a	0.13345066
75	0xbf1afecc	-0.6054504
76	0xbf9ff84e	-1.2497652
77	0xbf72b4ac	-0.94806933
78	0x3e7f03b8	0.24903762
79	0xc0994ba1	-4.790482
80	0xbf8e5b36	-1.1121585
81	0x3f042443	0.5161783
82	0x3ea34835	0.31891027
83	0x3ec2b96a	0.38032085
84	0xbc893c43	-0.016752368
85	0x3dfc1515	0.123087086
86	0xbec32072	-0.3811069
87	0xc03dd2b9	-2.9659865
88	0x3f197438	0.5994296
89	0x3e6a904c	0.22906607
90	0xbea50623	-0.32231244
91	0xc0589f6e	-3.3847308
92	0xbff0d270	-1.881422
93	0xbf4f92a6	-0.8108314
94	0x3eb4200a	0.35180694
95	0x3bb92a8b	0.0056508235
96	0xbedc0d4a	-0.4297889
97	0x3e9fbfa4	0.31200898
98	0xbe8ca4a8	-0.27469373
99	0xc036ccb8	-2.856245
100	0xc060b9ea	-3.5113473
101	0xbfa61214	-1.2974267
102	0x3dfd427c	0.123661965
103	0x3f78e9ec	0.97231936
104	0xc0979219	-4.736584
105	0xc01abd01	-2.417786
106	0xbe6d4c34	-0.231736
107	0x3e409c56	0.18809637
108	0x3f5bddc7	0.8588528
109	0xbf143646	-0.57895315
110	0xbfd81dc1	-1.688408
111	0x3e2c747d	0.16841312
112	0x3eeb3924	0.45942032
113	0xbff2720a	-1.8941052
114	0xbe2d74fb	-0.16939156
115	0x3e635a91	0.22202517
116	0x3d4c3191	0.049851958
117	0xc04a2ef7	-3.1591165
118	0x3f6f5825	0.9349387
119	0xc0562c48	-3.3464527
120	0xbfaf64b1	-1.3702604
121	0xc08486d3	-4.141458
122	0x3e966b6b	0.29378828
123	0x3f852465	1.0401732
124	0xbf3b5705	-0.73179656
125	0xbfc0bab1	-1.5056974
126	0xbeb72cfa	-0.35776502
127	0xbe0caf22	-0.13738683
128	0xc0a8527b	-5.2600684
129	0xc01eaf3b	-2.4794452
130	0x3dac3eb0	0.08410394
131	0x3e37c406	0.17945871
132	0xbd2ef681	-0.042715553
133	0xbf532dac	-0.82491565
134	0x3ca3cbea	0.019994695
135	0x3f1dc52a	0.61628973
136	0xbf9bfbce	-1.218622
137	0xbdac9004	-0.08425906
138	0x3e6ff15e	0.23431918
139	0xbd5cce04	-0.05390741
140	0x3e13ec8c	0.14445704
141	0xbe13b990	-0.14426255
142	0xbfbf727d	-1.4956814
143	0x3eec7239	0.46180895
144	0xbf61668f	-0.88047117
145	0xc08557b2	-4.166955
146	0x3d0c8a18	0.034311384
147	0x3d86551d	0.06559203
148	0x3f7b32a6	0.9812416
149	0xc07d1c49	-3.9548514
150	0xbebe448e	-0.37161678
151	0x3d9c0bcf	0.0761944
152	0xbe663f2d	-0.22485037
153	0xc066c0bb	-3.6055133
154	0xbe87b2e6	-0.26503676
155	0x3edfad0c	0.43686712
156	0x3f0abbf8	0.5419307
157	0xbfd01dbc	-1.6259074
158	0xbe015adc	-0.12632316
159	0xbf1f0039	-0.62109715
160	0xbec44b2d	-0.38338605
161	0xbf5a1707	-0.85191387
162	0xbe9de9e1	-0.30842498
163	0x3e5f2bff	0.21794127
164	0xbe903397	-0.2816436
165	0xbedf9ce7	-0.43674394
166	0x3d07dd3c	0.03316997
167	0xbd53256b	-0.051549356
168	0xc05eb7aa	-3.47996
169	0x3e8b4b6a	0.27205974
170	0x3e9dc939	0.30817583
171	0x3eadd587	0.3395197
172	0x3e8d6bad	0.27621213
173	0xbf159cca	-0.58442366
174	0xc03d30fc	-2.9561148
175	0x3e3ee4fe	0.18642041
176	0x3f7e7d6e	0.9941014
177	0xc072c83c	-3.7934713
178	0xbe64ff62	-0.22363046
179	0x3f8e6dd6	1.1127269
180	0xc0942fa7	-4.630817
181	0xc08e68b1	-4.4502797
182	0xbe8c94ae	-0.27457184
183	0xbfcc2e2c	-1.595159
184	0x3f86b1c0	1.0522995
185	0xc0407bc5	-3.0075543
186	0xbe5a3f9c	-0.21313328
187	0x3eaea8b1	0.34113076
188	0xc0688abb	-3.6334674
189	0xbf876cf6	-1.0580127
190	0xbf249a42	-0.6429788
191	0xbe2174c8	-0.15767205
192	0xbfe000ea	-1.7500279
193	0xbfb410dd	-1.4067646
194	0x3ea8906d	0.32922688
195	0x3e8b8be2	0.2725516
196	0x3f808c23	1.0042766
197	0xc07160b3	-3.771527
198	0x3f40ade1	0.7526532
199	0xc0711b43	-3.767289
200	0xbd0886da	-0.03333173
201	0x3f0e5d1f	0.5561084
202	0x3dedb37c	0.116064996
203	0xbf336114	-0.70070004
204	0x3f546b3c	0.82976127
205	0xbfd54450	-1.6661472
206	0xbd10c4f0	-0.035344064
207	0xbfc21fba	-1.5165932
208	0xbe15dd54	-0.14635211
209	0xc096648f	-4.699775
210	0xbe94519b	-0.2896851
211	0x3f21bb8d	0.63176805
212	0xbfe54870	-1.7912731
213	0xbe7e5232	-0.24836043
214	0xbf34417e	-0.70412433
215	0x3e00d8ef	0.12582754
216	0x3e33700e	0.17523214
217	0xc048f967	-3.1402223
218	0xbdc4ef90	-0.096160054
219	0x3f2cc38b	0.67485875
220	0x3e833ee0	0.25633907
221	0xbf9cb4ec	-1.2242713
222	0xc061591a	-3.5210633
223	0xbf633c59	-0.8876396
224	0x3e1ec40f	0.15504478
225	0xbf95f82f	-1.1716365
226	0x3b8c5280	0.0042822957
227	0x3f0b3dce	0.5439118
228	0x3f74dfbc	0.9565389
229	0xc037cbd1	-2.871815
230	0xbfa01fb5	-1.2509676
231	0xc07f47d5	-3.9887593
232	0xbead1a52	-0.33809143
233	0x3e022b06	0.12711725
234	0xbce0f280	-0.027459383
235	0xbe654ecb	-0.22393338
236	0xbfd1a24f	-1.6377658
237	0x3f4080f8	0.7519679
238	0x3d7b74c2	0.061390646
239	0xbf856cd8	-1.0423841
240	0xbf6602c6	-0.8984798
241	0xc019e385	-2.4045117
242	0xbea40b00	-0.32039642
243	0x3f05f7b9	0.5233112
244	0xbfaa5bbe	-1.3309247
245	0x3f2adb0c	0.6674049
246	0xc03f106d	-2.9853776
247	0x3e872a9a	0.2639969
248	0xbd57821d	-0.05261432
249	0xc07e1e2a	-3.970591
250	0xbe86a006	-0.26293963
251	0x3f668154	0.9004109
252	0xc08b733f	-4.357818
253	0xbf239c0d	-0.6390999
254	0xbd2fdcbb	-0.042935114
255	0xbf3cb58e	-0.7371453

l3.bias f4 [230]
0	0xbdc0c345	-0.09412245
1	0x3f74369c	0.9539583
2	0xbf084f54	-0.53246045
3	0x3ecf6b68	0.40511632
4	0xbdbd2d68	-0.09237176
5	0x3e9f00e7	0.31055376
6	0x3fa74bf5	1.3070055
7	0x3f6e9b61	0.9320584
8	0x3f36c273	0.71390456
9	0x3f9bdbff	1.2176512
10	0xbf33d888	-0.70252275
11	0xbf09a260	-0.5376339
12	0xbd3ee99d	-0.04660951
13	0xbd88499e	-0.06654666
14	0x3f2e1b18	0.6801009
15	0x3d21818d	0.03943019
16	0x3e9dd4a5	0.30826297
17	0xbd37f09f	-0.04490721
18	0xbeda0eb9	-0.42589357
19	0xbeeca323	-0.46218213
20	0x3e7779bb	0.2416753
21	0x3e0658f4	0.1311987
22	0x3ea5ca3b	0.32380852
23	0xbdcd4a1d	-0.100239016
24	0x3fa5cbeb	1.2952856
25	0x3ede8ba1	0.43465903
26	0xbbd056f2	-0.006358021
27	0x3edbf005	0.42956558
28	0x3e6cf511	0.2314036
29	0xbf54b9e0	-0.8309612
30	0xbe0f5045	-0.13995464
31	0xbee747c2	-0.45171934
32	0xbf357e51	-0.7089587
33	0x3e8fca9c	0.28084266
34	0xbe95fa38	-0.29292464
35	0x3ec22838	0.3792131
36	0x3f1c57ff	0.6107177
37	0xbffeb4cf	-1.9898928
38	0xbe250b1c	-0.16117519
39	0xbf3dcbc8	-0.7413907
40	0xbd91df55	-0.07122675
41	0xbd69e667	-0.057104494
42	0xbebe3029	-0.37146118
43	0xbeaaee3c	-0.33384883
44	0x3df032c2	0.11728431
45	0xbf00c797	-0.5030455
46	0x3d857ade	0.06517576
47	0xbd5ac8c1	-0.05341411
48	0xbf9459b0	-1.158987
49	0x3eb94b56	0.3619029
50	0x3a3483e7	0.000688611
51	0xbe19a326	-0.15003642
52	0xbf191b4e	-0.5980729
53	0xbdf3d089	-0.11905009
54	0xbf65ab0b	-0.89714116
55	0x3daaa9dd	0.0833318
56	0xbf08a3d6	-0.53374994
57	0xbe71852b	-0.23585956
58	0xbd57fe42	-0.052732714
59	0xbea1b080	-0.3157997
60	0xbe74710d	-0.2387125
61	0x3d830b50	0.06398642
62	0x3e903653	0.28166446
63	0xbf60be66	-0.87790525
64	0xbe74941e	-0.23884627
65	0xbe57ca7b	-0.21073334
66	0xbf696fee	-0.91186416
67	0x3f326662	0.69687474
68	0x3ea6852c	0.32523477
69	0xbe716cb3	-0.23576622
70	0xbe99d2e2	-0.30043703
71	0xbf628cf3	-0.8849632
72	0xbf0c3a68	-0.5477662
73	0x3dcd7df1	0.10033787
74	0xbeda6b5d	-0.42660037
75	0xbe58b77b	-0.21163742
76	0x3e49712b	0.19672076
77	0x3ed5f4fb	0.41788468
78	0x3f889919	1.0671722
79	0xbf6d3379	-0.92656666
80	0xbe38ee59	-0.18059672
81	0xbe5029f7	-0.20328508
82	0x3f189026	0.59594953
83	0x3d266dbe	0.040632002
84	0x3d86e490	0.065865636
85	0xbe02d7cb	-0.12777631
86	0xbdca5d9e	-0.09881137
87	0xbf76f493	-0.9646694
88	0x3e8b6aec	0.27230012
89	0xbf03b3f9	-0.5144649
90	0x3ec7f52f	0.39054248
91	0xbdb4fff1	-0.088378794
92	0x3b448227	0.0029984803
93	0x3e4db01a	0.20086709
94	0x3dcdf6c2	0.10056831
95	0xbddd8617	-0.10816591
96	0xbf4b573c	-0.79429984
97	0xbe89c052	-0.2690454
98	0x3e82afac	0.25524652
99	0xbf60d55a	-0.8782555
100	0xbec67d9f	-0.38767716
101	0x3e60bff7	0.21948229
102	0x3d529094	0.05140741
103	0xbea07b46	-0.3134405
104	0x3f44fb38	0.7694583
105	0x3f269254	0.6506703
106	0x3e8626fd	0.2620162
107	0xbe2074fe	-0.15669629
108	0x3dc1d16a	0.09463771
109	0x3e1d8a82	0.15384868
110	0x3cb7b21c	0.022423796
111	0x3f0fe7a9	0.5621286
112	0x3ea52613	0.3225561
113	0xbe1388ff	-0.14407729
114	0xbde80f02	-0.113309875
115	0x3f280c68	0.6564393
116	0x3e49b3e4	0.19697529
117	0xbf782d19	-0.96943814
118	0xbf876e0c	-1.0580459
119	0x3f94cf77	1.1625813
120	0x3ea07d7c	0.31345737
121	0xbeff546c	-0.49869096
122	0xbe5946e7	-0.21218453
123	0xbc19b3b3	-0.009381223
124	0xbc88600e	-0.016647365
125	0xbef46a7f	-0.477375
126	0x3e7edc44	0.24888712
127	0x3d8e11fd	0.06937025
128	0xbf8157c3	-1.0104908
129	0x3ea96134	0.33081973
130	0xbf4b3d9d	-0.7939089
131	0xbe106f80	-0.14105034
132	0x3e95bf56	0.2924754
133	0x3ec1d0fa	0.3785475
134	0xbd357fe2	-0.04431141
135	0x3d1462d6	0.03622707
136	0x3daf85ad	0.085704185
137	0xbe69c229	-0.22827972
138	0xbeb67cf1	-0.35642198
139	0xbff6867d	-1.9259793
140	0xbf2fefbf	-0.687252
141	0xbf51b9ad	-0.81923944
142	0xbe7d0371	-0.24708344
143	0x3e90f183	0.2830926
144	0xbd6b0d9e	-0.057386033
145	0xbf238a82	-0.6388322
146	0xbefe752e	-0.49698776
147	0xbfc8494c	-1.5647368
148	0x3ed19dd6	0.40940732
149	0xbe874726	-0.2642147
150	0x3f865fa0	1.0497932
151	0xbf8d9132	-1.1059935
152	0xbf10c265	-0.5654662
153	0xbdc76dbe	-0.097377285
154	0xbef927c6	-0.48663157
155	0xbd830066	-0.0639656
156	0xbdd0d922	-0.10197665
157	0xbd94270a	-0.072340086
158	0x3e4f71ad	0.20258208
159	0xbf7fcc8d	-0.99921495
160	0xbdbf44b9	-0.0933928
161	0x3f37a462	0.71735203
162	0xbeb2f44a	-0.34952003
163	0xbf22efbd	-0.6364706
164	0x3ed82de1	0.42222503
165	0xbe887758	-0.26653552
166	0x3ec234be	0.37930864
167	0x3f2c414b	0.6728713
168	0xbfb433b3	-1.4078277
169	0x3e2a6320	0.16639376
170	0xbf41e0aa	-0.75733435
171	0xbfaffcdc	-1.3749042
172	0xbe94367c	-0.28947818
173	0xbe657f17	-0.22411762
174	0x3ee62be4	0.4495536
175	0x3ed8eb58	0.42367053
176	0xbcc430fa	-0.023949135
177	0xbf6e5b25	-0.93107826
178	0xbf4bc5b6	-0.7959856
179	0xbd821806	-0.06352238
180	0x3ed34e8e	0.4127087
181	0xbd0fdcb8	-0.035122603
182	0xbd0e7e24	-0.034788266
183	0xbec036b9	-0.3754175
184	0xbd67c8b4	-0.05658789
185	0x3f2376e1	0.6385327
186	0xbf8a41d8	-1.0801344
187	0xbf188ebb	-0.5959279
188	0xbecdddcc	-0.4020828
189	0xbf56f847	-0.8397259
190	0x3db7f410	0.08982098
191	0x3d173cca	0.036923207
192	0xbe9f68c9	-0.31134632
193	0xbf57f07f	-0.8435134
194	0xbe0bd2ea	-0.13654676
195	0xbe9d0e31	-0.3067489
196	0xbec12097	-0.37720177
197	0xbe01e914	-0.12686568
198	0xbe992083	-0.29907617
199	0xbe09198f	-0.13388656
200	0xbe9ca799	-0.30596617
201	0xbed11dbe	-0.40843004
202	0xbf6d9dbb	-0.928188
203	0xbe246b6f	-0.16056608
204	0x3e24434b	0.16041295
205	0xbedee231	-0.43531945
206	0xbf908c59	-1.1292831
207	0xbd91f3fd	-0.07126615
208	0xbe5e17b8	-0.21688735
209	0xbf0248b6	-0.508922
210	0x3f102d32	0.5631896
211	0xbf55b03f	-0.83472055
212	0x3ebe2036	0.3713395
213	0xbe63c502	-0.22243121
214	0x3f774d49	0.966023
215	0xbea891e2	-0.329238
216	0xbfa39924	-1.278111
217	0xbf887789	-1.0661479
218	0x3d67aaf0	0.056559503
219	0xbeeaf6c8	-0.45891404
220	0xbefee179	-0.49781397
221	0xbe32eb07	-0.17472468
222	0xbedd3e9b	-0.43211827
223	0x3e5428db	0.2071871
224	0x3ec33fd9	0.3813465
225	0x3eae90bf	0.34094808
226	0xbef236f1	-0.47307542
227	0xbf89703a	-1.0737374
228	0xbdf2765d	-0.11838982
229	0xbe5a0e70	-0.2129457
