Backend/data.pth (torch, 55082 bytes, 6 tensors)

l1.weight f4 [8, 660]
00000000: a0ac dabe a152 67bf cf3b 9ebe 8628 323f
00000010: 9822 38bf b9fc 353e 2690 d93f ae71 8dbf
00000020: 03ea 0c3f f31b 133f 280f 853e a093 c33e
00000030: 2984 acbf 5d7e a43c 54ec 823f 87dd e63f
00000040: 1e7c a03e 46d1 90be f0dc b03e 1f81 bd3e
00000050: a446 463e 9d99 99bd 922d 203e 9856 b2bc
00000060: 0cb9 843e ba03 32bf 2f11 bc3f 6709 a23f
00000070: bda3 cdbe e82b 0240 77da a33f b02f 4b3e
00000080: ad79 003e b857 1840 1f9e 9a3f c00e 1b3e
00000090: f444 9dbe 6579 bebf b843 433f 5d7a b3bf
000000a0: 0625 a83f fdd8 d33f 1fed b93f c59d 37bd
000000b0: b3f4 98be 0f15 fa3f a8b1 bf3d 646b 15bd
000000c0: d299 c73e 9a76 5c3f bc0c d33e 267b 8a3f
000000d0: ac00 143f f0a3 c8ba a10c 05c0 7e20 9bbe
000000e0: 3ed7 0140 c40e 453f 825b 71bf cb01 d23d
000000f0: dbea e63e 59c3 d4bd 6149 c73f 6db8 0040
00000100: 9072 473f b136 673f 3b7f cf3f f79b 6bbe
00000110: cbdf f7be 5fae 9f3f 6797 eabe 85b0 133f
00000120: 227d 923e 3f22 dc3e c400 4c3e 8fc1 ffbf
00000130: 6e34 c13f 667e 663e 26dd a6bf 4d85 81bf
00000140: ac98 963e 5ce7 193d 17e7 0c3f cac3 893d
00000150: 66bd 483e cd8f 933f 4f76 cb3e 4eb5 01be
00000160: 4d70 743f fa5f 013e 067e 7bbe ea93 4fbf
00000170: 5768 c43e f3a3 a93f 98f1 fb3e 5f9e eb3d
00000180: bd09 c5bf 7aed 833f c144 8c3f a607 283d
00000190: 7158 72be 3273 20be ceff 163f a50e 7d3f
000001a0: 9600 be3f 7a9f a13f c1f0 bc3f b5ec f73f
000001b0: 733f 883d dac6 e33e eb44 9abf 2e99 3a3f
000001c0: bcf4 09bf 5046 163f ffc7 bc3c 86f9 c43e
000001d0: 06ea c83e 60f1 88bf ee41 2cbe 9e1f 823f
000001e0: 81fb 3b3f 43a2 0dbb a18e dc3e e439 7b3f
000001f0: 3663 ecbf f570 b0be 8174 303f b880 0640
00000200: 0c8c 853f 2efc f8be 4d34 9abf 7f7f 923e
00000210: c1f5 c13d 30d4 5abf 0fba be3f 8014 2d3f
00000220: 1efd c9bf b32a d23e 192a 873e 9b96 713e
00000230: 719a afbf 7054 483f f02b 033c bce1 0540
00000240: f6c5 a4be 1e8b 283f d8eb 223f dc88 513f
00000250: 86dc 723c 798b dbbc d423 abbf f8c3 963f
00000260: 74fc c5be da8f 4e3e eb5e ba3f f9c5 a8be
00000270: 5b1e 83bf 429c 883e 9deb abbe dbd9 03bf
00000280: 2998 ddbf 67ba a23f f159 c83e 76bb 983f
00000290: 9ac8 ac3f 4f93 7a3f e29a b8be c86e 853d
000002a0: 2b5b a63f 5bbe d5bb 344d ca3f 3da9 62bf
000002b0: e5eb d13f f8be 293f b218 0cbf 1095 5dbf
000002c0: 732e 1e3e 7da3 23bf 3a04 503b e594 2240
000002d0: ba23 92bf a32d c5bf 3458 abbd 1cb9 ff3e
000002e0: 0363 e0bc 3fda d63f 03a2 953f 83c5 8cbe
000002f0: 4977 ea3e 5ae1 413f 8375 29be 41ac 75bf
00000300: a512 be3e 9eda 9ebd 01c1 82bf cc5d 66be
00000310: 8812 9cbd 5d5e 38bf afb3 4d3f 2db4 193f
00000320: f04b 6fbf ffed 84bf 79ef 0ebf 3f14 32bf
00000330: 7a68 9c3e 6050 aa3f e174 103f 3026 643f
00000340: d762 2b40 e9dc 853e ee10 92bf 66ed 933f
00000350: 0007 a63f 7fc1 b63e 2ec3 af3f 5dbc b73f
00000360: dc0b edbe 0190 eabd 35d0 a43e 96b0 98bf
00000370: 1bc7 a5bf 3016 0ebf aa5d 71bf 88d2 69bf
00000380: 06aa 2a3f 5886 0240 77b6 803f b831 9cbe
00000390: 34c6 0a40 64f7 debe 5a38 ab3a c213 353f
000003a0: 0159 3abd 0562 dabe 5d3e 863f 1ed9 08bf
000003b0: 7657 e0bf cfea 3ebf dfa6 133e 8390 cc3e
000003c0: c37f acbf 34a7 983d 15d5 c03f a1d7 b0bf
000003d0: b72b bbbf 8f10 b9bc fbab cabf 14a0 fa3f
000003e0: 5d02 983f 8f4c 73bf 55be 51bf e888 e5bc
000003f0: f773 fe3f 39c4 9e3f 4e59 97bc 014a c33d
-0.42709827 -0.90360457 -0.30905005 0.69593084 -0.71927786 0.17772187 1.6997116 -1.1050317
0.55044574 0.5746452 0.25988126 0.38198566 -1.3477832 0.020079786 1.0228372 1.8036355
0.31344694 -0.28284663 0.34543562 0.37012574 0.19362885 -0.075000025 0.15642384 -0.021769807
0.2592243 -0.69536936 1.4692744 1.2659119 -0.40163985 2.0339298 1.2801045 0.1984241
0.12546416 2.380354 1.2079505 0.15142345 -0.3071667 -1.4880797 0.76275206 -1.4021717
1.3136299 1.6550595 1.4525489 -0.044828195 -0.2987419 1.9537677 0.09360057 -0.03647937
0.38984543 0.8611847 0.41220653 1.0818832 0.57813525 -0.0015307646 -2.0788958 -0.30298227
2.0287623 0.76975656 -0.94280255 0.10254248 0.45101056 -0.10388822 1.5569268 2.0112565
0.77909184 0.9031783 1.6210703 -0.23008715 -0.48412928 1.2475089 -0.45818636 0.5769122
0.28611094 0.42994878 0.19922167 -1.9980944 1.5094125 0.22509155 -1.3036239 -1.0118805
0.29413354 0.037574157 0.55040115 0.06726797 0.196035 1.152826 0.397387 -0.12666818
0.9548386 0.12634268 -0.24559793 -0.81085074 0.38360855 1.3253158 0.4920776 0.11504816
-1.5393597 1.0306847 1.0958482 0.04102292 -0.2366655 -0.15668944 0.58984077 0.9885047
1.4843929 1.2626793 1.4760972 1.9369112 0.06652727 0.4448765 -1.2052282 0.72889984
-0.5388906 0.5870104 0.023044584 0.3847162 0.39241046 -1.0698662 -0.16822025 1.0165899
0.7343064 -0.0021611608 0.43077567 0.9813521 -1.8467777 -0.3446118 0.6892777 2.1016064
1.0433364 -0.48629898 -1.2047211 0.28612897 0.09470702 -0.8548002 1.490053 0.67609406
-1.578037 0.41048202 0.26399305 0.23592608 -1.3719007 0.7825384 0.008006081 2.0919027
-0.32182282 0.65837276 0.6364112 0.81849456 0.014823085 -0.026799904 -1.3370309 1.1778555
-0.3866917 0.20172063 1.4560217 -0.3296354 -1.0243639 0.26681715 -0.33578196 -0.51504296
-1.731206 1.2713135 0.3913112 1.1932209 1.3498719 0.97881025 -0.36055666 0.065152705
1.2996572 -0.0065229363 1.580481 -0.8853949 1.6400114 0.6630702 -0.5472518 -0.86555576
0.15447406 -0.6392134 0.00317408 2.5403378 -1.1417153 -1.5404552 -0.08366433 0.49945915
-0.027390962 1.6785353 1.1690067 -0.2749444 0.45794132 0.75734484 -0.16548733 -0.95965964
0.371236 -0.07756542 -1.021515 -0.22496718 -0.07620722 -0.72018987 0.803523 0.6004055
-0.93475246 -1.0385131 -0.55834156 -0.69562143 0.3054846 1.3305779 0.56428343 0.8912077
2.6779077 0.26145104 -1.1411417 1.1556823 1.2970886 0.356945 1.3731439 1.4354359
-0.4629811 -0.11453248 0.321901 -1.192889 -1.2951387 -0.55502605 -0.94283545 -0.9133687
0.66665685 2.0394497 1.0055684 -0.30506682 2.1683474 -0.4354812 0.0013063059 0.70733273
-0.045495037 -0.42652908 1.0487782 -0.53456295 -1.7526691 -0.7457704 0.14419125 0.39954004
-1.347649 0.074537665 1.5065027 -1.3815805 -1.4622716 -0.022590904 -1.5833734 1.9580102
1.1875721 -0.95038694 -0.8193105 -0.028019384 1.987914 1.2403632 -0.018475201 0.095355995

l1.bias f4 [8]
00000000: 73ab 113f 30a6 483f 96a1 983f 4950 9d3f
00000010: 243d d33f 5216 f03f 20d9 d93e 7487 ed3f
0.56902236 0.7837858 1.1924312 1.2290126 1.6503034 1.8756812 0.42548466 1.8556962

l2.weight f4 [8, 8]
00000000: 6cb6 b4bf 49e5 203f 7c52 40c0 53c3 3f40
00000010: 16df 2fbf bdf1 a940 868e 0240 ed77 9e3f
00000020: 557b b540 72aa 9940 2313 f1bf 6fa0 893e
00000030: 341f 3640 6d51 9cbf 6831 44bf c2f2 a43f
00000040: 18de 42bf 5281 b8bf b66d 1bbf 6a07 df3f
00000050: 4407 2340 6b7a e0bf b98f 1440 42ba 2440
00000060: dc37 13c0 2332 06bf 1f84 6740 3dd4 0540
00000070: 67af 2e40 d938 60bf 1c26 2740 3fd6 4ebf
00000080: 8a8e 6140 62a2 0840 ed81 f13f 7bcc f4bf
00000090: c7f6 59bf fae7 793f a195 3840 41a3 683d
000000a0: 9d31 78bf f9d7 2140 27ed 913f b540 b63f
000000b0: 72ba 0cc0 c9f0 30bf 5436 1e3f f19d 3940
000000c0: 2234 7fbe 507c 9dbe 0329 0fbe 9058 aebd
000000d0: 6085 73bc c820 0abd d41a 45be b2c2 8abe
000000e0: 2e52 bc3f f475 c3bf d13f 8240 dc05 ecbf
000000f0: 906b d53f 095b 1a40 a509 0fc0 7c67 7040
-1.4118171 0.6284986 -3.0050344 2.9962966 -0.6869978 5.310759 2.039949 1.2380348
5.671305 4.8020563 -1.8833965 0.26880214 2.8456545 -1.2212349 -0.7663789 1.2886584
-0.7612014 -1.4414465 -0.6071428 1.7424138 2.5473185 -1.7537359 2.3212721 2.5738683
-2.3002844 -0.5242025 3.617439 2.091079 2.7294557 -0.8758674 2.611701 -0.80795664
3.524325 2.134911 1.8867775 -1.9124902 -0.8514218 0.97619593 2.8841326 0.056796316
-0.96950704 2.528807 1.1400498 1.4238497 -2.1988797 -0.6911741 0.6180165 2.900265
-0.24922231 -0.30758905 -0.13980488 -0.08512986 -0.014863342 -0.03372267 -0.19248515 -0.27101666
1.4712579 -1.5270371 4.07029 -1.8439288 1.667345 2.4118063 -2.2349637 3.7563162

l2.bias f4 [8]
00000000: b126 ff3f f771 903f 50e8 7cbf 8b3a 9f3f
00000010: c22b dabf 9f81 0cbe e079 c0bd aaae d23f
1.9933683 1.1284779 -0.9879198 1.2439741 -1.7044604 -0.13721322 -0.09398246 1.6459553

l3.weight f4 [243, 8]
00000000: 5b4e 8cbf a891 163e 6dab 65c0 8704 86c0
00000010: 44f7 253f 5871 91bf e021 d43c 18f7 0e3f
00000020: a17c 0dc0 bc30 203f fc94 2ec0 b9e3 d13e
00000030: a173 c3be b4ac a6c0 80b8 243b 18b7 233f
00000040: 2919 e03e 8e22 1cbe 5d7b dd3d dc12 02bf
00000050: 975e 26bf 6121 89be 0d50 a93e 5e0c 21c0
00000060: ab26 523f b679 81c0 a78e 8dbe 08a5 053f
00000070: f773 14c0 a024 7fbf 3d41 b43e d0ae 6bc0
00000080: 5cd8 e53e 1a69 86c0 6de8 e1bd a745 0c3d
00000090: 480f b3be b433 a63e a061 353d ab81 80c0
000000a0: 0b24 503e 1076 1fbf d8d2 993e 508b cd3e
000000b0: 5698 95bf c677 71be 8ae1 4c3e afa3 2bc0
000000c0: 5355 ba3e d09f a9bf 4d97 d73c 9514 cbbe
000000d0: 5eed 11be 9bb8 c73e cd22 9dbe 08b6 a1c0
000000e0: aa5e ef3e 4f3a 6b3d 305f 52bf 88fe 2b3d
000000f0: 612c 7fc0 41e8 553f 7818 533d ac07 21c0
00000100: 5a20 0abf 8fdc 80bf 1193 28be 7387 703f
00000110: d22d 9bc0 31af b4be f941 8d3e 6c3b 43be
00000120: 3eae cc3e bc67 42bf 8c28 a9be b7b2 18be
00000130: 321b c3c0 849f c2bf 16ad 2e3e 6449 fc3e
00000140: 694a 783d 184a b0bd b5e5 fc3e e0a5 0f3f
00000150: c7e3 1cbf d24d 19c0 49db ab3e 2854 99c0
00000160: 0eb1 943e 3b3a 35bf f1d0 cd3e fefd df3d
00000170: b4ba 41bf 8c88 8abf 297a a13e 9076 90bf
00000180: 47c8 92be 4eb3 70bf f54c b43e 0226 4f3f
00000190: 7ad9 01bf 5fb9 debe a8ce 9e3d 369c 9ec0
000001a0: cdd8 6fc0 7311 ce3d c27c 47b9 1c5f ce3e
000001b0: 26d7 acbe 610d b7bf 90d2 963c 4c9f 34bd
000001c0: 1610 8b3e 455f b7bf 9b0d 43c0 3b26 16bf
000001d0: 46ae 51bf 99df 2ebf e2df 453e fe9c 673f
000001e0: b0a0 483d 2832 85c0 d974 07bf 9e19 d43e
000001f0: a9ff 91c0 5019 95be 3cbb c4bd 7f32 173f
00000200: 27a9 95bf 49ab a03e 8c39 ccbe 8eec 183f
00000210: fb77 b5c0 7bf5 99c0 2ae6 2e3e f7fe 6f3e
00000220: c720 a9bf 3773 ab3e f56b 52be 55d0 1d3f
00000230: 8f80 ebbd a7f2 83c0 40bc eb3d 8223 1cbf
00000240: 2552 3e3e 18d5 99c0 8f45 2b3e 6090 263f
00000250: 77df 25c0 fe2f a6be 1856 893d e83d 1ebf
00000260: 945c c7be dbb9 e8bf 6e79 90be eccc f63e
00000270: b1ea 0ebe e2e6 8abf adb2 983e 9330 253d
00000280: 4d05 b43e e594 f9be 4536 65bf 28f8 86be
00000290: 8ab1 55bf 6a68 86bf 573c 8bbe 12f1 933e
000002a0: 0861 aabf 7724 023e d9d3 1c3e b20a 273e
000002b0: 9144 b0bf c928 0bc0 9bd1 833e 75dc 593e
000002c0: ed77 d5be e7eb a23e 0500 01c0 fd55 9c3e
000002d0: 53af dc3d a95c 883e 68cf 5f3d 38d8 94c0
000002e0: 0234 57bf ae41 2e3f 875d 88c0 e286 c4bf
000002f0: bdf2 e93e bc1c d63e 725b 95be 6e73 52c0
00000300: bdca 85be a112 67bf 45c1 edbe f9b8 703d
00000310: f737 9ec0 e264 023f a553 12be ca3c c23e
00000320: 860a 00bc b162 00be aaff 5ec0 cb0e 4a3e
00000330: c32c 22bf a4df a2c0 3087 e8bc e282 443f
00000340: 7b4c 7abd e284 15bf 14ba 9f3d b746 0abf
00000350: 68bc edbe 5c6d 413f a396 8fbe e991 f6bf
00000360: ba86 09c0 800e 083f 132e 67c0 8d87 1ec0
00000370: fb4f 033f 4df3 70c0 f277 683e 99c5 233f
00000380: 4c62 02bf ddbf 663e 2f4d 7dc0 01e1 8ec0
00000390: 53fb 723e 2aff 71c0 c2b4 7a3e c7fc 703f
000003a0: d1f8 eebd 52ee dbbc 1575 efbe 7586 09bf
000003b0: 6096 683e 3158 8f3e 676b a83e 7c0b 3fc0
000003c0: e1d7 d1bd 6df7 dc3e 69b5 56c0 8ef7 71c0
000003d0: 19e2 123f 6fd7 573e 3271 373e bfad ecbf
000003e0: 6783 903c 8acd 3ac0 41d5 65bf a0e1 3cbd
000003f0: e5ba e63e f3b6 aa3e e697 723e b995 e2bf
-1.0961412 0.14704001 -3.588588 -4.1880527 0.6483042 -1.1362715 0.02589506 0.55845785
-2.2107317 0.6257436 -2.7278433 0.4099405 -0.38174155 -5.208582 0.0025134385 0.63951254
0.43769196 -0.15247557 0.10814545 -0.5081003 -0.6498808 -0.2678328 0.33068886 -2.5163798
0.8209025 -4.0461073 -0.27647898 0.5220494 -2.319578 -0.9966526 0.35206023 -3.6825447
0.44891632 -4.20033 -0.1103066 0.034246113 -0.34972596 0.3246132 0.044282556 -4.0158286
0.2032625 -0.62289524 0.30043674 0.4014535 -1.1687114 -0.23580846 0.20007911 -2.6818655
0.36393222 -1.3251896 0.026317263 -0.3966414 -0.14250705 0.3900803 -0.30690613 -5.0534706
0.4675191 0.057428654 -0.82176495 0.041990787 -3.9870837 0.83557516 0.051537007 -2.5160933
-0.53955615 -1.0067309 -0.16462351 0.9395668 -4.8493433 -0.3528991 0.27589396 -0.19065636
0.39976686 -0.75939536 -0.33038747 -0.14911924 -6.0970697 -1.520493 0.17058215 0.49274743
0.060617838 -0.08607882 0.49394003 0.5611248 -0.6128506 -2.3953748 0.3356574 -4.791523
0.29041332 -0.7079198 0.40198472 0.10937117 -0.7567551 -1.0822921 0.31538513 -1.1286182
-0.28668424 -0.940236 0.35214964 0.8091737 -0.5072247 -0.43500802 0.0775426 -4.9565687
-3.7476075 0.10061922 -0.00019024595 0.40306938 -0.33757895 -1.4300958 0.01841095 -0.04409723
0.2716071 -1.4325949 -3.0477054 -0.58652085 -0.81906545 -0.6830993 0.19323686 0.90473926
0.04898137 -4.1623726 -0.5291267 0.41425794 -4.5624585 -0.29120874 -0.096060246 0.59061426
-1.1692246 0.3138068 -0.39887655 0.59735954 -5.670896 -4.811216 0.17079988 0.23437105
-1.3213128 0.3348634 -0.20548995 0.61646014 -0.1149913 -4.1233706 0.11510515 -0.6099168
0.18586023 -4.8072624 0.16725753 0.6506405 -2.5917642 -0.3245849 0.06705874 -0.6181321
-0.3893782 -1.8181719 -0.28217643 0.48203218 -0.13956715 -1.085171 0.2982382 0.040329527
0.35160294 -0.4874641 -0.89535934 -0.26361203 -0.8347403 -1.0500615 -0.27194473 0.2889486
-1.3310862 0.12709223 0.15315188 0.16312674 -1.3770925 -2.1743643 0.25745854 0.21275504
-0.4169306 0.31820604 -2.0156262 0.30534354 0.10775628 0.26633194 0.054641157 -4.651394
-0.8406373 0.6806897 -4.261417 -1.5353663 0.45693007 0.41818798 -0.2917133 -3.2882953
-0.2613124 -0.902628 -0.46436515 0.058770154 -4.9443316 0.50935185 -0.1428972 0.37937003
-0.007815009 -0.12537648 -3.4843545 0.19732206 -0.6334955 -5.0898 -0.028384775 0.7676221
-0.061108094 -0.5840589 0.077991635 -0.5401415 -0.46432805 0.75557494 -0.28044614 -1.9263278
-2.148848 0.53147125 -3.6121871 -2.4770234 0.51293916 -3.76485 0.22702006 0.63973385
-0.5093124 0.22534128 -3.957836 -4.4649663 0.23728685 -3.781199 0.24483016 0.9413571
-0.11668552 -0.026847038 -0.46769014 -0.5372079 0.22713614 0.27996972 0.3289444 -2.985076
-0.10246254 0.4315752 -3.3548224 -3.7807345 0.5737625 0.21078275 0.17914274 -1.8490523
0.017640783 -2.918795 -0.89778525 -0.04611361 0.45064464 0.33342704 0.23690757 -1.7701942

l3.bias f4 [243]
00000000: 3bb2 a33e ef58 2f3f 5837 8cbf 25c1 d43e
00000010: cdb4 a73b 0e07 eebe d0b6 43be b65f cd3f
00000020: ddc3 933f 45d8 bcbd 4d4f 103e 5961 cabf
00000030: 575a b4be 4a93 e83d 827e 073f 388c 8b3e
00000040: 2574 1cbd 0a1d 14bf 40b8 a93e fad0 3e3e
00000050: 4cf4 8e3e 7a55 6cbf 7e13 a6bc bf1a d53e
00000060: 6c10 73be d7f8 a63f 57da 66bf e9d0 2a3f
00000070: 0045 1ebe 9e7c 83bd 3acc 70bf 75b9 aebc
00000080: 0157 0cbf 3198 8b3c 44d8 96bf 2c6f d2be
00000090: 282b 74bd e7f4 77bf 193d b3bf 2d24 5abf
000000a0: 1fb9 e3bd 9e49 763e 789d 87bf 88d7 d0be
000000b0: 42e2 0f3f d385 75bf 3d53 b4bc 28e4 c2bf
000000c0: e361 99be 0eff 183f 79cb 77bf 0776 acbf
000000d0: 850c 8abe 55ee 163e cb79 cdbf 868a d33e
000000e0: cdf6 fabf f4e9 f2be 1e5c 42bf c5f8 22bf
000000f0: 279b 643e ff70 a1bf 80c3 3fbe dc99 3cbf
00000100: c88c c23e dd33 973d 7362 9fbd f0db 0d3f
00000110: 65b1 dd3e 5520 7cbf bb13 ba3e a295 2bbf
00000120: 6dd9 753e 5710 77be 9547 8ebf e8ff 933d
00000130: 5752 c93e 0f30 90bf 8fee 003f fff0 f93e
00000140: 9507 a4bd 48ce aa3d 8d69 373e ad32 893f
00000150: a71b 713b d407 65bd 36ac 3b3f a9e8 f73c
00000160: e705 603f 3c39 4e3e 04c4 78be 54f4 28bf
00000170: 83ee fdbf 4e1c 0f3f efbb b0be ab98 bf3e
00000180: 9c86 84bf 9b01 83bf a291 8dbd 819f 05bd
00000190: 9832 9c3a df17 793d a458 1e3f 681b 68be
000001a0: 0993 03bf 5056 ef3e 467a 9a3e 0f50 da3e
000001b0: b06b 953e 087b 1e3f cd79 e83e 65ad a73f
000001c0: a9fd e9bd 354e 80be c28d f43e 5178 4a3f
000001d0: e1fa 003f 0a96 0dc0 f8b4 2c3e 99bb 983e
000001e0: 93dd f7bf 91c1 9fbf 87f3 e83b f18d 133f
000001f0: ae89 2b3c 4e80 3cbf 8917 1cbf 15ae be3e
00000200: d390 a53e 633d c73e 5990 b73b d86d 173f
00000210: 8917 3cbf d3aa 4c3e e0de 18bf 039c e9bf
00000220: ae66 f3be f0a8 1e3b 8ca0 a6bd a578 04bf
00000230: 1c97 6fbf 18e3 803e baa0 39bf 81e4 0f3f
00000240: 5ec5 dfbf 7c57 5c3e 530d 7abf f609 2cbf
00000250: 1e0f 53bf 5ce8 683f 03df 01bf 293a 29be
00000260: 5987 9dbb def3 dfbe 528e b3bd 59da 86bf
00000270: 78b2 6a3f c125 b73f 6087 1bbf 37a7 293f
00000280: 62ca 8d3e ed7b 48be bed0 08be cb2d c73e
00000290: 4730 c83e 8ad6 dcbe 773e 473e aec9 d6bd
000002a0: 821b 6d3f aee1 0dbe 16ca 10bf 042d 1c3f
000002b0: 4403 73bf 22b8 ab3e 9d2c 983e 4443 e83d
000002c0: c776 e6bd 8ff0 84bf 885e abbf 5819 9dbe
000002d0: 01f0 6dbf f3d3 e83e 862c 98bf 0a9f 92be
000002e0: a178 58be 0660 8fbf fb95 27be 9822 863b
000002f0: d495 38bf d8d7 b7bf 51e1 0ebe a96b a23e
00000300: b874 e73e 4490 9c3e 951e 7cbd c25d 00bf
00000310: ad2a 1a3f 84b9 1cbe dd79 813d 39ce 82bf
00000320: 4a7d 0dbf 96b6 95be 7e37 8f3d 637e b6be
00000330: 2333 c33e 06bb 62bf d916 5bbe 9af5 24bf
00000340: 815d 86be 2db0 86bd 8b18 893f 18d4 8cbc
00000350: b496 0bbf b162 12bf 0bd1 f7bb 1402 27bf
00000360: 149c 31be 461c 123e 4c47 883d 9ee7 6abf
00000370: f3a1 373e 5d7a d53c 67a4 afbf 6f87 533f
00000380: 5b25 27bf 7c09 123f 3f67 283f a890 8bbe
00000390: 53c3 3d3e cb16 32bf e57b 6bbe cb36 8bbe
000003a0: 91f2 70bf b35e 98bd 2625 1dbf 0719 cebe
000003b0: 9900 843e 0457 8b3e f140 4fbf f308 1bbf
000003c0: df0b 20bf 3ed2 9abf 198a e3bd
0.31971917 0.68495077 -1.095439 0.41553608 0.0051179887 -0.46489757 -0.19112706 1.6044834
1.1544148 -0.09220938 0.14092751 -1.5810958 -0.35225174 0.11356218 0.5292741 0.27255416
-0.0381967 -0.5785681 0.33148384 0.18634406 0.2792076 -0.92317927 -0.020272966 0.41621968
-0.23736733 1.304469 -0.9017691 0.6672502 -0.15456009 -0.06420253 -0.94061625 -0.021328667
-0.5482026 0.017040344 -1.1784749 -0.41100442 -0.05961147 -0.96858066 -1.400302 -0.8521145
-0.111192934 0.2405152 -1.0594931 -0.40789437 0.5620462 -0.95907325 -0.022012347 -1.5225878
-0.29957494 0.5976418 -0.9679485 -1.3473519 -0.26962677 0.14739354 -1.6052793 0.41316622
-1.9606568 -0.47444117 -0.7592181 -0.6366084 0.22324811 -1.2612609 -0.18726921 -0.7367227
0.37998033 0.07382939 -0.077824496 0.55413723 0.43299404 -0.98486835 0.36343178 -0.67025197
0.24008723 -0.24127327 -1.1115595 0.072265446 0.39320633 -1.1264666 0.5036401 0.48816678
-0.08009259 0.08340126 0.17911358 1.071859 0.0036790164 -0.05591567 0.7330965 0.030262308
0.87509006 0.2013902 -0.24293524 -0.65997815 -1.9838413 0.55902565 -0.34518382 0.37421164
-1.035358 -1.0234865 -0.06912543 -0.032622818 0.0011916934 0.06081378 0.61854005 -0.22666705
-0.5139623 0.4674554 0.30171412 0.42639205 0.29183722 0.6190648 0.45405427 1.3099791
-0.11425335 -0.25059667 0.47764403 0.7908984 0.5038281 -2.2122827 0.16865909 0.29830626
-1.9364494 -1.2480947 0.007109109 0.5763846 0.010469837 -0.7363328 -0.6097341 0.3724219
0.32337055 0.38914022 0.0056019244 0.59151983 -0.7347341 0.1998704 -0.5971508 -1.8250736
-0.47539276 0.0024209581 -0.08136091 -0.5174659 -0.9358995 0.2517326 -0.72510874 0.56208044
-1.7482107 0.21517748 -0.9767658 -0.672027 -0.8244494 0.9097955 -0.50730914 -0.16526093
-0.0048073945 -0.43740743 -0.0876738 -1.0535384 0.9167857 1.4308397 -0.6075344 0.66270775
0.27693468 -0.19578524 -0.13360879 0.38902125 0.39099333 -0.4313243 0.19457422 -0.10487686
0.926201 -0.13855621 -0.5655836 0.6100619 -0.9492686 0.3353892 0.29721537 0.11340955
-0.11253124 -1.0385913 -1.3388224 -0.30683398 -0.9294434 0.45474204 -1.1888587 -0.28636962
-0.21139766 -1.1201179 -0.16365807 0.0040934794 -0.7210362 -1.4362745 -0.13953139 0.31722763
0.45206237 0.30578816 -0.061552603 -0.50143063 0.6022137 -0.15305144 0.06322072 -1.0219184
-0.552693 -0.29240865 0.06993006 -0.356433 0.38124952 -0.88566625 -0.21395434 -0.6443726
-0.26243213 -0.065765716 1.0710615 -0.017190978 -0.5452683 -0.5718184 -0.0075627617 -0.65237546
-0.17344695 0.14268598 0.06654224 -0.9175967 0.17932872 0.026059324 -1.3722047 0.8262853
-0.65291375 0.5704572 0.6578254 -0.272588 0.18531542 -0.6956603 -0.22996481 -0.2719024
-0.94120127 -0.074399374 -0.6138481 -0.4025347 0.25781706 0.27214825 -0.8095847 -0.6056053
-0.62518114 -1.2095411 -0.111103244
