Backend/data.pth (torch, 55146 bytes, 6 tensors)

l1.weight f4 [8, 660]
00000000: 626a 7ebf 483b 2f40 c48d 19bc 26a4 b2be
00000010: c0e4 2d3e b979 303f 34dc a93f 8c5c cdbf
00000020: d109 ba3d fdac e23d 79a0 a7bf bcd5 8bbf
00000030: 4da4 333e 2f73 0fbb 2de6 063f e19c dc3f
00000040: a07c 9f3f cadb f83e 0dff 88bf 3aae ba3e
00000050: 5db2 7bbf bb9e 433e eb56 163f 0b90 073f
00000060: 2306 a5bf b448 793f 0099 c23e dec7 acbf
00000070: 7bc2 7f3e cbb9 c4bf 976d 55bf 0738 163f
00000080: ec1f 35be a2a0 1a40 ce47 1dbf 4900 90bf
00000090: b3a2 e3be b8a7 403e 13a6 293e 434a b43f
000000a0: 1b73 413f c07c 7d3f 5283 683e bd13 5d3f
000000b0: 354a 01c0 4f44 543f d5e9 adbf a9f7 1a3d
000000c0: 782e 4bbe 28be adbe 9fc2 813f 7a0d c43e
000000d0: 0938 4f3f 923d d4be 8191 293f 3387 11bf
000000e0: 6151 16bf 2b70 323f 267d d43e edbf 163f
000000f0: a15c 0ebf 054f c03f 4e81 a4bf 4f1d 8dbf
00000100: 5754 f03d 7601 7ebf 6b45 823f 4937 ce3e
00000110: 2782 8c3e 80e2 113f 72d2 53bc fc95 b93f
00000120: 5ad9 b83f 8822 3c3f 4cb9 193e c0f1 5abf
00000130: e7d6 ca3e 304e 9a3c 1256 e5bd 9326 f93f
00000140: e755 183f 97bc 1abf f760 38be 45cc 52bc
00000150: e36a 973f 9adf 6abf 5143 893f 8065 883f
00000160: 7335 3bbd 752a 613f 09aa 2e3e a57a 0cbd
00000170: 5a83 97bf 26a7 fd3d 59c3 f13e f9aa b0bf
00000180: dff5 c53f 5220 023f f964 473f b052 86bf
00000190: f7d3 e23d b008 a13e 62dd cd3f d9a2 60be
000001a0: 68b1 8d3e 83b9 b63f 710d 68bf b889 1abf
000001b0: c996 25be 8380 fd3f 03ef 16c0 6521 613f
000001c0: f6d9 2a3e 20f6 e63f 7db2 d7bf fccd b8be
000001d0: b295 883f ce4b a7bf 5714 c13f 1bc9 20bf
000001e0: f0f2 a33f 485c 1cbe 6190 75bf f9d3 eabe
000001f0: bea0 eebe 898f 78bf b77e 4abf 0365 1e3f
00000200: c4a0 063f 2140 cd3e 73ea 33bf 5c64 573e
00000210: 3e00 cabe 3822 6cbd 1669 b63f 29b5 98be
00000220: c1eb 773f b7be 7fbf 7a6a d6bd 3762 e33e
00000230: 8f33 f4bd d235 9bbd 9277 48be 2980 cebf
00000240: 601a fc3e ca20 0f3e f182 f13f 597c 66be
00000250: e24e 27bf 0311 193d 2ce0 c0bc 14b1 91bf
00000260: 3c65 233f 3665 8bbf 59eb 8e3f 71e0 263e
00000270: 83ab cc3f 5de5 7c3d 4cb5 4a3f 492b f4be
00000280: 4fcb c83e 96eb 753d 98e7 fe3f 3a38 70be
00000290: cd24 503f b06d d6bd 45f6 163e a519 f03e
000002a0: b0c7 6cbf 5bae 17bf 4743 f2be d206 87be
000002b0: be95 bdbf ab32 b5bf 3ead c13f 7325 193f
000002c0: 4d33 afbf d881 0fc0 7896 b5bb 70b6 873f
000002d0: caa5 8a3f 4a61 d6bd 1993 9c3e f149 323f
000002e0: 61f7 cfbf 371e 863f 1b8b 1fbf 207e b13f
000002f0: 88e6 2c40 00c8 94be 1895 cc3e b8ca c53e
00000300: 7067 b43d 5dae 9bbe 99cd c93f bcf6 cb3f
00000310: 7ad0 29be 25c7 19bf 431c 9f3e d88e a83e
00000320: 8c9b 5e3f dc64 3a3f 45e9 fdbc 65d8 bfbe
00000330: d188 afbd f9f2 4b3f 7507 03bf 8304 58bf
00000340: 30d7 f03f ee49 91bf 3760 823f fcc1 f6be
00000350: 615f 8cbe 3ced 8ebc f4a7 84bf aa7a e73e
00000360: 2d5d c83f da58 05bf 4089 03bf 03ac 9c3d
00000370: 94a3 443f 85fe 7abe a960 ab3f 6ecf d43f
00000380: 761d b7bf 2929 d6be 2171 e9be 5517 9e3e
00000390: b17f fabf 0f60 b33e 696e 8c3d a963 743f
000003a0: d34b 1a3f a114 9a3d a803 59bd 0975 413f
000003b0: 907e 92bf 5b30 b53f ec15 613e bd54 5bbe
000003c0: 4894 d13e 5a94 2abf cb6e afbf 4891 87be
000003d0: bf4d 0ac0 4fb0 0fc0 e092 97bf 4adc 0dbf
000003e0: 7cbf bc3e 5db3 623f b6b7 1dbf 5013 c8bf
000003f0: 8d4e 0040 08a9 55bf 8cd9 513c e432 16bf
-0.9938108 2.7379932 -0.009372178 -0.3489086 0.16981792 0.68935734 1.3270326 -1.6043868
0.090839036 0.11068151 -1.3095847 -1.0924602 0.17543145 -0.0021888723 0.5269497 1.7235376
1.2459908 0.48605186 -1.0702835 0.3646105 -0.98319036 0.1910352 0.58726376 0.5295417
-1.2892498 0.9737656 0.38007355 -1.3498495 0.24976532 -1.53692 -0.83370346 0.5867924
-0.17687958 2.4160542 -0.6143769 -1.1250087 -0.44460067 0.1881398 0.16567259 1.4085163
0.7556626 0.9901848 0.22706345 0.86358243 -2.0201542 0.8291673 -1.3586985 0.037833843
-0.19841945 -0.3393414 1.0137519 0.38291532 0.8094488 -0.41453224 0.66237646 -0.5684692
-0.58717924 0.69702405 0.4150173 0.58886606 -0.5561009 1.5024115 -1.2851961 -1.1024569
0.117348365 -0.9922098 1.0177435 0.40276554 0.27443048 0.56986237 -0.012928592 1.4498897
1.444133 0.7349019 0.15012091 -0.8552513 0.39617082 0.01883611 -0.11198057 1.9464897
0.59506077 -0.60444015 -0.18005739 -0.012866084 1.1829494 -0.9174744 1.0723668 1.0655975
-0.04570527 0.8795541 0.17057051 -0.03429665 -1.183696 0.12385397 0.4721935 -1.3802177
1.5465659 0.50830567 0.7788845 -1.0493984 0.11075585 0.3145194 1.6083186 -0.21937121
0.27674413 1.4275364 -0.9064551 -0.6036639 -0.16170801 1.9804844 -2.358338 0.8794158
0.16684708 1.8043861 -1.6851345 -0.36094654 1.0670683 -1.3070009 1.5084332 -0.6280686
1.2808514 -0.15269578 -0.9592343 -0.45864847 -0.46607012 -0.9709402 -0.790996 0.6187288
0.5258906 0.4008799 -0.70279616 0.21034378 -0.3945331 -0.05764982 1.425082 -0.29825714
0.96844107 -0.9990038 -0.104695275 0.4441087 -0.119238965 -0.07578625 -0.19576862 -1.6132861
0.49238873 0.13977352 1.8868085 -0.22508372 -0.6535474 0.03736974 -0.023544393 -1.1382165
0.63826346 -1.0890262 1.1165572 0.16296555 1.5989841 0.061742175 0.7918289 -0.47689274
0.39217612 0.060039125 1.9914427 -0.23458949 0.81306154 -0.1047014 0.14742382 0.46894565
-0.924922 -0.5925042 -0.47316954 -0.2637239 -1.4811323 -1.4156088 1.5130994 0.5982277
-1.3687531 -2.2423 -0.005541619 1.060255 1.0831845 -0.10467775 0.30580977 0.69644076
-1.6247369 1.0477971 -0.62321633 1.3866615 2.7015705 -0.29058838 0.399575 0.38631225
0.08808792 -0.30406466 1.5765868 1.5934672 -0.16583434 -0.60069495 0.3107625 0.3292148
0.86956096 0.7281015 -0.03099502 -0.37469783 -0.085710175 0.7966762 -0.51183254 -0.84381884
1.881567 -1.1350687 1.0185612 -0.48194873 -0.27416518 -0.017447107 -1.0363755 0.45210773
1.5653435 -0.520887 -0.513813 0.07649996 0.768121 -0.24511154 1.3388873 1.6625803
-1.4305866 -0.41828278 -0.45594123 0.30877176 -1.9570218 0.35034224 0.068569966 0.9546457
0.6027195 0.07523466 -0.052982002 0.75569206 -1.1444874 1.4155382 0.21981019 -0.21419044
0.40933442 -0.66632617 -1.3705686 -0.26478028 -2.1609952 -2.245136 -1.1841698 -0.5541426
0.3686484 0.88554937 -0.61608446 -1.5630894 2.0047944 -0.83461046 0.012808215 -0.586714

l1.bias f4 [8]
00000000: 7230 a33f e73d e63f 8c06 8a3f 3333 903f
00000010: 3d36 0840 efb3 1d3f f9f2 6d3f 3da5 653f
1.2749159 1.7987641 1.0783248 1.1265625 2.1283104 0.6160268 0.9294887 0.8970526

l2.weight f4 [8, 8]
00000000: 9145 0ebf 8528 98bf e59f 0740 abcd db3f
00000010: cc65 f0be cfc0 7a40 2435 203f 6d60 cbbf
00000020: f7e1 903e 0b3e 2540 11d9 8e40 50d5 92bf
00000030: 41f7 893f a431 a83f 50ba 36c0 1864 f13f
00000040: 057c 633e 0b2e a7bf bc85 a93d 982e 2240
00000050: c141 8940 31de 0dc0 86ff 0ebf 28f8 0ebf
00000060: 27f8 cd3e a5e7 c0be cf13 0c40 2da0 0140
00000070: 2fe6 a4bf 58d6 38bf 4490 8cbf bdf1 5640
00000080: b6d1 4c3e 3e1d 4840 e2f0 66c0 62a1 cb3f
00000090: ad53 37bf a256 8340 075c 563f c3d4 b640
000000a0: 6193 d4bd e7fa c6bd 0ccb b0be e1fc 82be
000000b0: 381d b73d 7715 2d3e df57 8fbd 8835 93be
000000c0: f459 8040 1f9e 8340 6fcb b83f 258c 383f
000000d0: feac 813d 54fd 9bbf b216 9a40 6323 24c0
000000e0: 61db a5c0 1ede 483e 8bc5 923f 492b 913f
000000f0: 77bc 5f40 047a f9be f90b ba3f 53b9 5d3f
-0.555749 -1.1887366 2.1191342 1.717214 -0.46952665 3.918018 0.62581086 -1.5888802
0.28297397 2.5819118 4.4639974 -1.1471348 1.0778581 1.3140149 -2.8551216 1.8858671
0.22215278 -1.3060926 0.08277461 2.5340939 4.2892766 -2.2166865 -0.5585865 -0.55847406
0.40228388 -0.3767673 2.188709 2.0254014 -1.2882746 -0.7220206 -1.0981526 3.3585045
0.20001873 3.1267848 -3.6084523 1.5908625 -0.71612054 4.1043253 0.8373417 5.713472
-0.10379673 -0.097158246 -0.34529912 -0.25583556 0.0894112 0.1690272 -0.06999182 -0.2875178
4.0109806 4.113052 1.4437083 0.72088844 0.06331824 -1.2186685 4.8152704 -2.5646598
-5.1830297 0.19615981 1.1466535 1.1341335 3.495878 -0.48725903 1.4534904 0.8661091

l2.bias f4 [8]
00000000: 5605 14bf c1e3 ad3f 380b 1240 ecb0 99bf
00000010: 91bc 943f f972 81be d568 4c3f 6006 a93e
-0.5782064 1.358513 2.2819347 -1.2007117 1.1620046 -0.2528303 0.7984746 0.33012676

l3.weight f4 [243, 8]
00000000: 4721 78bf 07f6 90be 18cb 593f 016a 81bf
00000010: a801 6ec0 77c6 a43e c7da a73e 7462 c8bf
00000020: 1ee3 86c0 74af 503f e58c 33c0 1621 53bf
00000030: 13e4 173f 98d4 60bd c39f 93bf d821 9ebf
00000040: c573 d4be ab21 013e 2e20 7b3e 4ef1 413e
00000050: 07ec cebf 5f6d 7abe 283d 8abe db80 dabe
00000060: 6da4 b5c0 b8f4 05be 46dd 58bf 3975 97c0
00000070: fbab cabd 8e10 673e 3ad8 e93e acb4 e5be
00000080: 6db1 c5bd 7b92 a9bc f228 003f 52b1 df3e
00000090: 7e4d c6bf 8fd0 af3e f7bf f7bf 5925 043d
000000a0: 63ee 813d 4e75 433d 6b1b 56be 14a0 1f3e
000000b0: 7fb0 72bf b1c5 a1be 30c8 94bf 1750 863e
000000c0: 3e38 03bf 91a8 0ebf 624c c83e 575b 6b3f
000000d0: f813 4ebf 7c47 b8bd 267c 4dc0 1c9d 1c3e
000000e0: f48e 42be d629 ad3e 9ddd 2a3f 8ae2 87bf
000000f0: 097c 8cc0 cb74 5fbe be9b bbbf d0f6 e93e
00000100: 0252 89c0 b2d1 da3e 1e79 1a3f e3ca 6ec0
00000110: f980 37bf d00f 1f3d 6df7 83bf a9f0 1d3f
00000120: aad7 bebf 365d 153f d478 6fbe 109e 92c0
00000130: 2590 50c0 418c 923e 97ac 4c3e 6857 bb3e
00000140: 15d3 91be 698b cabe dc3c 5cbf 43a1 003f
00000150: d26a 223e d0a6 26be 76f4 48bf 4eda 94bf
00000160: eba7 7f3e d240 6b3e 0427 2ebe 2735 27bf
00000170: 5d3c ebbf 13ca 9f3e 6cb3 14bf 2f4e 8a3e
00000180: 8130 5a3f b8a0 56be a23a c23e bf87 64be
00000190: 5f10 f4bf c2a0 3e3e 4af9 01c0 2dfe 3b3e
000001a0: 12f5 823e 1a33 033f 95e4 30c0 f0cc d0be
000001b0: 5378 28bf aaf1 8dbe cbca b33d 45fd 97c0
000001c0: 2c67 0ac0 a7ed f63e fee1 06bf b721 66bf
000001d0: 27ad dd3e 9f1c 973e 9679 edbe ec30 98bf
000001e0: 7706 0abf b244 03bf a69c 6c3e 9606 2ac0
000001f0: 8ba2 d0bf 5cbc 81bd f24d 223f 9d1b 9dc0
00000200: eaf2 8cc0 4372 823d 887a 3dc0 e5f9 98c0
00000210: 13c9 03bf f488 ca3d ffc2 543f f335 56c0
00000220: 04a9 a5bf 4cea b43e 9299 05c0 7758 6fbf
00000230: a5cf 5abf 21a6 30be b12e 123f 229a 87c0
00000240: ca4f adc0 44c1 eb3e 4dbd 3d3f 2071 8cc0
00000250: f68a 95c0 984d 9dbd fafa 943e 8a98 bfbe
00000260: 7c42 26c0 0e77 8abe 18d5 5c3e a0f2 35c0
00000270: c2da b2be a752 4abe e689 98bd 3cf5 a33e
00000280: 20fa 95bf 2c02 6ebe 6ca4 ec3e 9cb9 20bf
00000290: d12d bdbe 500d 81bd 2eea d2bc a463 3cbf
000002a0: 3323 79bf cf5f e03e db2a 87be 8241 01bf
000002b0: 8f90 38bf 826c 1a3e 9115 743e b337 aec0
000002c0: d6b1 69c0 fed2 293f 4edd 2f3f 3dbb a9be
000002d0: ea01 82c0 48a0 6ebe 071c 1b3e 45cf f3bf
000002e0: 2ba0 823f e269 8abd ba30 213e 4ba3 81c0
000002f0: cc80 99c0 d8b9 84bd efaf f4be 7211 343e
00000300: 54e4 99c0 9201 7b3f 4ad9 8fbf 752a e33c
00000310: 390c 523e 2ccf ba3d 11f5 2cbf 6d49 5cc0
00000320: 81d2 c9c0 52a5 733d 546f 69bd bde6 dfbf
00000330: 797e c43e 4987 8a3e 97cd 84bd 45de 3ebf
00000340: 970d 1a3f 9bd5 e1bc bf28 18be 2689 ca3e
00000350: 6d09 93bf 664c 9bbe e00f ddbf e1ab dfbe
00000360: b2ea 99c0 f14d 13be a3b6 bebe 0e26 603f
00000370: d7f2 c23c 73f4 8bbe e6fa 76bf 8783 0bbf
00000380: b33e 91c0 b2f4 723e 4f96 8bbf 9d3f 213f
00000390: fca3 d43e bc91 b73d 337f 9dbf d65a f8bf
000003a0: 7519 363f 5c02 d0be f4b3 80bf f7fb a1be
000003b0: c0e7 d7bf a0a9 07be b35b 733d 41bb 26be
000003c0: 9192 0dbf 3059 7dbe b018 bcbf d19f 8a3e
000003d0: ba47 f2be f013 7a3d 35f3 6c3b 3ef6 16be
000003e0: 23c2 033f 71c1 9b3e 1a88 3abf 0b10 e8bd
000003f0: b6a8 a8bf 8d68 aa3e 52ae 11bf fdbe 35bf
-0.9692578 -0.28312704 0.8507552 -1.0110475 -3.718851 0.32182667 0.327841 -1.5655046
-4.2152243 0.8151772 -2.8054745 -0.8247236 0.5933239 -0.054890245 -1.153313 -1.2354078
-0.41494575 0.126105 0.24523994 0.18939707 -1.616578 -0.24455784 -0.26999784 -0.42676434
-5.6763215 -0.13081634 -0.84712636 -4.7330594 -0.09896084 0.22564909 0.4567278 -0.44864404
-0.09652982 -0.02069973 0.5006248 0.43689972 -1.5492399 0.34338805 -1.9355458 0.03226218
0.06344297 0.047719292 -0.20908897 0.15588409 -0.9480056 -0.3159614 -1.1623592 0.2623298
-0.51257694 -0.5572596 0.39120775 0.9193625 -0.8049922 -0.089980096 -3.2107024 0.15294307
-0.18999845 0.3382098 0.66744405 -1.0616009 -4.390141 -0.21821897 -1.4656904 0.45696115
-4.2912607 0.4273811 0.6034106 -3.7311332 -0.7168117 0.03883344 -1.0309883 0.61695343
-1.4909565 0.58345354 -0.23385936 -4.5817947 -3.258798 0.2862263 0.19987713 0.36590123
-0.28481355 -0.39559487 -0.86030364 0.50246066 0.15861061 -0.16274571 -0.7849802 -1.1629121
0.249664 0.22973946 -0.17007071 -0.6531548 -1.8377796 0.31208858 -0.58086276 0.27012774
0.8523026 -0.20959747 0.37935358 -0.22317408 -1.9067496 0.18616012 -2.0308404 0.18358679
0.255776 0.5124985 -2.7639515 -0.40781355 -0.658086 -0.27723438 0.08778914 -4.7496667
-2.162547 0.4822819 -0.52688587 -0.89895195 0.43296167 0.29514024 -0.46381825 -1.188993
-0.53916115 -0.51276696 0.23106632 -2.656652 -1.6299604 -0.06334755 0.63400185 -4.909621
-4.4046526 0.0636945 -2.9606037 -4.7805047 -0.5147869 0.09889403 0.8311004 -3.3470428
-1.2942204 0.35335004 -2.0874982 -0.9349436 -0.8547309 -0.17250873 0.57102495 -4.237565
-5.41599 0.46045887 0.74116975 -4.388809 -4.673213 -0.076808155 0.2909773 -0.37421066
-2.597808 -0.27043957 0.21565664 -2.8429337 -0.34932524 -0.19758092 -0.07448177 0.32023036
-1.1716957 -0.23243016 0.46219194 -0.6278322 -0.36949018 -0.06301367 -0.025746431 -0.7358954
-0.97319335 0.43823096 -0.26399884 -0.5049058 -0.7209558 0.15080455 0.23836352 -5.444299
-3.6514792 0.66337574 0.6869706 -0.33150664 -4.0627337 -0.2330333 0.1514741 -1.9047629
1.0205129 -0.06758477 0.15741244 -4.051183 -4.7969723 -0.064807594 -0.47790477 0.1758478
-4.809122 0.9804927 -1.1238186 0.027730206 0.20512475 0.09121546 -0.6756144 -3.4419816
-6.3069463 0.059483834 -0.056990936 -1.7492291 0.3837774 0.2705634 -0.06484526 -0.74557906
0.60176986 -0.027567675 -0.14859293 0.3955776 -1.1487252 -0.30331725 -1.727047 -0.4368582
-4.8098993 -0.14385201 -0.37248716 0.87558067 0.023797436 -0.27334937 -0.9647659 -0.5449757
-4.5389037 0.23726156 -1.0905246 0.6298769 0.4153136 0.089633435 -1.2304443 -1.9402721
0.71132594 -0.406268 -1.0054917 -0.31637546 -1.68676 -0.132483 0.059413623 -0.16282369
-0.5530177 -0.24741054 -1.4695034 0.27075055 -0.47320348 0.06105417 0.0036155705 -0.14742371
0.51468104 0.30421022 -0.72863925 -0.11331185 -1.3176486 0.3328289 -0.56906617 -0.7099455

l3.bias f4 [243]
00000000: 7dcd 06be 240c 583f c1b9 55bf 3d0e a9be
00000010: 1299 7abe e0e5 d9be 42aa f8be 2691 733f
00000020: 50ec 913f 99d4 c13d 5cf5 08bf 5bba 7bbf
00000030: 2780 30bf 449e a8bd 0f2a 393f e365 af3f
00000040: 8b94 7f3e f4a0 0ebd 6bd3 7c3e 142a ab3e
00000050: 1c18 393e 7380 513e 0af9 8b3d 6cba 94be
00000060: 2103 e23e 437a 883f 6120 cb3e dc93 9abf
00000070: b894 1abf 51d4 c83e 4eaf 20c0 8c85 efbf
00000080: 9da1 5bbf 03c0 38bf fe07 2fbf f5cd 1abf
00000090: 3acc 80be 6573 acbf b989 b2bf 1f1d 38bf
000000a0: c5ec 2cbe da54 7d3e 50b5 a0bf b726 17bf
000000b0: 33e3 cbbd 73af 023d ee50 e9be fa8c 94bf
000000c0: eac4 03c0 7092 5dbf af9d c3bf c252 fdbf
000000d0: e2ed a2bf e49b 13bf 90d6 cebf b071 243e
000000e0: 64e6 09bf 00f6 34bf a0f5 053e b720 823f
000000f0: c4eb 6d3f caf9 a0bf e8b1 c83e 2870 e2be
00000100: 86b8 463e 97d9 07bf fcfe 4dbf 7067 3c3e
00000110: 9e52 163f 52a8 edbe 4991 96be 0390 c0bf
00000120: 6fe7 033d b4b8 293f 6583 22be 7c79 a5bd
00000130: e94f 2e3f 604e e6bd 6c9c 8e3f 984f 543f
00000140: b9a4 b1be 10da 8d3f 2f55 1a3f c72a 523f
00000150: 3adc 163e c737 b83e 72ed 413f d52e f5be
00000160: 1cd9 573b 70a3 b53e 1095 97bf baff 96be
00000170: 3660 3ebf 3fc6 2bbf b22d f5be 0767 2a3f
00000180: 8371 c5bf a3bd 13be 442a 61be 93c3 c9bd
00000190: a61e cabf 5e1f 3c3f a66b 10bf 6dc1 0c3e
000001a0: d59a 43bf 146c 6c3e 5a62 e93d df1c 8abd
000001b0: 6e88 973d a609 3e3f 811a 18bf e592 f6be
000001c0: a24d a9be d998 acbe faf2 783e d113 6f3f
000001d0: 965f 033f cf4d 68bf 05eb 95bf e02c 2d3e
000001e0: 49e1 163e 2f7b 3dbf f0a4 8fbd cc51 a73f
000001f0: cac5 3c3f c64c 87bd d684 133f a617 5a3f
00000200: 2b8e df3e 642b 1a3f c9a2 8abe 0d18 d53e
00000210: 6724 d5be 73e3 a4be a507 0abf f6d6 46be
00000220: e460 22bd d51c 03be 5cc7 783f 830b 973e
00000230: 1498 1ebe d3ad d63d 3846 70bf 9b8e 243e
00000240: 9660 81bf 1955 6a3d f9d1 99be bce4 06bf
00000250: 6c87 2f3c 4da9 0abe 401f bb3e 57ac 8cbf
00000260: c90b 23bf 4373 fbbe d726 21bf 1543 e4be
00000270: aa2e 633f b7bd d63f 1e53 2ac0 dec5 9ebd
00000280: 6fba 013f 171c 833e cf16 a03e 2ae7 013f
00000290: 8617 8cbd cc09 e53e b153 8bbe ac3e 5c3e
000002a0: 98fa 473f 3be4 a63e 2708 c2bd f12b 3bbd
000002b0: 256f 01bf 36fa 84be 45a9 853d 6b31 84bf
000002c0: 6887 32bf 38fe 85bf 246c 84bf 62ed cb3d
000002d0: e609 003e 4d57 cd3d 15a3 37be 123a 1dbf
000002e0: 2e4a 54be c644 7bbf 4bf8 90be 2a0f 8c3f
000002f0: 607a 27be 767c efbe 404e 53bd 7122 d2bf
00000300: ecf3 073f 0a0a c1be 115b 17bf 465f e9be
00000310: 3e5d 50bf f2f2 a53d 03d9 99bf ebc2 93be
00000320: 307f 40be da83 51bf 8540 423b a5bc 0dbf
00000330: 7af4 39bf 24d0 cb3c c367 36be 7ba8 d73d
00000340: 0884 a8be 6e42 e33d 9cc6 753e c9db 89bf
00000350: 1085 68be ea53 5cbe b753 dfbe 61a1 0cbd
00000360: 9034 2d3e 473e 793e 226e b73d a347 35bf
00000370: 3505 683d 0063 ac3e 4814 0cbf 7275 503f
00000380: 5c0a 44be 9620 223f 8924 4d3f 5533 9bbe
00000390: 6b04 c03e a07f 193e a94d 83bf eda5 6d3c
000003a0: 081c 32bf 203f febe df03 93be 4181 43be
000003b0: 8fea 563f 0cd8 e53e 8670 1c3f 423c 03bb
000003c0: f7d1 4ebf 95db 97bf 1d23 b63d
-0.13164325 0.84393525 -0.8348656 -0.33018675 -0.24472454 -0.42558193 -0.48567396 0.95143354
1.1400242 0.09464378 -0.5349939 -0.9833123 -0.68945545 -0.08233312 0.723298 1.3702968
0.24959008 -0.034821466 0.24690025 0.3343054 0.18075603 0.20459156 0.0683461 -0.2904848
0.44143012 1.0662311 0.3967314 -1.2076373 -0.60383177 0.39224485 -2.5106997 -1.871263
-0.8579348 -0.72167987 -0.6837157 -0.60470515 -0.25155813 -1.3472716 -1.394828 -0.71919435
-0.16887195 0.247394 -1.2555332 -0.5904345 -0.09955444 0.031905603 -0.45569557 -1.1605523
-2.0588937 -0.8655157 -1.5282496 -1.9790881 -1.2728846 -0.57659745 -1.6159229 0.16058993
-0.53867173 -0.70687866 0.1308198 1.0166234 0.92937875 -1.257623 0.39198232 -0.44226193
0.19406328 -0.5306639 -0.804672 0.18398833 0.58719814 -0.4641748 -0.2940772 -1.5043949
0.032203134 0.6629746 -0.15870436 -0.08079812 0.68090683 -0.112454176 1.1141486 0.8293395
-0.34695986 1.1082172 0.6028623 0.82096523 0.14732447 0.35980055 0.7575294 -0.47887293
0.0032935804 0.35476255 -1.1842365 -0.2949198 -0.74365556 -0.67099375 -0.47886425 0.6656346
-1.5425266 -0.1442781 -0.2198878 -0.09851756 -1.5790603 0.7348536 -0.5641426 0.13745661
-0.7640813 0.23088104 0.11395712 -0.06743788 0.07399069 0.7423347 -0.5941544 -0.48158947
-0.33067042 -0.33710364 0.24311438 0.9338961 0.5131773 -0.90743726 -1.1712347 0.1691165
0.14734377 -0.7401609 -0.07013881 1.3071837 0.737393 -0.0660644 0.57624567 0.85192335
0.43663153 0.6022246 -0.2707732 0.41619912 -0.41629335 -0.3220478 -0.53917915 -0.19417939
-0.039643183 -0.12803967 0.971792 0.2950097 -0.154877 0.10482373 -0.93857145 0.16070025
-1.0107601 0.05721006 -0.3004301 -0.5269277 0.010713439 -0.13541146 0.3654728 -1.0990094
-0.6368986 -0.49111375 -0.6294989 -0.4458243 0.8874308 1.6776646 -2.661323 -0.07752584
0.506751 0.25607368 0.31267402 0.50743353 -0.06840424 0.44734037 -0.2721229 0.21508282
0.7811675 0.32596 -0.09474211 -0.045696203 -0.5056022 -0.25972146 0.06526426 -1.0327581
-0.69737864 -1.0468206 -1.0345502 0.099573866 0.12503776 0.10026417 -0.17933305 -0.61416733
-0.20731422 -0.98151815 -0.28314433 1.0942128 -0.16355276 -0.46774644 -0.051588297 -1.6416761
0.5310657 -0.37702972 -0.5912333 -0.455805 -0.81392276 0.08102979 -1.2019352 -0.28859648
-0.18798518 -0.81841815 0.0029640507 -0.55365974 -0.72638667 0.024879523 -0.1781302 0.10530182
-0.32913232 0.11096655 0.24001545 -1.0770198 -0.2270701 -0.21516386 -0.43618557 -0.03433359
0.16914582 0.24340163 0.08956553 -0.70812434 0.05664559 0.3366928 -0.54718447 0.8142921
-0.19144577 0.6333097 0.80133873 -0.303126 0.3750337 0.14990091 -1.0258075 0.014504892
-0.6957402 -0.49657536 -0.2871389 -0.19092275 0.8395166 0.44891393 0.611092 -0.002002493
-0.8078913 -1.1863886 0.08893416
