Backed_Draft_01/data.pth (torch, 55146 bytes, 6 tensors)

l1.weight f4 [8, 660]
0	0x3f5bf2d6	0.85917413
1	0x3eafc14c	0.3432716
2	0x3f442f77	0.76634926
3	0xbda48ab9	-0.08034272
4	0x3f028759	0.50987774
5	0x3ea9554a	0.33072883
6	0xbfe010c2	-1.7505114
7	0x3fd4bd4e	1.6620271
8	0x3e006e15	0.12541993
9	0x3df5ada2	0.119960085
10	0x3fa46cc7	1.2845696
11	0x3f93f8ba	1.156028
12	0x3f60d45f	0.8782405
13	0x3e46878c	0.19387645
14	0xbf07589a	-0.5286957
15	0xbf9f0928	-1.2424669
16	0x3ee82a20	0.4534464
17	0x3f4da0db	0.8032357
18	0x3f8cd844	1.1003499
19	0x3e6a9018	0.2290653
20	0x3da69b27	0.08135062
21	0xbd46edb9	-0.048566554
22	0x3dc4a705	0.09602169
23	0x3d93c0c4	0.072145015
24	0x3f8a1ffa	1.0791008
25	0xbfb45598	-1.4088621
26	0xbfd72a65	-1.6809813
27	0x3fa9b8d8	1.3259535
28	0xbf0cdc29	-0.5502344
29	0xbe482c5b	-0.1954817
30	0x3ee291c7	0.44251844
31	0xbe82e1ce	-0.255629
32	0x3e10a314	0.1412471
33	0x3faffbb6	1.3748691
34	0x3ec1a9b0	0.37824774
35	0x3f382855	0.7193654
36	0xbe995eef	-0.2995524
37	0x3fb7b7f6	1.4353015
38	0xbea15d08	-0.3151629
39	0x3f246494	0.6421597
40	0x3e6cd0cd	0.23126526
41	0xbf600725	-0.875109
42	0xbeded9c3	-0.43525514
43	0xbeddb2be	-0.43300432
44	0x3e03c5eb	0.12868468
45	0xbe0fd520	-0.14046144
46	0x3faa0a11	1.3284322
47	0x3e05baf7	0.13059603
48	0xbe1c8542	-0.15285209
49	0xbc9ce9f1	-0.01915452
50	0x3ea3b8e2	0.31976992
51	0x3f895a62	1.0730708
52	0x3e2ddd9b	0.16979067
53	0x3f07497a	0.5284649
54	0x3df36481	0.11884404
55	0xbfa7b3d6	-1.3101757
56	0x3f71db13	0.94474906
57	0xbd662743	-0.056189787
58	0xbf0025b0	-0.50057507
59	0x3f3d1fcb	0.7387664
60	0xbf20f474	-0.62873006
61	0x3e3210ac	0.17389172
62	0xbf42c7d5	-0.7608617
63	0xbfdef48f	-1.7418383
64	0x3f02e25a	0.51126635
65	0xbfc01024	-1.5004926
66	0xbf2999b2	-0.66250145
67	0x3edfbb67	0.43697664
68	0x3e8390ef	0.25696513
69	0x3f8a4801	1.0803224
70	0xbf1a702a	-0.603274
71	0xbf0945b4	-0.53621984
72	0x3fa7b26f	1.3101329
73	0x3f751218	0.95730734
74	0x3f805d2f	1.0028437
75	0xbf7cd973	-0.987693
76	0xc0264d8f	-2.5984838
77	0x3ddf8f14	0.10915962
78	0xbf36ad7e	-0.7135848
79	0xbf09811e	-0.5371264
80	0x3e49d163	0.19708781
81	0x3ee60c1f	0.44931123
82	0xbf66e129	-0.9018732
83	0x3e066935	0.13126071
84	0xbf5b8444	-0.85748696
85	0x401b642b	2.4279888
86	0x3f89ae7f	1.0756377
87	0xbe63763f	-0.22213076
88	0xbd7ec97c	-0.06220387
89	0xbdbeca6b	-0.09315952
90	0xbd2be2ae	-0.041964225
91	0xbf159354	-0.5842793
92	0x3f9af1bb	1.210502
93	0x3ec77196	0.38953847
94	0x3cc31594	0.023814
95	0xbe0771be	-0.13226983
96	0xbeea07fd	-0.4570922
97	0xbf019aee	-0.5062703
98	0xbf21756c	-0.63069797
99	0x3ecfc8d1	0.40582898
100	0x3f84529b	1.0337709
101	0x3f2172f4	0.6306603
102	0xbe48d29a	-0.19611588
103	0x3f93a577	1.1534871
104	0x3f9eeb7d	1.2415615
105	0xbf863a79	-1.0486594
106	0x3f4177b3	0.7557327
107	0x3ed6824f	0.41896293
108	0x3f8d573b	1.1042246
109	0x3cede2eb	0.029038867
110	0x3f2f8552	0.68562806
111	0x3fc31b3f	1.524269
112	0xbf89da76	-1.0769794
113	0xbe8a57ea	-0.27020198
114	0xbf9fa365	-1.2471739
115	0x3e95608a	0.29175216
116	0x3f836349	1.0264674
117	0x3d8cf777	0.06883138
118	0x3f0c1dd0	0.5473299
119	0x3d897b6d	0.06712995
120	0xbf83e9a6	-1.0305679
121	0x3e1c06f2	0.15237024
122	0x3db4aac4	0.088216335
123	0x3ed3f647	0.41398832
124	0x3fb9f0b9	1.4526588
125	0xbf732635	-0.94980174
126	0x3f73ab04	0.95182824
127	0x3f2f57e2	0.68493474
128	0xbefec9e1	-0.49763396
129	0xbed42c55	-0.41440073
130	0xbe1de45d	-0.15419145
131	0x3eda8d31	0.42685845
132	0x3fae59fb	1.362121
133	0xbf1494ff	-0.5803985
134	0x3ea85590	0.3287778
135	0xbd9f23b7	-0.07770484
136	0x3f7edaa5	0.99552375
137	0x3deecbc2	0.116599575
138	0x3f41741f	0.7556781
139	0x3f393e2f	0.7236051
140	0xbf37b1d3	-0.71755713
141	0xbf1e71e8	-0.6189256
142	0x3f66ecda	0.90205157
143	0xbfb91810	-1.4460468
144	0x3e162182	0.1466122
145	0x3f92d277	1.1470479
146	0xbfce4f0c	-1.6117873
147	0x3e6a1d48	0.22862732
148	0x3f10ac52	0.5651294
149	0x3e7da7c9	0.24771036
150	0xbe93c0be	-0.28857988
151	0x3fcb5431	1.5885068
152	0xbf2abf93	-0.6669857
153	0x3f41100b	0.75415105
154	0xbeb3e946	-0.3513891
155	0x3fe257b9	1.7683021
156	0xbfaea219	-1.3643218
157	0xbe90bc84	-0.28268826
158	0x3f1f8691	0.6231471
159	0x3f39a3bd	0.7251547
160	0xbea87502	-0.3290177
161	0xbc787648	-0.015164919
162	0xbfdf076c	-1.742414
163	0xbf63d843	-0.89001864
164	0xbf7c4d39	-0.9855533
165	0xbf6a2bf3	-0.9147331
166	0xbf1d6e26	-0.614962
167	0x3e4c5a47	0.19956313
168	0x400903df	2.1408613
169	0xbfa569ae	-1.2922876
170	0xbf9bd5d4	-1.217463
171	0x3f34d4ef	0.7063741
172	0xbf6d2d24	-0.92647004
173	0x3c6ebd92	0.014571564
174	0xbfb77106	-1.4331367
175	0x3fcbc8f8	1.5920706
176	0x3fac3b43	1.3455585
177	0x3ebea27d	0.37233344
178	0xbe039b1e	-0.12852141
179	0x3f9d6e44	1.2299275
180	0x3eb1b6b7	0.34709713
181	0x3c3a461b	0.0113692535
182	0x3fb2f448	1.3980799
183	0xbf710a53	-0.9415638
184	0x3f2db2e1	0.6785107
185	0xbf6231cb	-0.8835723
186	0x3ea15458	0.31509662
187	0x3fda8cbf	1.7074202
188	0x401dd31c	2.46601
189	0x3ea77a83	0.32710657
190	0x3ffbff31	1.9687253
191	0xbf0ac521	-0.54207045
192	0x3f6e1542	0.93001187
193	0x3f051ccf	0.51997083
194	0xbfb7643e	-1.4327466
195	0x3f5076a1	0.81431013
196	0x3e1c001f	0.15234421
197	0x3ff1c4ca	1.888818
198	0x3da937a0	0.08262563
199	0x3fb2d8ff	1.3972472
200	0x3f7e8935	0.9942811
201	0xbfbe63fc	-1.4874263
202	0xbccfddaa	-0.025374252
203	0x3ed492cd	0.4151825
204	0x3f650d6e	0.8947362
205	0xbf84e523	-1.0382427
206	0x3f9dca5b	1.2327379
207	0x3eaaf403	0.3338929
208	0xbba5a5e0	-0.005055174
209	0x3f443734	0.76646733
210	0xbf5590f4	-0.83424306
211	0x3fb7a93c	1.4348521
212	0x3fc17732	1.51145
213	0x3ef9eb02	0.4881211
214	0x400aa824	2.1665125
215	0x3f769173	0.9631569
216	0x3f569b47	0.83830684
217	0xbf0a5944	-0.5404246
218	0x3e3ddfb1	0.18542363
219	0xbdc577a8	-0.09641963
220	0xbe37878e	-0.17922804
221	0x3f73543b	0.950504
222	0xbff5b1f7	-1.9194936
223	0xbfcf6261	-1.6201898
224	0x3cd8ec37	0.026479824
225	0xbf9c257f	-1.2198943
226	0xbfa33929	-1.2751819
227	0x3dbc5818	0.0919649
228	0xbeee0da0	-0.4649477
229	0x3f9cf793	1.2263054
230	0x3f9ec4d6	1.240382
231	0xbfdde81a	-1.7336457
232	0xbf5e615b	-0.868673
233	0xbbca51c3	-0.0061742975
234	0x3fc87cff	1.5663146
235	0xbf360dc5	-0.7111476
236	0xbf256322	-0.6460439
237	0xbed871e3	-0.4227439
238	0xbf870023	-1.0546917
239	0xbe42eb62	-0.19035104
240	0xbfbdf2ee	-1.4839761
241	0x3f112350	0.5669451
242	0x3fa00195	1.2500483
243	0xbf720007	-0.9453129
244	0x3fa6a727	1.3019761
245	0xbf256bac	-0.6461742
246	0xbec9ef1f	-0.39440247
247	0xbf09124b	-0.5354354
248	0x3f9b8599	1.2150146
249	0xbfb29a5d	-1.3953358
250	0x3f340291	0.70316416
251	0x3faf6cfb	1.3705133
252	0x3f9d8a6d	1.2307869
253	0x3ee5d9b6	0.44892663
254	0xbe0e66d3	-0.13906412
255	0xbf57246c	-0.8403995

l1.bias f4 [8]
0	0x3f3de2f3	0.7417442
1	0x40044b04	2.0670786
2	0x3fb0d25b	1.3814195
3	0x3f82353e	1.0172498
4	0x4001982c	2.0249128
5	0x3f84d083	1.0376133
6	0x3fa43ec3	1.2831653
7	0x3f4a78c5	0.7909053

l2.weight f4 [8, 8]
0	0x3f99879b	1.1994509
1	0x3fa2de63	1.2724117
2	0x407c25bc	3.9398031
3	0xbf1d8eb0	-0.6154585
4	0x4059b893	3.4018905
5	0xc02409d1	-2.5630991
6	0xbfcbcb5c	-1.5921435
7	0x400aaef6	2.1669288
8	0xbe575e6e	-0.21032116
9	0x3e1c4148	0.15259278
10	0x40401484	3.0012522
11	0x406be151	3.6856272
12	0xbfb05888	-1.3777018
13	0x400899e5	2.134393
14	0xbfde8f93	-1.7387565
15	0x3f04f1fa	0.51931727
16	0x4025f9fa	2.5933824
17	0xbfaf8cf9	-1.3714896
18	0xc0119b6a	-2.2751107
19	0x3f90386d	1.126722
20	0x403e387d	2.9721978
21	0x4047cf42	3.122025
22	0xbf504fe7	-0.8137192
23	0x404c4d00	3.1921997
24	0xc0256528	-2.584299
25	0x40203b5f	2.5036237
26	0xbe83d4e1	-0.2574835
27	0x402440ba	2.5664506
28	0x4054694d	3.318927
29	0x3fd9d1de	1.7017171
30	0xbea6352c	-0.32462442
31	0xbfa16439	-1.260871
32	0x3fe1acdc	1.7630877
33	0xbebabb7c	-0.36471164
34	0x404df613	3.2181442
35	0xbf8d3193	-1.1030754
36	0x3efb538c	0.4908718
37	0x3f82e300	1.0225525
38	0xbe6ce8dd	-0.23135705
39	0xbf92cd24	-1.1468854
40	0x4029e8c5	2.6548321
41	0xbed05207	-0.40687582
42	0x3e271061	0.16314842
43	0x4059eeb9	3.4051955
44	0x3f086826	0.5328392
45	0xbf81cebc	-1.0141215
46	0x4099e4bc	4.8091717
47	0x3e00540a	0.12532058
48	0xbede1ad7	-0.43379852
49	0x40347a76	2.8199744
50	0x3fa01cc2	1.2508776
51	0x3e2c699c	0.16837162
52	0xc0218b63	-2.5241325
53	0x3f9672af	1.1753749
54	0x406761bb	3.61534
55	0x3ddce27a	0.107853845
56	0x3fddc0b6	1.7324436
57	0x401c06d6	2.4379172
58	0xbe912273	-0.28346595
59	0xc03b3dea	-2.925654
60	0xbf3584f4	-0.70905995
61	0x3fdd6198	1.7295408
62	0xbdbfcefd	-0.09365652
63	0x4034b370	2.823452

l2.bias f4 [8]
0	0x3fbce9ad	1.4758812
1	0xbfabf638	-1.3434515
2	0x3f53bc70	0.8270941
3	0x3fe9ad05	1.8255926
4	0x3f747a4f	0.9549913
5	0xbec08100	-0.3759842
6	0x400d5d17	2.2088068
7	0xbf056d64	-0.5212004

l3.weight f4 [243, 8]
0	0xc092be84	-4.5857563
1	0x3de4e769	0.111769505
2	0x3f5c8cf7	0.86152595
3	0xbecc2458	-0.39871478
4	0xbfaff1bf	-1.374565
5	0xbe993c03	-0.29928598
6	0xbef94c04	-0.48690808
7	0xbda1bf1d	-0.0789778
8	0x3cfea385	0.031083832
9	0xbf217bba	-0.63079417
10	0x3ee625d1	0.44950727
11	0x3f8b2dc9	1.0873348
12	0xbfeaa345	-1.8331076
13	0xbf76260d	-0.9615181
14	0xbf8683b3	-1.0508941
15	0xc0abbcdb	-5.3668036
16	0xc0a939c3	-5.288301
17	0xbf15aa26	-0.5846275
18	0x3e143b94	0.14475852
19	0xbdd96dfd	-0.10616682
20	0xbf839be6	-1.0281951
21	0x3f3a0543	0.7266428
22	0x3d922bfd	0.07137296
23	0xbf3f80b4	-0.7480576
24	0xbfbfa176	-1.4971149
25	0xc097a306	-4.7386503
26	0xbfa6085b	-1.29713
27	0x3f273808	0.6531987
28	0xbf966b14	-1.1751428
29	0x3ef94aa3	0.48689756
30	0x3f50d358	0.81572485
31	0xbee11476	-0.43960923
32	0xc08c47c3	-4.38376
33	0xbe49601d	-0.1966557
34	0x3e822b65	0.25423732
35	0xbf6e9059	-0.9318901
36	0x3cdc6f69	0.026908593
37	0xbe8c9268	-0.2745545
38	0x3ec75591	0.3893247
39	0x3e386cb7	0.18010221
40	0xbfedfd59	-1.859294
41	0x3c8abbe9	0.016935306
42	0xbdc43982	-0.09581281
43	0xbeea1cd1	-0.4572511
44	0xbf1954b1	-0.59894854
45	0x3e9e0a58	0.30867267
46	0x3e34d071	0.17657639
47	0xbdd1ecb3	-0.10250225
48	0xc08980e0	-4.296982
49	0xbffd9c51	-1.9813329
50	0x3c28beaf	0.010299369
51	0xbf313c39	-0.6923252
52	0xbf8ab38a	-1.0836041
53	0x3ece50f9	0.40296152
54	0x3eda0275	0.4258
55	0x3eca8d25	0.3956081
56	0x3f073990	0.5282221
57	0xc00d8f1c	-2.2118597
58	0x3e3c6e3d	0.18401428
59	0xbf7d2b13	-0.9889385
60	0xc046b81d	-3.1049874
61	0x3f4701f0	0.7773733
62	0x3e6ee89c	0.23330921
63	0xbf8e16a4	-1.1100659
64	0x3edd72d4	0.4325167
65	0xbfc854d8	-1.5650892
66	0x3ea1846f	0.3154635
67	0x3f0d2781	0.55138403
68	0xbe7ea2e5	-0.24866827
69	0xbc81a1ba	-0.015824188
70	0xbffece60	-1.9906731
71	0xc09f1e5e	-4.972457
72	0x3e8c98d8	0.2746036
73	0xbfaeefda	-1.3666947
74	0x3efa4052	0.48877198
75	0x3ea80753	0.32818088
76	0xc090b3ef	-4.5219646
77	0x3f39f727	0.7264275
78	0xc02854a7	-2.6301668
79	0xbfede635	-1.8585879
80	0xbfc9becf	-1.5761355
81	0xbe9c754e	-0.30558246
82	0xbf44ea85	-0.7692035
83	0xbf094dbc	-0.5363424
84	0x3e485d64	0.19566876
85	0x3d94814a	0.072512224
86	0x3ed20f38	0.41027236
87	0x3e8f99e4	0.28047097
88	0xbfc5db24	-1.5457501
89	0xbe41c333	-0.18922119
90	0x3f12d866	0.5736145
91	0xbe69ae0a	-0.22820297
92	0xbf956ea7	-1.1674393
93	0x3ea9826e	0.33107322
94	0xbf423e0f	-0.75875944
95	0xbe2eda84	-0.17075545
96	0xc061805f	-3.5234601
97	0x3df50065	0.11962966
98	0x3eaca64e	0.3372063
99	0xbf9d5292	-1.2290823
100	0x3c840a71	0.01611826
101	0x3f1babd9	0.60809094
102	0xbde88f3d	-0.113554455
103	0xbfb4dcbe	-1.4129865
104	0x3e85b45d	0.2611417
105	0x3d8adc4a	0.06780298
106	0x3e0081be	0.12549493
107	0xbcc1634b	-0.023606917
108	0xbf1222f5	-0.5708459
109	0xbd1b2218	-0.03787431
110	0xbf857ecc	-1.042932
111	0xc084ffac	-4.15621
112	0x3f1e3a36	0.6180757
113	0xbfb04174	-1.3769975
114	0xbf6cb573	-0.9246437
115	0xbe69e887	-0.22842608
116	0x3dac2a65	0.084065236
117	0xbd67108b	-0.05641226
118	0x3ceec43a	0.029146302
119	0xbf50e007	-0.8159184
120	0xc06f95c8	-3.743517
121	0xbe1bba08	-0.15207684
122	0xc073f41f	-3.811775
123	0x3ef590cf	0.47962043
124	0xbf6c3d5a	-0.92281115
125	0x3f0c398b	0.54775304
126	0x3f448186	0.7676014
127	0xc060e8a0	-3.5141983
128	0xbf7766fa	-0.96641505
129	0xbd46e207	-0.0485554
130	0x3ed82d31	0.42221978
131	0xbef26954	-0.47345984
132	0xbf88e0b6	-1.0693576
133	0x3ed079ff	0.40718076
134	0x3e8ffdfd	0.28123465
135	0xc09f25a9	-4.973347
136	0xbf94f48f	-1.1637133
137	0x3e617a85	0.22019394
138	0x3f3e44a9	0.7432352
139	0xbef2c84f	-0.47418448
140	0xbf22b453	-0.635564
141	0x3e713ff3	0.23559551
142	0xbf8fd683	-1.1237339
143	0xbfd77b32	-1.6834471
144	0x3f4d318f	0.80153745
145	0xc09359af	-4.6046977
146	0xbcd362db	-0.025803974
147	0xbc834bbf	-0.01602733
148	0xbf8a28a5	-1.0793654
149	0xbf0f4faf	-0.5598096
150	0xc03b2b70	-2.9245262
151	0x3f1f7652	0.6228992
152	0x3e915d7e	0.2839164
153	0xc030044a	-2.7502618
154	0x3f00f147	0.5036816
155	0xbdeed9db	-0.116626464
156	0xc020d0f1	-2.5127528
157	0x3eef8743	0.46782884
158	0xbf96ce0f	-1.1781634
159	0xbe6ae012	-0.22937039
160	0x3e28bc7a	0.16478148
161	0xbf824a09	-1.0178844
162	0x3e4e15f6	0.20125565
163	0xbf01fb7a	-0.5077435
164	0xbefa684a	-0.4890769
165	0x3eb4f442	0.35342604
166	0xbeb6cc51	-0.35702756
167	0xbf08a5ca	-0.53377974
168	0xbfa36adb	-1.2766985
169	0x3eb1dd49	0.3473914
170	0x3e84fade	0.25972646
171	0xbda97922	-0.082750574
172	0x3d2cc7de	0.042182796
173	0x3e36a1f6	0.1783522
174	0xbf58a58e	-0.84627616
175	0xc09abe9b	-4.8357673
176	0xc0868979	-4.2042813
177	0xbf998cfc	-1.199615
178	0x3f3dfecb	0.7421691
179	0x3ef0d6fb	0.47039017
180	0x3e926433	0.2859207
181	0xbf0e73ea	-0.5564562
182	0xbf0afb9b	-0.5429017
183	0xbf483e55	-0.7822011
184	0xc016d67c	-2.356841
185	0xc053399a	-3.3003907
186	0x3f29e4a4	0.663645
187	0xc0488022	-3.1328206
188	0xbf7801f8	-0.96878004
189	0x3d7b09e1	0.061288718
190	0x3ec9da74	0.3942448
191	0x3eca28e9	0.39484337
192	0x3f44b9bd	0.76845914
193	0xc0806e53	-4.0134673
194	0xc08bfd50	-4.374672
195	0x3f012d87	0.50460094
196	0x3e82b9cc	0.25532377
197	0x3e5589c9	0.20853342
198	0x3e7ff29b	0.2499489
199	0xbff9e77a	-1.9523766
200	0x3e6e1d89	0.23253454
201	0xbf231bf3	-0.6371452
202	0xc09e32d4	-4.9437046
203	0x3f405f21	0.75145155
204	0xbf4885ff	-0.7832946
205	0x3d3f9bdb	0.046779495
206	0x3ecf88fc	0.40534198
207	0xc058519c	-3.379981
208	0xbf6ac2af	-0.91703314
209	0x3f0ca1ba	0.54934275
210	0xbea89cb1	-0.32932046
211	0xc009905b	-2.1494358
212	0x3e8e198f	0.27753875
213	0x3f0fdaa4	0.56192994
214	0xbe872187	-0.26392767
215	0xbfc3a660	-1.5285149
216	0x3f3485b4	0.70516515
217	0xc070b69f	-3.7611463
218	0x3f1d0a00	0.61343384
219	0xbf1bc25d	-0.6084345
220	0x3e99c2d1	0.30031446
221	0xbe8c1b21	-0.27364448
222	0xc04e1ee9	-3.2206366
223	0xbff438c2	-1.9079821
224	0x3e5debaa	0.2167193
225	0xc04f2a07	-3.2369401
226	0x3ecea5ea	0.40360957
227	0xbec6cbeb	-0.38827452
228	0xbf5458ec	-0.82948184
229	0x3f9520a9	1.1650592
230	0xc0834ced	-4.1031404
231	0xc0559359	-3.3371184
232	0xbf227efb	-0.63475007
233	0x3e8ae23b	0.27125725
234	0x3ca06088	0.01957728
235	0x3f080a1d	0.5314043
236	0xbda5631c	-0.08075544
237	0xbf100cca	-0.56269515
238	0xbf943e7c	-1.1581569
239	0xbfbb1d76	-1.4618366
240	0xbeadffa8	-0.33984113
241	0x3e81ee37	0.25377056
242	0x3f2f37aa	0.6844431
243	0xbfa33eb0	-1.2753506
244	0xbf3dbee8	-0.74119425
245	0xbf565c2c	-0.83734393
246	0xbfc456fb	-1.5339044
247	0x3e3dbab7	0.18528257
248	0xbebc3d24	-0.36765397
249	0x3f1bfb58	0.60930395
250	0xbf286392	-0.6577693
251	0xbf09392e	-0.53602874
252	0x3ef47e6c	0.47752702
253	0xbf03d711	-0.5150004
254	0xbf08ba2b	-0.5340907
255	0xbf64b457	-0.89337677

l3.bias f4 [243]
0	0xbe73c808	-0.23806775
1	0x3f1046f1	0.5635825
2	0xbf1bc129	-0.60841614
3	0x3ec4d683	0.3844491
4	0xbe81d689	-0.2535899
5	0xbe956c50	-0.29184198
6	0xbe565503	-0.20930867
7	0x3ef10a30	0.47078085
8	0x3f2df568	0.67952585
9	0x3f0a7c84	0.54096246
10	0xbe9fc3a8	-0.3120396
11	0xbf9888d0	-1.1916752
12	0xbc87d3e8	-0.016580537
13	0xbf9474c4	-1.1598134
14	0x3f35dd3b	0.71040696
15	0x3f162d47	0.5866284
16	0x3ee6988b	0.45038256
17	0xbd025b1b	-0.031825166
18	0xbe942701	-0.28936008
19	0x3f04dce3	0.51899546
20	0x3f0e17be	0.5550498
21	0x3d5df7ba	0.05419133
22	0x3f31f7ea	0.6951891
23	0x3ecf66ef	0.4050822
24	0x3d6642f7	0.056216206
25	0x3f3b2720	0.73106575
26	0xbd8a28a9	-0.067460366
27	0xbcdbf7e2	-0.026851598
28	0xbeea9cc6	-0.45822734
29	0x3e3cd620	0.18441057
30	0xbf29074a	-0.6602675
31	0xbf8a22a0	-1.0791817
32	0xbfea4cf0	-1.830473
33	0xbf4daece	-0.80344856
34	0xbf20e9da	-0.6285683
35	0xbf6e6789	-0.9312673
36	0xbf3673f9	-0.7127071
37	0xbf5bf213	-0.8591625
38	0xbed8da62	-0.42354113
39	0xbf09166e	-0.5354985
40	0xbeb1b6a4	-0.34709656
41	0x3ec30017	0.38086006
42	0xbe93e176	-0.2888295
43	0xbe5eaaab	-0.21744792
44	0x3f4a5658	0.79038
45	0xbed76867	-0.4207184
46	0xbe3145af	-0.17311738
47	0xbfd34d4b	-1.6507963
48	0xbf87a7e7	-1.0598115
49	0x3d92c3c3	0.07166245
50	0xbe4002c6	-0.18751058
51	0xbef3d05f	-0.47619912
52	0xbee41832	-0.4454971
53	0xbee345af	-0.44389102
54	0xbfd02b9e	-1.6263311
55	0x3e9345e1	0.2876425
56	0xbf85a959	-1.0442306
57	0xbfa042fc	-1.2520442
58	0xbf9790f4	-1.1841111
59	0xbf55eb58	-0.8356223
60	0xbee13237	-0.43983623
61	0xbd2018cb	-0.039086144
62	0x3f457d89	0.77144676
63	0x3df38a43	0.11891606
64	0x3d9b2075	0.0757455
65	0xbd891671	-0.066937335
66	0xbecc9555	-0.3995768
67	0xbf5b9b6a	-0.8578402
68	0xbf6c2d62	-0.9225675
69	0x3dae4392	0.08508982
70	0x3ee93432	0.45547634
71	0xbf43734f	-0.7634782
72	0x3eefc19c	0.468274
73	0xbdf7636b	-0.12079509
74	0xbea7ca42	-0.32771498
75	0xbd2c2d33	-0.042035293
76	0x3ebc5027	0.367799
77	0xbe1d5ca4	-0.15367371
78	0x3f8647bb	1.049064
79	0x3f6d4b2d	0.92692834
80	0xbf4a46b8	-0.7901416
81	0xbea79cd2	-0.32736832
82	0xbf52f308	-0.82402086
83	0x3ea88cbb	0.3291987
84	0x3e5c6b02	0.21525195
85	0x3ed88dd0	0.42295694
86	0x3f13a7f3	0.57678145
87	0xbe73fef9	-0.23827733
88	0x3df93533	0.1216835
89	0x3f0c6715	0.5484479
90	0xbf1d52ba	-0.61454356
91	0xbe887ca1	-0.26657584
92	0x3f0cd915	0.5501874
93	0xbf2101fd	-0.6289366
94	0xbc2ab60a	-0.010419378
95	0xbeeaf1a7	-0.4588749
96	0xbce0935f	-0.027414022
97	0x3df33294	0.118748814
98	0x3f1cbc6b	0.61225003
99	0xbf76cebf	-0.9640922
100	0xbf36f86f	-0.7147283
101	0x3e1410b6	0.144595
102	0x3ddd2d8b	0.10799702
103	0xbedacc2a	-0.4273389
104	0xbeb2c4c6	-0.3491575
105	0xbe4e2c24	-0.20134026
106	0xbe1f5625	-0.15560205
107	0x3edb2986	0.42805117
108	0x3ee02300	0.43776703
109	0x3ee80986	0.45319766
110	0x3f1b1a17	0.60586685
111	0x3e725737	0.23666082
112	0xbef0c1ee	-0.47022957
113	0xbe27e66b	-0.16396491
114	0x3d795087	0.060867812
115	0x3ed94fed	0.4244379
116	0x3e8811f2	0.2657619
117	0xbfbf78f1	-1.4958783
118	0xbedda4f7	-0.4328992
119	0xbd31c73e	-0.043402903
120	0x3e7b0392	0.2451308
121	0xbec35b30	-0.38155508
122	0x3eab6624	0.33476365
123	0x3eeb969f	0.46013352
124	0x3d9346c7	0.07191234
125	0xbf2310a2	-0.63697255
126	0xbdb7d92a	-0.08976968
127	0x3edce1d6	0.4314105
128	0xbe6949e5	-0.22782095
129	0x3f0f612e	0.5600766
130	0x3ea66396	0.32497853
131	0x3e920bb2	0.28524548
132	0x3e7ad5c9	0.24495615
133	0x3ea271ba	0.3172739
134	0xbf1e23f4	-0.6177361
135	0xbf090fac	-0.5353954
136	0x3d15201b	0.03640757
137	0x3f5c9192	0.8615962
138	0x3eb78abf	0.35848042
139	0xbecf7989	-0.4052241
140	0xbf5cb007	-0.86206096
141	0xbe5c221d	-0.21497388
142	0xbd8ca770	-0.06867874
143	0xbf2784bf	-0.6543693
144	0xbf92a36d	-1.1456124
145	0xbf68403a	-0.90723
146	0xbf2ececd	-0.682843
147	0xbe800065	-0.250003
148	0x3f732f91	0.94994456
149	0x3f58590b	0.8451087
150	0xbf3455ba	-0.7044331
151	0x3f0b66d2	0.54453766
152	0x3e299c6e	0.1656358
153	0x3cf4b0b9	0.029869424
154	0x3e8cf7a7	0.27532694
155	0x3eda9178	0.4268911
156	0xbe297810	-0.16549706
157	0x3f5150cf	0.8176393
158	0xbfbc56a3	-1.471394
159	0xbea38d1c	-0.31943595
160	0x3d9d5364	0.07681921
161	0xbf834c19	-1.0257598
162	0xbd6a5be6	-0.057216547
163	0x3e1f4d38	0.155568
164	0xbe3ea3ea	-0.18617216
165	0xbeccea0d	-0.40022317
166	0xbef694c1	-0.48160365
167	0x3e15b406	0.14619455
168	0x3e87b4c3	0.26505098
169	0x3f262116	0.64894235
170	0x3d717424	0.05894865
171	0xbe5e8263	-0.21729426
172	0xbecea5db	-0.40360913
173	0x3fa66dc1	1.3002244
174	0x3b3b5842	0.0028586541
175	0xbf75604a	-0.9585005
176	0xbf002ee8	-0.50071573
177	0xbf333679	-0.70004994
178	0xbeb2c81e	-0.34918302
179	0xbe3c09ba	-0.18363085
180	0x3e57c7a3	0.21072249
181	0x3dc5098e	0.09620963
182	0xbe9175c9	-0.28410175
183	0x3ece3af1	0.40279344
184	0xbf02d73a	-0.5110966
185	0x3d502e91	0.05082566
186	0xbfa88c68	-1.3167849
187	0x3f090b70	0.5353308
188	0xbeb01a69	-0.3439515
189	0xbeee442e	-0.46536392
190	0xbe552c43	-0.20817666
191	0x3f094211	0.53616434
192	0x3f094f96	0.53637064
193	0xbf772af2	-0.96549904
194	0xbf309ce1	-0.6898938
195	0xbf4229ae	-0.7584485
196	0xbd15ad8f	-0.03654247
197	0x3e1bcc3d	0.1521463
198	0xbf35bd73	-0.709922
199	0xbf4e59f1	-0.8060599
200	0x3ec4d0cc	0.3844055
201	0xbf97baff	-1.1853942
202	0x3cf33699	0.02968912
203	0xbe81d0ab	-0.25354514
204	0xbe905b49	-0.28194645
205	0xbf683f41	-0.9072152
206	0x3e8207cc	0.25396574
207	0x3dc9510b	0.09829911
208	0xbed164c6	-0.40897197
209	0x3f77b759	0.9676414
210	0x3cd15abc	0.02555596
211	0xbf570e4f	-0.8400621
212	0x3e7128de	0.23550746
213	0x3ef8f400	0.48623657
214	0xbe420591	-0.18947436
215	0xbd136f4e	-0.03599482
216	0x3dc37e1f	0.0954554
217	0x3e1e851a	0.15480462
218	0x3e754e1f	0.23955582
219	0xbf23cd1c	-0.6398485
220	0xbc3acdb5	-0.011401583
221	0xbe5e96aa	-0.21737161
222	0x3df4e31f	0.119573824
223	0x3f4253a7	0.75908893
224	0xbfa18e63	-1.2621578
225	0x3f1d950f	0.6155557
226	0x3ea177fe	0.3153686
227	0xbd0dc246	-0.0346091
228	0xbeee3bee	-0.46530098
229	0xbcf1e2b5	-0.029527048
230	0xbf7d698d	-0.9898918
231	0x3ee3e1f9	0.4450834
232	0xbee13a3d	-0.43989745
233	0xbf0dc7a1	-0.55382735
234	0x3dcb7007	0.09933477
235	0x3f143e8c	0.5790794
236	0x3d026968	0.031838804
237	0x3ec0195f	0.37519357
238	0xbe2b601d	-0.16735883
239	0xbecaac6e	-0.39584678
240	0xbf5f617f	-0.8725814
241	0x3e80ba73	0.2514225
242	0xbf815b3a	-1.0105965
