Backed_Draft_01/data.pth (torch, 15082 bytes, 6 tensors)

l1.weight f4 [8, 155]
0	0xbdec3afc	-0.11534688
1	0x3e96a68d	0.29423943
2	0x3e7bc14c	0.24585456
3	0x3f5ecea1	0.8703404
4	0x3ccf5985	0.02531124
5	0x3f59d7c3	0.8509485
6	0xbe8071d4	-0.25086844
7	0x3f591647	0.8479962
8	0x3f181cd1	0.5941897
9	0xbe4feca7	-0.2030512
10	0xbebf9161	-0.37415603
11	0x3f8f0fc8	1.1176691
12	0x3f1a6d8b	0.603234
13	0xbeb766bb	-0.35820565
14	0x3fa54784	1.291245
15	0xbcda525e	-0.026650604
16	0xbe2f66fa	-0.17129126
17	0x3f5a6c36	0.85321367
18	0x3f871ffd	1.0556637
19	0x3e912597	0.2834899
20	0x3f807c4c	1.0037932
21	0xbf2d39a5	-0.67666084
22	0x3eba364d	0.36369553
23	0x3ebc4798	0.36773372
24	0xbdc6fa91	-0.097157605
25	0xbf273fc0	-0.6533165
26	0x3f45344f	0.7703294
27	0xbf142863	-0.57874125
28	0xbee284f1	-0.4424205
29	0xbeb07c54	-0.34469855
30	0x3f0d28ac	0.55140185
31	0x3efe202a	0.49633914
32	0x3e916131	0.28394464
33	0x3f5fb6d8	0.8738837
34	0x3ec82fc4	0.39098942
35	0xbf4fe62c	-0.8121059
36	0x3f09306e	0.5358952
37	0x3ebaf329	0.3651364
38	0x3e91886d	0.28424397
39	0xbe940d5d	-0.28916445
40	0xbe802cb7	-0.25034115
41	0x3e23425f	0.15943287
42	0xbe06f864	-0.13180691
43	0x3f85274f	1.0402621
44	0x3f9d6cd3	1.2298836
45	0x3d0a8eed	0.03382771
46	0x3e97bc05	0.29635635
47	0x3f1dfd73	0.6171486
48	0x3f2da7b3	0.67834014
49	0xbd6b4a4e	-0.05744391
50	0x3efe5181	0.49671558
51	0xbe8c723c	-0.27430904
52	0x3efa6cc4	0.48911107
53	0x3f0aff73	0.54296035
54	0x3ef17f0c	0.47167242
55	0xbf55ed70	-0.83565426
56	0x3f0293df	0.51006883
57	0xbec83bcd	-0.39108124
58	0xbf0dc95e	-0.55385387
59	0x3e253f86	0.16137514
60	0xbd966843	-0.07344105
61	0xbee25ec4	-0.44212925
62	0x3f0428fb	0.5162503
63	0x3f49c7d9	0.7882057
64	0x3f27d069	0.65552384
65	0x3f1661b4	0.58742833
66	0xbdd95865	-0.10612563
67	0x3cdef770	0.027217597
68	0xbd5f3dad	-0.054502178
69	0xbdc5c870	-0.09657371
70	0xbea6929c	-0.3253373
71	0xbcd1303d	-0.025535697
72	0xbea715f5	-0.3263394
73	0xbf0fefa9	-0.5622507
74	0x3f70d709	0.9407812
75	0xbeac6924	-0.33673966
76	0x3ef52ebe	0.47887224
77	0x3f0ed785	0.55797607
78	0x3f10b825	0.5653098
79	0x3efd9102	0.49524695
80	0xbf38de26	-0.7221397
81	0x3f133a46	0.57510793
82	0xbf19bad9	-0.6005073
83	0x3f4720d5	0.7778447
84	0xbf8fd282	-1.1236117
85	0xbf108a13	-0.56460685
86	0x3e4be3fc	0.19911188
87	0x3f65a7f0	0.8970938
88	0xbf19344c	-0.59845424
89	0xbe7e80c2	-0.24853805
90	0xbee16b17	-0.44027016
91	0xbf319eab	-0.69382733
92	0xbd9faf21	-0.07797075
93	0xbe8bd41f	-0.27310273
94	0xbeb6f303	-0.35732278
95	0xbea6b34c	-0.32558668
96	0x3f6ab983	0.9168932
97	0x3f0a9566	0.54134214
98	0xbf04509a	-0.5168549
99	0x3f02d61f	0.5110797
100	0x3ee24587	0.4419367
101	0xbe66ad99	-0.2252716
102	0x3ef7d78d	0.4840664
103	0xbf1e1c07	-0.61761516
104	0xbe9a2ddb	-0.3011311
105	0x3f6e7396	0.9314512
106	0x3e6936b6	0.22774777
107	0x3f0b6fe8	0.5446763
108	0x3f1dfb2d	0.6171139
109	0x3efc08e6	0.4922554
110	0xbe71573f	-0.23568438
111	0x3f338177	0.7011942
112	0x3f9cbc54	1.2244973
113	0x3e8a7648	0.27043366
114	0xbf037def	-0.51364034
115	0xbe98b952	-0.29828888
116	0xbecbcc20	-0.39804173
117	0x3ebf0015	0.3730475
118	0xbf1190c9	-0.5686155
119	0xbf2a7670	-0.6658697
120	0xbcff9db2	-0.031203125
121	0x3e8e9d4b	0.2785438
122	0x3e6ea6cb	0.23305814
123	0x3f69a45f	0.91266435
124	0x3f036452	0.5132495
125	0x3fa27542	1.2692034
126	0x3f64b10f	0.8933267
127	0x3e962a0c	0.29328954
128	0x3fa9bd49	1.326089
129	0xbeba95f7	-0.3644254
130	0xbf07cb9a	-0.53045046
131	0x3e6a54ae	0.22883865
132	0x3f48b286	0.78397405
133	0x3e993b6f	0.29928157
134	0x3f8fee70	1.124464
135	0x3f3f2f39	0.7468143
136	0xbeb16d2b	-0.346536
137	0xbdc8b235	-0.09799615
138	0x3f4dc56f	0.80379385
139	0xbe841da2	-0.25803858
140	0x3f5691c9	0.838162
141	0xbeb70ee0	-0.35753536
142	0xbed6ee72	-0.41978794
143	0xbf0048ea	-0.5011126
144	0x3f68b1f6	0.90896547
145	0xbf57f8a7	-0.8436379
146	0x3f0cbb00	0.5497284
147	0x3f76a0c9	0.9633909
148	0x3ebd7c55	0.3700892
149	0x3eb0d9e3	0.34541234
150	0x3f214ac5	0.63004714
151	0xbf0cec7c	-0.55048347
152	0xbf03017f	-0.5117416
153	0x3e8f08f0	0.27936506
154	0x3ea7f432	0.32803494
155	0xbe5e6cf8	-0.21721256
156	0xbe033c05	-0.12815864
157	0xbd8bd5a3	-0.06827857
158	0x3f31d7de	0.6947001
159	0x3f48cf0b	0.7844092
160	0x3f483e32	0.782199
161	0x3ebc16ec	0.36736238
162	0x3f4d95a2	0.80306447
163	0x3ec81833	0.39080963
164	0x3eca87e9	0.39556816
165	0x3e9d74b1	0.3075309
166	0x3f5248c0	0.8214226
167	0x3f6cf90b	0.9256751
168	0x3ee2a887	0.442692
169	0x3edf0826	0.43560904
170	0xbe5a1f76	-0.21301064
171	0x3f32c42d	0.6983059
172	0x3f1de103	0.61671466
173	0x3ebbd955	0.3668925
174	0x3f62c994	0.88588834
175	0x3e9cdc26	0.3063671
176	0xbf6f0fc8	-0.93383455
177	0x3eba9725	0.3644344
178	0x3eb19193	0.34681377
179	0xbe8db43f	-0.2767658
180	0xbf19f584	-0.6014025
181	0x3f431681	0.76206213
182	0xbf4a4c9a	-0.79023135
183	0xbe1a0b75	-0.15043433
184	0xbf3bb6da	-0.73325884
185	0x3f2bfbfd	0.6718138
186	0x3f46c8cd	0.7765015
187	0xbdc351c2	-0.095370784
188	0x3f210fd2	0.62914765
189	0x3e849ce4	0.25900948
190	0xbe08344d	-0.13301201
191	0x3f4a4f43	0.79027194
192	0xbe0d61b4	-0.13806802
193	0x3f289c78	0.6586375
194	0xbf48aa3b	-0.7838475
195	0x3ece2ad5	0.40267053
196	0x3f91c6d9	1.1388808
197	0x3f38198d	0.7191399
198	0x3e1cfca1	0.15330745
199	0x3f92d91f	1.147251
200	0x3e11935e	0.14216372
201	0x3f791df1	0.9731131
202	0x3f16cf8b	0.58910435
203	0x3f487a72	0.78311837
204	0x3f52b5aa	0.8230845
205	0x3f3fbc9c	0.7489717
206	0x3ef3516a	0.47523052
207	0x3ec35970	0.38154173
208	0x3ef40a53	0.47664127
209	0x3ede24c0	0.43387413
210	0x3c7f9111	0.015598551
211	0x3f3c80a4	0.7363379
212	0xbe9456e9	-0.28972557
213	0x3e4a3419	0.19746436
214	0xbf275e24	-0.6537802
215	0x3f1d0284	0.61331964
216	0xbe5fbfd2	-0.21850517
217	0x3f456bae	0.7711743
218	0x3f5181f2	0.81838906
219	0x3e8ba127	0.27271387
220	0x3f3fec18	0.74969625
221	0x3f6e8954	0.93178296
222	0xbe80adc9	-0.25132588
223	0x3f7200bf	0.9453239
224	0x3f674ef5	0.90354854
225	0x3e9702df	0.29494378
226	0xbe8be356	-0.2732188
227	0x3ed80fd1	0.42199567
228	0x3f3f958f	0.74837583
229	0x3f59f2e9	0.85136276
230	0xbf3a4d7d	-0.7277449
231	0x3e368b22	0.17826512
232	0x3f8647da	1.0490677
233	0x3f618033	0.8808624
234	0x3f188b78	0.5958781
235	0x3e39ca1c	0.18143505
236	0x3f460465	0.77350456
237	0xbf20cc72	-0.6281196
238	0x3f5095be	0.8147849
239	0xbf8b58d9	-1.0886489
240	0xbf0f1ffa	-0.5590817
241	0x3e571406	0.21003732
242	0x3f36b63f	0.71371835
243	0xbf564284	-0.83695245
244	0xbe82c524	-0.2554103
245	0xbdeddefd	-0.11614797
246	0xbf107304	-0.564255
247	0xbe09e2c6	-0.13465413
248	0x3d901d0b	0.070367895
249	0xbe4a2fbd	-0.19744773
250	0xbf430af1	-0.7618857
251	0x3f430bbf	0.761898
252	0x3e483d7c	0.19554704
253	0xbf11bc27	-0.5692772
254	0x3f48fa07	0.7850651
255	0x3f2e4002	0.6806642

l1.bias f4 [8]
0	0x3ee25805	0.4420778
1	0x3f85dea1	1.0458566
2	0x3f4220c8	0.7583127
3	0x3ee4060b	0.4453586
4	0x3fb175f6	1.3864124
5	0x3f1d937f	0.61553186
6	0x3fd1b700	1.6383972
7	0x3f166385	0.58745605

l2.weight f4 [8, 8]
0	0x3fd0aa82	1.6302035
1	0x3f3cef2b	0.7380244
2	0x3f81200d	1.0087906
3	0x3e655096	0.22394022
4	0xbf6b5bb7	-0.9193682
5	0xbe6605f4	-0.22463208
6	0x3e1ec42c	0.15504521
7	0x3f7f28c4	0.9967158
8	0x3f3aaac5	0.72916824
9	0x3ee527f1	0.44757035
10	0x3fd8b616	1.6930568
11	0x3f4d87d0	0.8028536
12	0xbfb4e4e4	-1.4132352
13	0xbfcbe2ee	-1.5928628
14	0x3d872231	0.06598318
15	0x3f4ac17c	0.79201484
16	0xbeb9f780	-0.3632164
17	0xbf332891	-0.69983774
18	0xbcae1077	-0.021248085
19	0xbeb2d9e8	-0.34931874
20	0x400fd231	2.247204
21	0x40268586	2.6018996
22	0x3f4c86da	0.7989327
23	0x400a69da	2.1627107
24	0x3d322640	0.04349351
25	0xbe4d778a	-0.20065132
26	0x3df3f238	0.11911434
27	0xbea9aa14	-0.33137572
28	0xbeb30dba	-0.3497141
29	0xbeaab83a	-0.3334368
30	0xbe914ede	-0.28380483
31	0xbc3eb620	-0.011640102
32	0xbe7610ee	-0.24029896
33	0x3fe7238d	1.8057724
34	0x3e38b7e3	0.18038897
35	0x3f4c0e4b	0.7970931
36	0x3ff2da5c	1.8972888
37	0xbf396b4e	-0.7242936
38	0x400b6ff2	2.1787076
39	0xbf9275d6	-1.1442211
40	0x3ed54ad8	0.41658664
41	0xbd353075	-0.044235665
42	0x3ff7e4cd	1.93667
43	0xc004e786	-2.076631
44	0x3f10ba24	0.5653403
45	0xbe9df32e	-0.30849594
46	0x3fbf5a36	1.4949405
47	0xbdfa580c	-0.12223825
48	0xbe1ef8d5	-0.1552461
49	0x3e3cd2be	0.18439767
50	0xbeb69b2f	-0.3566527
51	0x3cb11820	0.021617949
52	0xbc43c7d6	-0.0119495
53	0xbc3d4c1c	-0.01155379
54	0xbdd84650	-0.10560286
55	0xbd4a6f80	-0.04942274
56	0x3fbfa32c	1.4971671
57	0x3fd03f8e	1.6269395
58	0xbfb3514d	-1.4009186
59	0xbdc411d4	-0.09573713
60	0xbf379947	-0.7171826
61	0x3f328142	0.6972848
62	0x3f46697c	0.77504706
63	0x3ea4b50f	0.32169387

l2.bias f4 [8]
0	0xbf1f8b35	-0.6232179
1	0x3e761a9b	0.24033587
2	0x3f80ec1d	1.0072056
3	0xbd93ea68	-0.07222444
4	0x3f51da65	0.8197387
5	0x3f44eb9d	0.7692202
6	0xbeba9f6b	-0.3644975
7	0x3e5289e2	0.2056041

l3.weight f4 [41, 8]
0	0xbe7379de	-0.23776957
1	0x3e2d0399	0.16895904
2	0xbf21fe1f	-0.63278383
3	0xbd597270	-0.05308765
4	0x3f2fb2c6	0.6863216
5	0xbf8004cc	-1.0001464
6	0x3e91fdd0	0.28513956
7	0xbfd0ffed	-1.6328102
8	0xbd33d8fd	-0.043908108
9	0x3e436fd9	0.19085635
10	0xbf07b7af	-0.53014654
11	0x3e5eefc2	0.21771148
12	0xbfe7e57d	-1.8116909
13	0x3f2de0c4	0.6792109
14	0xbd067342	-0.032824762
15	0xbea199b6	-0.31562585
16	0xbfd4c42c	-1.6622367
17	0xbf898d3a	-1.0746224
18	0x3f3c01c0	0.7344017
19	0x3d927af4	0.07152358
20	0xbf0556a6	-0.5208534
21	0xbfc69617	-1.5514554
22	0x3e5f10ca	0.21783748
23	0xc00f3704	-2.237733
24	0x3e7fb1a8	0.24970114
25	0xbf99cacc	-1.2015014
26	0xbdf7fc51	-0.121086724
27	0x3d833d08	0.06408125
28	0xbf4e3f33	-0.80565184
29	0xbfd22b99	-1.6419555
30	0x3e732136	0.23743138
31	0x3eafa354	0.34304297
32	0xbe85a0f6	-0.26099366
33	0xc01213e7	-2.2824647
34	0x3ec82c30	0.39096212
35	0x3ea5afc9	0.32360676
36	0xbf5c695f	-0.86098284
37	0xbfe2cc91	-1.7718679
38	0xbe02f4ed	-0.12788744
39	0xbe61bbf6	-0.22044358
40	0xbe178bd0	-0.14799428
41	0xbeea00a7	-0.45703623
42	0xbeb002fe	-0.34377283
43	0x3de03bb4	0.109488875
44	0x3e035d3e	0.12828538
45	0xbd9ba971	-0.07600678
46	0xbeb46455	-0.35232797
47	0xbf27ef9f	-0.6560001
48	0x3d080520	0.033208013
49	0xbf161264	-0.5862181
50	0x3d52d884	0.051476017
51	0xbe4dbbd5	-0.20091183
52	0xc02fa33e	-2.7443385
53	0x3e5ecea9	0.21758522
54	0xbbc228ea	-0.0059252875
55	0xbea24c72	-0.31698948
56	0x3e04c097	0.12964092
57	0xbded5850	-0.1158911
58	0xbef0ed09	-0.47055843
59	0x3c4711e0	0.012150258
60	0xbf5839dc	-0.84463286
61	0xbf076816	-0.528932
62	0xbeb66815	-0.35626283
63	0x3e8d3bb9	0.27584627
64	0x3ec70d0b	0.38877138
65	0xbfa5d76a	-1.2956364
66	0x3ebe9519	0.37223127
67	0x3e2444fe	0.16041943
68	0xc013ccbd	-2.3093712
69	0xbfd565a8	-1.6671648
70	0x3bd61c17	0.0065341103
71	0xbf07b3a0	-0.5300846
72	0xbe9c5476	-0.3053319
73	0xbfdf68d0	-1.7453861
74	0xbdae8715	-0.085218586
75	0xbe795e8a	-0.2435247
76	0xbda691d0	-0.0813328
77	0xbf4c9f9d	-0.7993105
78	0x3d34f3f1	0.044177953
79	0x3d5af125	0.05345263
80	0xbf3da4a6	-0.7407936
81	0xc00f936b	-2.2433727
82	0x3e8b1c36	0.2716996
83	0xbe010530	-0.12599635
84	0xbf0cb889	-0.5496908
85	0xbe8f9024	-0.28039658
86	0x3e012163	0.12610392
87	0xbeaa83d2	-0.33303696
88	0xbe877ebc	-0.26463878
89	0xbea92c45	-0.33041587
90	0xbe178e9f	-0.148005
91	0x3e7184b6	0.23585781
92	0xbe99e8f5	-0.30060545
93	0x3f1fba40	0.6239357
94	0xbd037572	-0.032094426
95	0xc011dff3	-2.2792938
96	0x3dde4466	0.1085289
97	0x3ea23fcf	0.31689307
98	0xbfc15f65	-1.5107237
99	0xbe802579	-0.2502859
100	0x3e453a45	0.1926051
101	0x3f360caa	0.71113074
102	0xbccb2d01	-0.024801733
103	0xc0017370	-2.0226707
104	0x3e394645	0.18093212
105	0x3edd8c40	0.43271065
106	0xbeaadece	-0.3337311
107	0x3e4478d2	0.19186714
108	0xc012c79a	-2.2934327
109	0x3f19697e	0.59926593
110	0xbeafa5c8	-0.3430617
111	0xc017440b	-2.363528
112	0x3e9326f0	0.28740644
113	0x3d476e71	0.04868931
114	0xbea8702d	-0.32898083
115	0x3e0fc82e	0.14041206
116	0xc006ed86	-2.1082473
117	0xbffeddda	-1.9911454
118	0x3e8dca68	0.27693486
119	0x3ed51f10	0.4162526
120	0x3d5e3437	0.054249015
121	0xbee204e3	-0.44144353
122	0x3ebfc391	0.37453893
123	0x3e27b0ae	0.16375992
124	0xc02f5d3b	-2.7400653
125	0xbdd08b1d	-0.10182784
126	0xbd567f2d	-0.052367378
127	0xc0369b1e	-2.8532176
128	0x3ea4f326	0.32216758
129	0xbe96da15	-0.29463258
130	0x3ed09e49	0.40745762
131	0x3e3ec81e	0.18631026
132	0xbfd66cdd	-1.6751972
133	0xc0028607	-2.0394304
134	0xbdd52855	-0.10408083
135	0xc00d8429	-2.2111914
136	0xbe1406e9	-0.14455761
137	0xc005076b	-2.0785778
138	0x3ea99de3	0.3312827
139	0x3e28d8ea	0.16488996
140	0xbffd831b	-1.9805635
141	0x3f2d0ab1	0.6759444
142	0xbe6e56e1	-0.23275329
143	0xc01ed7b9	-2.4819167
144	0xbff8313d	-1.9390026
145	0xbfa38435	-1.2774721
146	0x3f2a1118	0.66432333
147	0xbe8dfa80	-0.2773018
148	0xc003437d	-2.0509942
149	0xbfcad617	-1.5846585
150	0xbddf7892	-0.10911669
151	0xbdaf3637	-0.085552625
152	0x3d56ffd0	0.052490056
153	0xc0143fff	-2.316406
154	0x3da690b0	0.08133066
155	0xbe3d86cb	-0.1850845
156	0xbfef2abe	-1.8684919
157	0xbdcb64ca	-0.09931333
158	0x3e03c8a6	0.1286951
159	0x3e883be3	0.2660819
160	0x3dac5c28	0.08416015
161	0xbfa23ffa	-1.2675774
162	0x3e673a78	0.22580898
163	0xbd819164	-0.06326559
164	0xbf24b840	-0.64343643
165	0xbc1d8683	-0.00961459
166	0x3e638c02	0.22221377
167	0xbfc71a97	-1.555499
168	0xbdbeb786	-0.09312348
169	0xc00ee6b5	-2.2328312
170	0x3c3c0f8c	0.011478316
171	0xbe528dcd	-0.20561905
172	0x3ea9278d	0.33037987
173	0x3d71ede4	0.05906476
174	0x3dfa6042	0.12225391
175	0xbfd9bd63	-1.7010921
176	0xbf8d09a7	-1.1018571
177	0xbfcb5cc3	-1.5887684
178	0x3e8a31d9	0.26991156
179	0xbe937577	-0.28800556
180	0x3e6c7952	0.23093155
181	0xbfe17232	-1.7612975
182	0xbdea524a	-0.11441477
183	0xbf1d40c8	-0.61426973
184	0xbf46307f	-0.7741775
185	0xc00586b7	-2.0863473
186	0x3ef12f32	0.4710632
187	0x3e21a0c2	0.1578398
188	0xc00568d1	-2.0845225
189	0xbb110a40	-0.0022131354
190	0x3e3595d9	0.17732944
191	0xbee5c394	-0.44875777
192	0x3ec18c2f	0.37802264
193	0x3e950eb6	0.29112786
194	0xbf32d1ed	-0.6985157
195	0xbdf3cdb6	-0.119044706
196	0xc03619b3	-2.8453186
197	0xbe238aa6	-0.15970859
198	0xbe805fe7	-0.25073168
199	0x3e2baa66	0.1676422
200	0x3e9e50fd	0.30921164
201	0x3f212343	0.6294443
202	0xbfc13cd6	-1.5096691
203	0xbe560ae6	-0.20902595
204	0xbfb2da09	-1.3972789
205	0x3e883109	0.2659991
206	0xbc42c354	-0.01188739
207	0x3d01cb4e	0.031688027
208	0x3ea6f7cf	0.32610938
209	0x3e7cb37a	0.2467784
210	0xbf30ac80	-0.69013214
211	0xbe8252d8	-0.2545383
212	0xbed1e94a	-0.40998298
213	0x3dea5597	0.11442106
214	0xbc023dee	-0.0079493355
215	0xbf9dc4a7	-1.2325639
216	0x3d7d2267	0.061800387
217	0xbf88196f	-1.0632762
218	0xbe2eaf26	-0.17059001
219	0xbe3bc6b3	-0.18337516
220	0xbf7d3b46	-0.9891857
221	0x3e401284	0.18757063
222	0x3e308459	0.17237987
223	0xbd937885	-0.07200722
224	0xbd7f84fe	-0.06238269
225	0xc00f5d4f	-2.24007
226	0xbe893248	-0.26796174
227	0xbc2835c0	-0.010266721
228	0xbe804c79	-0.25058344
229	0x3e86a290	0.262959
230	0x3dc0ad67	0.09408074
231	0xbe2c93d2	-0.16853264
232	0xbd80f029	-0.06295807
233	0x3c4fbeb1	0.012679742
234	0x3e04f616	0.129845
235	0xbe3a2e4d	-0.18181725
236	0xbe483cc1	-0.19554426
237	0xbff3581c	-1.9011264
238	0x3eb0733b	0.34462914
239	0xbf9f892d	-1.2463738
240	0x3e83d5d6	0.2574908
241	0x3eca1e69	0.39476326
242	0xc0272094	-2.6113634
243	0x3eb4ed81	0.3533745
244	0x3b69675f	0.0035614592
245	0xbe81e631	-0.25370935
246	0x3dd00895	0.10157887
247	0x3b9a3bcd	0.004706836
248	0x3db5dca6	0.08879976
249	0xbfa0e393	-1.256945
250	0xbf76d386	-0.9641651
251	0x3d860554	0.06543985
252	0x3d544f1d	0.05183326
253	0xbee3d0be	-0.44495195
254	0xbd8278ab	-0.06370672
255	0x3eb9b662	0.3627196

l3.bias f4 [41]
0	0x3deec71c	0.11659071
1	0xbef998d7	-0.4874942
2	0x3e79e730	0.24404597
3	0xbe6919c1	-0.2276373
4	0x3cc94b9e	0.02457219
5	0xbb6f1d5f	-0.0036486012
6	0x3e4a2269	0.19739689
7	0xbd7613f2	-0.060077615
8	0xbe199114	-0.14996749
9	0xbf04d0cb	-0.5188109
10	0xbde240d6	-0.11047523
11	0x3e290537	0.16505896
12	0xbe2692fc	-0.16267008
13	0x3dadabbe	0.08480023
14	0x3e841e3e	0.25804323
15	0xbe4dc2c1	-0.20093824
16	0xbcf6d96f	-0.030132977
17	0xbde5d1df	-0.1122167
18	0x3f1c7b79	0.61125904
19	0xbeed6e50	-0.46373224
20	0xbeec3b11	-0.46138814
21	0xbf0640bb	-0.5244252
22	0x3d039557	0.032124843
23	0xbe66821f	-0.22510575
24	0x3e8f4e09	0.27989224
25	0xbe298f25	-0.16558512
26	0x3e93543a	0.28775197
27	0xbf322d23	-0.69600123
28	0x3df51c0a	0.11968239
29	0x3e872e7c	0.26402652
30	0xbf136b0d	-0.5758522
31	0xbe04d0f8	-0.1297034
32	0xbe75a40e	-0.23988363
33	0xbec81be5	-0.39083782
34	0xbc0d54e4	-0.0086261965
35	0xbf229232	-0.63504326
36	0x3e3946d9	0.18093432
37	0x3ec57b6e	0.38570732
38	0x3f045891	0.5169764
39	0x3d4cb236	0.049974643
40	0x3e59abd6	0.21256956
