Backed_Draft_01/data.pth (torch, 53610 bytes, 6 tensors)

l1.weight f4 [8, 727]
00000000: 8762 863e d15e 7abe bcb2 edbf d47d dbbe
00000010: 42bd b63f 7613 ba3f e368 a03e 6108 ab3f
00000020: bfc1 8e3f 69cc 7b3e d876 993e 5575 4a3e
00000030: 1d7b 81bf f8f4 c23f c28b d3bd 3623 2e3e
00000040: 0858 00c0 00f3 80bf b6d9 74bc 7bdf 903f
00000050: 3a20 823f 4eb9 e6bd 4135 21bf 354c e43e
00000060: 5954 0b3f c5a3 503f fd0c 703f 3c76 403f
00000070: 73cd 9dbe c5cc a93e de6f 0a3d 534f 9f3f
00000080: efa6 4b3f c2f2 f83e d306 903e 5acf 083f
00000090: 9904 893f 3eb2 ae3f c7fa 2f40 2a12 7b3f
000000a0: dcaf 79bf 3126 423f 8612 1040 ce75 9dbe
000000b0: 30fb 0b3e 1aa1 1cbd 6f2b d53f adf2 1bbf
000000c0: 95d2 29bf 3d15 3040 a243 213f 44d9 b93e
000000d0: 9112 8c3d b36a ebbd d3df 96bf e31d 1340
000000e0: f401 65bf 6c0d 6cbe e8ac be3f 6e0b c03f
000000f0: cca1 84be 8e8b a93f f7f7 45bf e9fb 253d
00000100: 9fdc 803f b45d 463e a7f5 a53f f4d6 0bbf
00000110: 8179 753e bab1 813f c18d fcbd 4cb7 f13f
00000120: b4a4 0940 a31d f33f b250 40bf 5e4d 65bf
00000130: 74f1 cabe 7485 cd3f dbdb 5e3f 856f 3abf
00000140: 9528 a73f c733 0dbf 63cd 853f c96d bfbe
00000150: 28fa 7d3e 3d43 ad3f 7541 dc3f 95ca 54bf
00000160: 8d14 57bf 89c4 2f3c 2e64 e13e 3da8 853e
00000170: 2e82 c13d 6dcb f83e 6bb4 a73f e142 2fbf
00000180: a3b7 1a3f a2a1 44bc 4446 2e3e b205 733f
00000190: 458e 913f 83da 9d3e 8af3 223e dfa6 9ebf
000001a0: 8434 b03f eda4 58bd 3afa b03f b6af 863e
000001b0: c412 673f db78 a13f 17bc c3bf 3750 483d
000001c0: 9f6b b43f 28fa 4bbe 7570 b83f 7ca4 983f
000001d0: a7ab 3ebf 7eae 1dbf 8e18 1040 ba7b 8abf
000001e0: 812a 02bf 7a60 0a3e 3fe0 123f 7a4b 6ebf
000001f0: 8a5d ec3e bf0a cc3f 8eca 883f b43f 01bf
00000200: eee5 b43f 13f9 e6be 48a1 393f 5457 86be
00000210: 53fa 06c0 3445 203e 6cb8 0ebf 603c cf3e
00000220: a656 a23e cf03 a0bf b83e 74bf e8bb 873f
00000230: c642 d73f 479b 533f e29e 44bf e36a 823e
00000240: 7f57 94bf 13a8 dc3f 81f8 ce3e 7737 d93f
00000250: b9d8 0540 794f a6bf 4689 733f 05fe 613e
00000260: f0b2 4b3f eb2f df3f f2db 8c3d bd36 2b3f
00000270: aadd 243f e733 a53f 31cd 373e 263d 37bf
00000280: 51c9 9e3f f575 0d3f 70e0 153e 0db5 8cbf
00000290: abe9 4c3f c1ca 01bf 3768 143f 56d0 d23f
000002a0: 9985 e23f 82ab 8a3f bee1 9d3e f88d a63e
000002b0: 3ca6 d53f ddde 34be 144c 243f fae2 683e
000002c0: baef 9bbf 2ad4 8e3f cc11 d0be a8a8 37bf
000002d0: 6e6f 3c3f 0a1e 313f 2079 a7bf 65f1 733e
000002e0: f66d 793f 1e7d ce3f ca4f 18bf 3547 db3e
000002f0: d362 cdbf 405d 0bbf 5d46 7c3f 519a 34bf
00000300: cef9 8fbd a9d0 593e 3982 dbbe 076d 4abf
00000310: 4026 e7bf 3610 87bd b2eb 47bf 511b ee3f
00000320: 274d 15c0 ff7c 9e3f 43e6 cb3f 7559 093f
00000330: e249 afbf e521 af40 432e 3c3f e721 5abc
00000340: 2683 383f cba9 a7bc 3302 453f 30a0 683e
00000350: 9288 53be 79a4 ee3e 883e 26bf 3136 d7be
00000360: 4ca4 b03d 64e2 68bf aec5 8fbe 8248 88bf
00000370: 0da8 9b3f d28c 3b3d d63b aa3f c97a 86bf
00000380: 116e e83f 1d92 b53f 36d4 d43f be75 81be
00000390: 66b4 9b3f 49bb b03e 7796 42be a15f 513f
000003a0: 617d 9a3f 5d8c 6bbf a57b c93e 04c6 ed3e
000003b0: 23bd 91bf b25d 863f 4615 683e 2c6a ab3f
000003c0: 9398 e23f bd6c 0b3e 9ca7 a0bf 47ed 923f
000003d0: 7a4f 6c3f 3c92 1c3f 41b6 cf3e 7140 0240
000003e0: c92c 40bf d090 013f ec93 e23b 904d 633f
000003f0: c765 2a3f 168e d63f c3a2 25bf efe6 34bf
0.26247045 -0.24450232 -1.857017 -0.42869437 1.4276507 1.4537189 0.31330022 1.3361932
1.1152877 0.24589695 0.29973483 0.19771321 -1.0115696 1.5231009 -0.10329391 0.1700562
-2.005373 -1.0074158 -0.014944484 1.1318201 1.0166085 -0.11265813 -0.62971884 0.4458939
0.5442558 0.8149989 0.9376982 0.7518041 -0.30820808 0.3316404 0.03379809 1.2446083
0.79551595 0.4862271 0.28130206 0.53441393 1.0704528 1.3648145 2.7496812 0.9807459
-0.97533965 0.75839525 2.2511306 -0.3075394 0.13670039 -0.038239576 1.665388 -0.6091717
-0.6633695 2.7512963 0.62993824 0.36298573 0.06839479 -0.11494961 -1.1787056 2.2986991
-0.89456105 -0.23051995 1.4896517 1.5003488 -0.2590469 1.3245714 -0.7733149 0.040523443
1.0067328 0.19371682 1.2965592 -0.5462487 0.23972131 1.0132363 -0.12331725 1.8884063
2.1506777 1.899342 -0.7512313 -0.8957118 -0.3963734 1.6056352 0.8705422 -0.72826415
1.305926 -0.5515713 1.0453304 -0.37388447 0.24802458 1.3536144 1.7207476 -0.83121616
-0.84015733 0.01072801 0.44021744 0.26104918 0.09448658 0.48592702 1.3101934 -0.68461424
0.6043646 -0.012001427 0.17018992 0.94930565 1.1371542 0.30830774 0.15913215 -1.2394675
1.3766026 -0.05289166 1.3826363 0.26305932 0.9026301 1.2615007 -1.5291775 0.048904624
1.4095343 -0.19919646 1.4409319 1.1925197 -0.7448067 -0.6159438 2.2514987 -1.0819008
-0.50846106 0.13513365 0.5737342 -0.9308392 0.46165115 1.594078 1.0686815 -0.5048783
1.4132669 -0.45111904 0.7251172 -0.262385 -2.1090286 0.15651399 -0.55750155 0.4047575
0.31706733 -1.2501162 -0.954082 1.060422 1.6817253 0.8265881 -0.76804936 0.25472173
-1.1589202 1.7238792 0.40423968 1.6970052 2.0913527 -1.2993003 0.9513134 0.22069557
0.7956991 1.7436498 0.06877889 0.668804 0.6440073 1.2906464 0.17949368 -0.7157768
1.2405187 0.55258113 0.14636397 -1.0992752 0.8004405 -0.507 0.5797152 1.6469829
1.7697021 1.083359 0.3083629 0.3253019 1.6691356 -0.1766314 0.64178586 0.22742835
-1.2182534 1.1158497 -0.40638578 -0.71741724 0.7360753 0.6918646 -1.308384 0.23822553
0.9743341 1.6131933 -0.5949675 0.42827764 -1.6045784 -0.54439163 0.98544866 -0.7054797
-0.07030068 0.21271004 -0.4287279 -0.7907261 -1.8058548 -0.06594889 -0.7809402 1.8602086
-2.332834 1.2381896 1.5929645 0.53652126 -1.3694422 5.4728875 0.7350809 -0.013313747
0.72075117 -0.020466706 0.7695648 0.22717357 -0.20657566 0.46609858 -0.64939165 -0.42033532
0.08625087 -0.90970445 -0.28080505 -1.0647128 1.216066 0.045788594 1.329951 -1.0506221
1.815859 1.4185215 1.6627262 -0.25285143 1.2164428 0.34517887 -0.1900271 0.81786543
1.2069513 -0.9201105 0.39352146 0.46440136 -1.1385845 1.0497344 0.22664365 1.3391776
1.7702812 0.13615699 -1.255115 1.1478661 0.9230877 0.61160636 0.40568736 2.0351832
-0.75068337 0.5061159 0.0069146063 0.88790226 0.6656155 1.6762111 -0.6470148 -0.70664877

l1.bias f4 [8]
00000000: 1bba 2340 085e c83f 3692 bc3f 0b8d 6a3f
00000010: 4408 a83f 18b2 a83f 55ca bf3f cd38 bd3f
2.558234 1.5653696 1.473212 0.91621464 1.3127522 1.317935 1.4983622 1.4782959

l2.weight f4 [8, 8]
00000000: c717 50bd 1f44 ac3f 16e3 1540 c7d9 5e40
00000010: 1d20 7340 cd17 3bbf 0254 8640 8faf 47bf
00000020: 7c2b 6c40 ca8d 643f 61f8 cebf 6a5e cb3f
00000030: 8424 483f 066e fbbf 1f26 af3f aefe a93f
00000040: 6b59 5a40 87c2 9cbf b269 3140 55c8 02bf
00000050: cb5a 583f 0310 3b40 65d6 56bf 0c14 1a40
00000060: 880c 4540 78c4 9c3f 21a0 e03f 8d37 0b3f
00000070: 25ac 19c0 efc7 3040 4d05 d53f 9037 afbf
00000080: e984 263f 0b47 0640 21ab 0040 53fe b4bf
00000090: e2ec 7e3f 6509 16c0 f344 d43d d2a9 6040
000000a0: f54f 773f bdb9 38bf d5fa ddbd bda5 913d
000000b0: b7ff 3b40 e4f1 4a40 9ecb 2740 2f6e 8e40
000000c0: 5f5a cc3f f606 1a40 45f4 0abe 3eab dabf
000000d0: cbbf 8840 7983 ae3f 267c 25bf 753c 02bf
000000e0: 4c19 c53e feba b53f b110 833f b89a 8140
000000f0: 524b 743e e63b a13f e689 44c0 a9f6 ae3f
-0.050803926 1.3458289 2.3419852 3.482042 3.798835 -0.7308319 4.197755 -0.78002256
3.690154 0.8927885 -1.6169549 1.5888188 0.7818072 -1.9642951 1.3683509 1.3280847
3.4117076 -1.2246865 2.7720761 -0.5108693 0.8451354 2.9228523 -0.8392089 2.4074736
3.0788898 1.2247458 1.7548867 0.5438164 -2.4011319 2.762203 1.6642243 -1.3688831
0.65046555 2.098086 2.0104449 -1.4140114 0.99580204 -2.3443234 0.103647135 3.510365
0.9660638 -0.72158414 -0.10838858 0.0711169 2.9374826 3.1710138 2.6218028 4.45095
1.5965079 2.4066749 -0.13569744 -1.7083509 4.273412 1.3633872 -0.6464256 -0.508735
0.38495862 1.419769 1.0239469 4.0501366 0.23856857 1.2596405 -3.0709167 1.3669025

l2.bias f4 [8]
00000000: 638b e83d 6566 6b3f ce93 cb3f 7492 9d3f
00000010: 9ac4 063f 73a8 813f ae93 f63f edac 75be
0.11354711 0.91953117 1.5904481 1.2310319 0.5264374 1.0129532 1.9263818 -0.23991747

l3.weight f4 [204, 8]
00000000: a879 4dc0 ffd8 3dc0 3f26 583f f4ef 033f
00000010: d94a 39c0 654d 453f 9945 7bbe 136c ad3e
00000020: df61 acbd 6d94 c8bf 345a 45bf f47c 523f
00000030: bb34 c2be 2825 25c0 f922 613f eb25 a13e
00000040: bf8d 803d 958a 81bf 7d5f 22bf f374 04bf
00000050: 2296 19c0 0716 243f 3791 993e 2af3 70c0
00000060: 94b3 9dbf 7ae3 03c0 fde2 0b3d 18c6 5f3f
00000070: 8f27 42bf 92d3 b1bf 92e7 e23e 3f5e 013f
00000080: c64e 36bf bfd7 6fc0 10eb 60bd 1576 9d3e
00000090: 3360 cf3e f548 a7bf 92c1 3a3f 577c 7b3e
000000a0: 2d1a b9bf 2243 553e a2c4 13bf 6e87 023f
000000b0: 0d0e 5cbf 61a9 aebf 7c21 ca3e ffd9 2f3e
000000c0: 15ef 9ebf bf12 4bbf 8eaa b9be 7188 d0be
000000d0: 5be6 4dc0 f645 9a3e 1017 4d3f f6bc 89be
000000e0: 8a21 eabf f8a7 83bf e8db fd3c 8a1d 4b3e
000000f0: df11 14be f944 66bf 5698 513f c4f9 19bf
00000100: 4a1c c3bf 2d41 f2bf 6355 c0be f908 653e
00000110: 7b9a 113f 14f2 823d ba69 d2be 60de 13bf
00000120: d4cf 073e e5f4 b0be 9c87 3ec0 7f30 2ec0
00000130: 7afb 6e3f 6e14 1a3e 9a5d 373b 6cb8 7d3e
00000140: b480 f2be e99d 09be 3f7d 72be a081 27be
00000150: 84ad 1a3f 1804 4bc0 7e83 433f fea2 32bd
00000160: 7e0f 0ebd 6cc7 92bf 766c cdbf 3046 a6bf
00000170: b940 a93e 9daf 0c3e 0421 3b3f a882 0fc0
00000180: 61c5 1d3e cb0c e43e 7b05 c7bf 889e 99bf
00000190: a325 e8be 9b65 52bf 312a 373f 07ce b7bf
000001a0: 2114 fabb 4617 38be 4f6e 99bf 1145 83bf
000001b0: 6949 d2be 3e5d 893d e8aa cbbe 704b 61bf
000001c0: fc38 23bf 39ae 7abe 3fbe a1bc 2a9d e73e
000001d0: 48d1 66c0 d912 8fbf 5de6 63be 26af 5f3f
000001e0: 152c 8bbf a2bf dc3e 0edc 87bc 31a3 afbc
000001f0: 7d6c 55c0 95c9 1cbe 0a5f d8bf ddb2 7e3f
00000200: e7e4 37bf 2e8c 893e 0efd bcbe bc48 1cbf
00000210: 0a91 6ac0 b58c f4be c0c0 0a3f 6aea b93e
00000220: cf09 d7bf 59b5 4dbe aac6 193e f69f 653e
00000230: b406 5ac0 84e4 ec3e 17bd a2be 75aa 8bbf
00000240: 1824 1dbf 70b8 18bf 3fed f9be c83c a03c
00000250: e2f1 0b3f d369 69bf d904 ddbe ad2d 7abf
00000260: 61e5 0ebf 950f 14c0 8f3d 163f e3a3 583f
00000270: 7200 3cc0 0cae a53e 1ecd 38bf 7b52 29c0
00000280: 12e5 d2bf 520b 89bf b4c4 7abd 63da 143f
00000290: c8e0 38c0 c581 bbbe 36f8 bd3e b41c 193f
000002a0: c5e3 13bf 1150 e23e 229e a3be db11 cabe
000002b0: e9be 59c0 f5ee d83d c795 94be a939 44bf
000002c0: e9cb 93c0 870b 0cbf a91b 893e 317e 253e
000002d0: 72ad 53bf b8e8 033e 985a 1f3f 4c92 0f3f
000002e0: 6f04 b33c 98c0 cfbf 4415 0abe baff 5cbf
000002f0: 5f60 be3e 0637 47bf 00d9 2dbf 29eb 313c
00000300: daab 26be 2915 f7be cebe 12bf b9e9 22bf
00000310: 6184 d8be 4e41 0cbf 0f03 d4be cc2e 2abd
00000320: d5d0 96be 0ea9 0f3e 258d 14c0 c778 873e
00000330: 83fe 213f 302d e2bf 400b ee3e 7545 4abd
00000340: ab1f 293f 1a18 b93e 0b0b 24c0 bea7 28bb
00000350: 6f8f 19bd a2e1 abbf 21d7 c4bf 753a 183f
00000360: c360 693e 9d8a 013f d2a0 82c0 e03e a9be
00000370: 66dd dbbd 9b61 83bf 8991 fa3e aa85 2c3f
00000380: 42d7 a33e ead3 05c0 4cba f7be 94b6 ebb9
00000390: 9f10 10bf 9a10 65bf 51f9 30be 110b 1e3e
000003a0: 54f4 133f 98b9 1cbf fc27 01c0 194b a2be
000003b0: 86c2 313d 6c86 a5bf b593 36be b8e8 b03e
000003c0: 29db d6bd b8ba 903d 1995 65be 7937 a73e
000003d0: 4266 18bd 014c 32c0 89c0 77be f02a 963e
000003e0: 9211 f63e 309b 9fbe 67de 35c0 6cba c2be
000003f0: bed0 983e 7714 6dbf 058d 023f 0849 66bf
-3.2105503 -2.9663694 0.8443336 0.51538014 -2.8951933 0.7707122 -0.24538268 0.33871517
-0.08417105 -1.5670296 -0.77090764 0.82221913 -0.37930855 -2.5803928 0.8794399 0.31474242
0.06277036 -1.0120417 -0.63426954 -0.5174095 -2.3997884 0.6409611 0.29993603 -3.7648416
-1.2320428 -2.060759 0.03415202 0.8741164 -0.7584161 -1.3892691 0.443173 0.50534433
-0.7121395 -3.747543 -0.054911673 0.30754152 0.40503082 -1.306914 0.72951615 0.2455915
-1.4461113 0.2082639 -0.5772191 0.509879 -0.8595894 -1.364544 0.39478672 0.17173003
-1.2416712 -0.7932548 -0.36262935 -0.40729097 -3.2171848 0.301315 0.80113316 -0.26901978
-1.8291485 -1.0285635 0.030988649 0.19835487 -0.14459942 -0.89948994 0.8187307 -0.6014674
-1.5243008 -1.892614 -0.37565145 0.22366704 0.56876343 0.06393829 -0.41096288 -0.5776119
0.13262874 -0.3456184 -2.977027 -2.72171 0.9335247 0.15046856 0.0027979375 0.24777383
-0.47363818 -0.13439144 -0.2368059 -0.16358042 0.60421014 -3.1721249 0.76372516 -0.043612473
-0.034682743 -1.1467109 -1.6048725 -1.299017 0.33057192 0.13738866 0.7309725 -2.2423496
0.15407325 0.4454101 -1.5548548 -1.2001505 -0.45341215 -0.8218629 0.71548754 -1.435975
-0.007631794 -0.17977628 -1.1986789 -1.0255452 -0.41071633 0.06707238 -0.3977883 -0.88005733
-0.63758826 -0.24480523 -0.019744037 0.45237094 -3.6065235 -1.1177627 -0.22255845 0.8737663
-1.0872828 0.43114954 -0.016584422 -0.02144012 -3.3347466 -0.15311272 -1.6904004 0.99491674
-0.7183365 0.2686476 -0.36911815 -0.61048484 -3.6651025 -0.477636 0.54200363 0.36311656
-1.6799868 -0.2008871 0.1501719 0.22424302 -3.4066591 0.46268094 -0.3178489 -1.0911394
-0.613832 -0.5965643 -0.48813817 0.019560233 0.5466596 -0.911771 -0.4316776 -0.97725946
-0.55818754 -2.313451 0.5868768 0.8462507 -2.9375272 0.3235935 -0.72187984 -2.6456592
-1.6476157 -1.070658 -0.061222747 0.5814573 -2.8887196 -0.36622444 0.37103432 0.5980942
-0.57769424 0.4420171 -0.31956583 -0.39466748 -3.4022772 0.105924524 -0.2902052 -0.7665048
-4.6186414 -0.5470509 0.26778916 0.1616142 -0.8268653 0.12881744 0.6224761 0.56082606
0.0218527 -1.623065 -0.13484675 -0.8632771 0.371829 -0.77818334 -0.6790924 0.010859289
-0.16276494 -0.4825833 -0.57322395 -0.6363788 -0.42288497 -0.5478715 -0.41408584 -0.041548535
-0.294562 0.14029333 -2.3211148 0.26459333 0.6327898 -1.767004 0.46492958 -0.049382646
0.66063946 0.361512 -2.563174 -0.0025734748 -0.037490305 -1.3428233 -1.5378152 0.594642
0.22790818 0.5060213 -4.0821314 -0.33055782 -0.10735588 -1.0264162 0.4893916 0.67391455
0.32000166 -2.0910592 -0.4838432 -0.00044958724 -0.5627536 -0.89478457 -0.17282607 0.15433909
0.5779469 -0.61220694 -2.0180655 -0.3169792 0.043398403 -1.2931647 -0.17829783 0.3455255
-0.1049102 0.07066864 -0.22420157 0.3265951 -0.037206896 -2.785889 -0.2419454 0.29329634
0.4806028 -0.31173086 -2.8416994 -0.38032854 0.29846758 -0.9260935 0.5099643 -0.89955187

l3.bias f4 [204]
00000000: b55e 263f 7f03 b03e 1abc 6c3e 17cd 97bd
00000010: b3ae 3e3e 3696 6f3d 9989 913e 0ad6 6e3f
00000020: 2f06 ef3d 1676 a93e 4bca cc3d b0a9 ca3e
00000030: 9d31 d83e 152d 633e 61c1 b9be 81d4 afbe
00000040: 77cf ae3e a759 073f 52e5 5abf 7525 363f
00000050: 28f3 9b3e 4a27 e43e 57d0 983e cb41 52be
00000060: d51b 04c0 5e56 a2be 2ed4 16be 9d46 37bf
00000070: 7e26 00bf 8e93 623c 3d2b 32be 8f4b f33d
00000080: 7ea0 c3be b69e 93bf c9c9 853d c703 96bf
00000090: b90c eabe 55f7 d1bf 2799 a43d cfa4 28bf
000000a0: 1abf b5be e8d2 bdbf eec9 25bf 9964 f1be
000000b0: e256 55bf 0fb1 06bd b86c 90bf 7af4 a2bf
000000c0: 2f71 89be ff98 30be a322 30be e162 9bbf
000000d0: 5236 40bf 9101 573f f0a5 c0bd 1b22 fa3e
000000e0: 2dc7 fe3d dfa1 3abe 52ab e33e 4343 b63e
000000f0: f475 7cbc 5020 dfbd 0233 a8be 68dc 59be
00000100: 5e7e 0c3f c61c e73e d2d2 053f 015b 233e
00000110: e91e 70be b853 6d3f 0aea 29be 40f4 ddbc
00000120: 52f9 1c3e f110 2f3f 409b 103f e488 0b3f
00000130: e7e2 ef3e 636c 2a3f df01 d73c d5ad d53e
00000140: 7748 ab3e 7d85 a7bf 0fd9 ccbd 5353 09bd
00000150: 8224 c13e 86d8 583e b4d5 7d3c 5629 7b3d
00000160: 05c4 8fbe 46c5 46bf 77f1 b3be 8ee9 8c3e
00000170: 4852 d2be 86ea e5be e68b c13d 2764 48be
00000180: 27e3 593e 10ce d0bd 9b29 0bbf 12ad d7be
00000190: 972b a9be 46a4 37be 4c57 2cbf 0f5e 443f
000001a0: ebec 063f 3ff1 88bf c0db ff3e 1acd bf3e
000001b0: 9850 1abe 3e13 413d 3c12 2cbf b885 56be
000001c0: ac94 503e fd31 093f 5dc2 1abf 2adf 89be
000001d0: dfe4 15bf 53fe a5be b68e dfbf 0eda e4be
000001e0: 0e72 aabf 1431 24bf a6e0 8dbe 2044 e43e
000001f0: 41fe 09bf b7ae 1bbf 43e2 393e 4195 ce3a
00000200: 3ae5 b03e 9af9 763f 83a7 603e 2e9a c0be
00000210: 3cc1 33bf 4515 9cbf c8f6 80bf 64e4 d23e
00000220: 269a 5cbf ff43 84bf fefb 0abf ea2f c23e
00000230: 5b23 563f b648 493c c119 de3e 95a6 bdbf
00000240: f6d4 0ebe 939f 66bd ae7e 743e 3f53 babe
00000250: 3a1a 2dbf 0603 ce3e 2e6d 47bf 9545 7fbe
00000260: 6637 d9be b8dc 8d3e f962 173d 5519 a4be
00000270: 5e10 42bf 8365 1bbf 5286 94bf a84a 9cbf
00000280: 6697 7abe 83c0 323f c074 16bd 8355 24be
00000290: ca4b cbbe 3473 3c3e 6355 01bf a7a0 04bf
000002a0: 21d4 2b3e dbae d03c a229 233f cbfa 553c
000002b0: 3582 17bd b5f6 62bf 15c9 09bf dda6 8bbe
000002c0: 0fbb 1bbf 7f29 733c 483f 25bf 0747 b2bd
000002d0: 38d0 24be 7523 94be 2335 ec3d 4670 92be
000002e0: de9a 05bf d840 50bf e665 edbe b5ad 2bbf
000002f0: 5ea1 2a3e 491c 35bf 8d8f 1ebf afe6 95bf
00000300: e025 4e3e 1352 3f3e fc04 37be 50c2 49bf
00000310: 804c 863e 6435 b53e e7d9 66be a7bf 75bd
00000320: 2e2a 25be 3ea8 97be bb56 65bf d665 693e
0.6498826 0.34377667 0.2311863 -0.07412165 0.1862133 0.05849286 0.2842529 0.9329535
0.11671101 0.33097905 0.09999522 0.39582586 0.42225352 0.22185166 -0.3628035 -0.34341815
0.34142658 0.52871174 -0.85506165 0.71150905 0.3045895 0.44561225 0.2984645 -0.2053291
-2.0641987 -0.31706518 -0.14729378 -0.7159212 -0.50058734 0.013829125 -0.17399307 0.11879646
-0.38208383 -1.153281 0.06532628 -1.1719903 -0.45712832 -1.6403605 0.08037024 -0.6587648
-0.3549736 -1.4829988 -0.64761245 -0.47147062 -0.833357 -0.0328837 -1.1283178 -1.2730858
-0.26844165 -0.17245863 -0.17200713 -1.213955 -0.75082886 0.83986765 -0.0940665 0.48854145
0.124403335 -0.18225811 0.44466645 0.35598192 -0.015408982 -0.10894835 -0.32851416 -0.21275485
0.5488032 0.4513914 0.5227481 0.15952684 -0.23449291 0.9270587 -0.16593185 -0.027094007
0.15329483 0.68385226 0.5648689 0.54505754 0.468528 0.66571635 0.02624601 0.41734186
0.33453724 -1.3087612 -0.10002338 -0.03352673 0.37723166 0.21176347 0.015492845 0.061318718
-0.2807924 -0.77644765 -0.3514516 0.27521938 -0.410784 -0.4490549 0.09450512 -0.19569455
0.21278058 -0.10195553 -0.5436036 -0.4212423 -0.3304107 -0.17933759 -0.67320704 0.7670602
0.5270526 -1.0698622 0.49972343 0.37461168 -0.15069807 0.04713749 -0.67215323 -0.20949447
0.20369214 0.535919 -0.60452825 -0.26928073 -0.58552355 -0.32420596 -1.7465427 -0.44697613
-1.3316057 -0.6413739 -0.27710456 0.44583225 -0.53903586 -0.6081347 0.18152718 0.0015761034
0.34549886 0.9647461 0.219389 -0.3761763 -0.7021673 -1.2193991 -1.0075312 0.41189873
-0.8617271 -1.0333251 -0.5429076 0.3792718 0.836477 0.012285402 0.43379024 -1.4816462
-0.13948426 -0.056304526 0.2387645 -0.36391637 -0.67618144 0.40236682 -0.7790097 -0.24928887
-0.42425078 0.27707458 0.036959622 -0.32050577 -0.75806224 -0.6070177 -1.1603491 -1.2210283
-0.24471816 0.69825 -0.036732435 -0.16048245 -0.3970626 0.18403322 -0.50520915 -0.51807636
0.1678014 0.025474003 0.637354 0.013060282 -0.03698941 -0.88657695 -0.5382245 -0.27275744
-0.60832304 0.014841436 -0.64549685 -0.08704954 -0.16095054 -0.28933302 0.115335725 -0.28601283
-0.52189434 -0.81348944 -0.46366805 -0.6706193 0.16663119 -0.70746285 -0.6193779 -1.1711024
0.20131636 0.18683653 -0.17872995 -0.7881212 0.2623024 0.35392296 -0.2254406 -0.059997227
-0.16129372 -0.29620546 -0.89585465 0.22792754
