Backed_Draft_01/data.pth (torch, 53482 bytes, 6 tensors)

l1.weight f4 [8, 685]
0	0xbfb824e0	-1.4386253
1	0xbf719032	-0.9436065
2	0xbf6bbb23	-0.9208242
3	0x3e96e16a	0.29468852
4	0x3ea3264a	0.3186515
5	0xbd787216	-0.060655676
6	0x3fa03505	1.251618
7	0xbe95cc67	-0.2925751
8	0xbe94520d	-0.2896885
9	0x3f0438a0	0.516489
10	0xbf832f31	-1.0248777
11	0x3f5a37d8	0.8524146
12	0x3f75cb74	0.9601357
13	0x3ee6ee84	0.45103848
14	0x3f9df9b8	1.2341833
15	0xbf7482aa	-0.9551188
16	0x3fc04baa	1.5023091
17	0xbf82005f	-1.0156363
18	0xbf1bf6a7	-0.60923237
19	0xbdbbfd09	-0.09179122
20	0xbe102ae8	-0.14078867
21	0xbed4c820	-0.41558933
22	0xbf20dfa1	-0.6284123
23	0x3e0ebab2	0.13938406
24	0x3f8ab6c7	1.0837029
25	0x3fa7f832	1.3122618
26	0x3e762f51	0.24041487
27	0x3f6f1810	0.9339609
28	0x3e594779	0.21218671
29	0xbfb54e49	-1.4164516
30	0xbfb44c7d	-1.4085842
31	0x3f70b12f	0.9402036
32	0x3eddc071	0.43310884
33	0xbf0de1d9	-0.5542274
34	0xbe9c0a32	-0.30476528
35	0xbf56c2fa	-0.8389126
36	0xbf59c646	-0.85068166
37	0x3fb05526	1.3775985
38	0xbf06c571	-0.5264502
39	0xbf2c5d5c	-0.67329955
40	0x3f786290	0.97025394
41	0xbf792d57	-0.9733481
42	0x3f84e343	1.0381855
43	0xbf9b46bf	-1.2130965
44	0x3b6d674f	0.0036224907
45	0xbd92d712	-0.07169928
46	0x3fa9cb2f	1.3265132
47	0x3f261bb2	0.6488601
48	0xbe05019c	-0.12988895
49	0x3e3fb314	0.18720657
50	0xbf621654	-0.8831532
51	0x3f0869b4	0.5328629
52	0x3f287ea7	0.65818256
53	0x3f696a2a	0.9117762
54	0xbfe51aea	-1.7898839
55	0xbf7ea6ef	-0.9947347
56	0x3fdff1c5	1.7495657
57	0xbf4bbf6a	-0.7958895
58	0xbf9ec72c	-1.2404532
59	0x3fc15e9d	1.5106999
60	0x3f92a8ba	1.1457741
61	0xbea1cc7a	-0.31601316
62	0x3f996a8e	1.1985643
63	0x3f320ee3	0.69553965
64	0x3fa0a47b	1.2550195
65	0x3ffecb67	1.9905823
66	0x3ed5ac63	0.41733083
67	0x3e6a403f	0.2287607
68	0x3f42ff85	0.7617114
69	0xbf3c997b	-0.7367169
70	0xbd9040ce	-0.070436105
71	0x3f8c615a	1.0967209
72	0x3faf718c	1.3706527
73	0xbd87995c	-0.06621048
74	0x3effbfce	0.49951023
75	0xbf489271	-0.7834845
76	0xbfa8a744	-1.3176045
77	0x3e203c7c	0.15648073
78	0x3fd666c6	1.6750114
79	0x3f105c22	0.56390584
80	0xbfbac67d	-1.4591824
81	0x3fd1591d	1.635532
82	0xbdd1af6f	-0.102385394
83	0x3e094f6f	0.13409208
84	0x3f8e2e4b	1.1107877
85	0x3f928931	1.1448117
86	0x3f351795	0.7073911
87	0xbe37e356	-0.17957816
88	0xbf03cefc	-0.5148771
89	0xbf34015b	-0.7031457
90	0x3fac3a2c	1.3455253
91	0xbf87f13c	-1.0620494
92	0xbe4b90c9	-0.1987945
93	0xbf91ee87	-1.1400918
94	0x3f74ce69	0.95627457
95	0x3f9b6613	1.2140526
96	0xbf69ca0e	-0.91323936
97	0xbf7d2bac	-0.98894763
98	0xbf6cc655	-0.9249013
99	0x3f6f08a3	0.93372554
100	0x3f5ada88	0.854897
101	0x3f3a9e8f	0.7289819
102	0xbe1f6425	-0.15565546
103	0x3f94cc43	1.1624836
104	0x3f3837c2	0.7196008
105	0xbf74782b	-0.9549586
106	0x3fe623d8	1.7979689
107	0x3f155027	0.5832543
108	0x3f8339fb	1.0252069
109	0xbf0bcee0	-0.5461254
110	0x3fc3d239	1.529853
111	0x3fdec7a6	1.7404678
112	0xbf87deb5	-1.061484
113	0x3f473094	0.778085
114	0x3ece25cc	0.40263212
115	0xbe87e9b7	-0.26545498
116	0x3f915edc	1.1357074
117	0xbf0c9320	-0.54911995
118	0xbf146458	-0.5796561
119	0x3f8a4b76	1.0804279
120	0x3f33ac06	0.7018436
121	0xbf8293b0	-1.0201321
122	0xbf54f67c	-0.83188605
123	0x3eb05663	0.34440908
124	0x3fcd9ecd	1.6064087
125	0x3ddf4987	0.10902696
126	0xbf931e34	-1.1493592
127	0xbf6e8746	-0.9317516
128	0x3fafb441	1.3726884
129	0x3f8e41ae	1.1113794
130	0x3f693b25	0.9110587
131	0xbebd15c1	-0.3693066
132	0x3eddebb3	0.43343887
133	0xbe75290c	-0.2394144
134	0x3e72fd6f	0.2372949
135	0x3df3f7b9	0.11912484
136	0x3e8bcc40	0.27304268
137	0x3fd62011	1.6728536
138	0x3d952ef3	0.072843455
139	0x3e0755f5	0.13216384
140	0x3f0e495e	0.555807
141	0xbe9232fa	-0.28554517
142	0x3f3dc6bc	0.7413137
143	0x3ffd2a2c	1.9778495
144	0xbefb014e	-0.49024433
145	0xbf69cde1	-0.9132977
146	0xbe660af3	-0.22465114
147	0xbf4b7fd6	-0.7949194
148	0xbf130ca6	-0.57441175
149	0x3f65a65b	0.89706963
150	0x3f833c99	1.0252868
151	0xbf38db35	-0.72209483
152	0xbfb2b08e	-1.396013
153	0x3ed99069	0.4249299
154	0x3f4b8af4	0.795089
155	0x3f9bc2d7	1.2168835
156	0xbf74f44b	-0.9568526
157	0xbdc54d98	-0.096339405
158	0xbfa16a70	-1.2610607
159	0x3f024018	0.5087905
160	0x3f9c2d07	1.2201241
161	0xbf1caaf6	-0.61198366
162	0x3e0c4f3e	0.13702103
163	0xbf12e240	-0.5737648
164	0xbfa8ce62	-1.3187983
165	0x3ef86c5d	0.48520175
166	0x3fb1e2f8	1.389739
167	0x3fd174d1	1.6363775
168	0xba7268f7	-0.00092472084
169	0xbeec8869	-0.46197823
170	0xc001c20c	-2.0274687
171	0xbf21f14d	-0.6325882
172	0x3efb3f36	0.49071664
173	0xbf58dcc4	-0.8471186
174	0x3facdfc0	1.3505783
175	0xbf93f417	-1.1558865
176	0xc007abab	-2.1198528
177	0xbf6e4640	-0.93075943
178	0x3f92f6a6	1.1481521
179	0x3f426a5b	0.75943536
180	0x3f2524b5	0.64509135
181	0xbf333c03	-0.70013446
182	0x3fd4c850	1.662363
183	0xbf798fac	-0.9748485
184	0x3e5f04ad	0.21779127
185	0x3f11c6d5	0.5694402
186	0xbfb2c83c	-1.3967357
187	0xbf83f608	-1.0309458
188	0xbea26349	-0.31716374
189	0x3f094bb6	0.5363115
190	0xbe09d698	-0.13460767
191	0x3cb97eb7	0.02264343
192	0xbf1519b5	-0.5824235
193	0xbfa3c592	-1.2794669
194	0x3f3a8e67	0.7287354
195	0x3ee5e0b1	0.44897988
196	0x3eadc343	0.33938035
197	0xbfa04a72	-1.2522719
198	0x3ea9b064	0.33142388
199	0x3eb34f65	0.3502151
200	0x3e334295	0.17505868
201	0x3fbfc73e	1.4982679
202	0x3f9b51ea	1.2134373
203	0xbc69bd27	-0.014266289
204	0x3fa2e78d	1.2726914
205	0xbf2975d3	-0.6619541
206	0x3dd19048	0.102325976
207	0x3ec46e10	0.3836522
208	0x3f454607	0.7705998
209	0x3eb97ee4	0.36229622
210	0xbfb99cb7	-1.450095
211	0x3e557356	0.20844778
212	0x403efb4d	2.9840882
213	0x3f79675c	0.9742334
214	0x3f9d9239	1.2310249
215	0x3fccd0be	1.6001203
216	0x3d45fccf	0.0483368
217	0x3eff1941	0.49823955
218	0x3f7b0b3f	0.98064035
219	0xbe998fa0	-0.2999239
220	0x3faeb6a3	1.3649486
221	0x4000b19c	2.0108404
222	0xbfb4c5ec	-1.4122901
223	0x3fcff133	1.6245483
224	0x3f1b16b0	0.60581493
225	0xbe9b7b1e	-0.30367368
226	0xbfb07bb0	-1.3787746
227	0x3cd9480e	0.026523616
228	0x3ff1aa3b	1.8880075
229	0xbdcb08bd	-0.09913776
230	0xbf911615	-1.1334864
231	0x3fc1b0ec	1.5132117
232	0x3ed6ad8a	0.41929275
233	0xbff65c4b	-1.9246916
234	0x4037ecc3	2.8738258
235	0x3fbb5961	1.4636651
236	0xbe4f0b02	-0.20219043
237	0xbf9371fa	-1.1519158
238	0x3f33e482	0.7027055
239	0xbf7fa445	-0.9986003
240	0xbf229c7c	-0.63520026
241	0x3f1d7a4b	0.6151473
242	0xbf9d1317	-1.2271451
243	0xbf28236d	-0.65679055
244	0xbe168001	-0.14697267
245	0xbd6dd514	-0.058064535
246	0xbf1ffd63	-0.6249601
247	0x3fe22ec7	1.7670525
248	0xbf8ae04e	-1.0849702
249	0x3e91ff90	0.2851529
250	0x3ed1b46d	0.40957966
251	0xbf8b8827	-1.0900925
252	0x3f697cf4	0.9120629
253	0xbfa9470d	-1.3224808
254	0xbf949765	-1.1608702
255	0xbf977557	-1.1832684

l1.bias f4 [8]
0	0x3f9f09cc	1.2424865
1	0x3f7676fd	0.9627531
2	0x3f92f9ae	1.1482446
3	0x3f8c1a4f	1.0945529
4	0x3f9966d2	1.1984503
5	0x3f9e27d9	1.235591
6	0x3f47fe1b	0.7812211
7	0x3fa5d4b3	1.2955536

l2.weight f4 [8, 8]
0	0xbe1098ba	-0.1412076
1	0x3e8da8f3	0.2766796
2	0xbe6ac570	-0.22926879
3	0x3e5bf948	0.21481812
4	0x3e9fd4f5	0.3121716
5	0xbeb7c625	-0.3589336
6	0xbeea3356	-0.4574229
7	0x3f6b1c1a	0.91839755
8	0xbfbb319c	-1.4624515
9	0xbfac07a6	-1.3439834
10	0x3f729c58	0.9476981
11	0x3f4532a2	0.77030385
12	0x401dc73a	2.4652848
13	0x3fcc965a	1.5983384
14	0xbfc62a14	-1.5481591
15	0x401bc25e	2.4337382
16	0x406e513c	3.7237082
17	0x3f917140	1.1362686
18	0xbf96ad59	-1.1771652
19	0x3efd8a54	0.49519598
20	0x3e716850	0.23574948
21	0x4012be59	2.292868
22	0xc023c5ee	-2.5589557
23	0xbdb7d38d	-0.08975897
24	0xbfb5ebdc	-1.4212604
25	0x3ffc59e3	1.9714931
26	0x404d5221	3.2081378
27	0x408876e5	4.2645135
28	0x40394f1e	2.895454
29	0x3ddffdb8	0.10937065
30	0x40832e22	4.0993814
31	0xbeaaa280	-0.33327103
32	0xbd8dfc36	-0.06932871
33	0x4043c7c1	3.059067
34	0x3fc57ba8	1.5428362
35	0x3f28b598	0.6590209
36	0xc0330dab	-2.7977092
37	0x3e891299	0.26772
38	0xbc8c582a	-0.017131884
39	0x3fe1662e	1.7609308
40	0x4077dd9a	3.8729005
41	0xbf33381d	-0.700075
42	0x40240b3e	2.5631862
43	0xc0424a75	-3.0357945
44	0x3f70d918	0.9408126
45	0xbfd12dc3	-1.634209
46	0x3f8f2aa1	1.1184884
47	0x403b8013	2.929692
48	0xbd31aab6	-0.043375693
49	0xc0281814	-2.6264696
50	0x4016bb27	2.3551729
51	0x3f8658a5	1.0495802
52	0xbfcc51e2	-1.5962489
53	0x401da15c	2.4629736
54	0x3f02177d	0.5081709
55	0x3fc3a582	1.5284884
56	0xbe2f68d1	-0.17129828
57	0x3f99a6f0	1.200407
58	0xc0480b0b	-3.125674
59	0xc0167a7d	-2.351226
60	0xbf792a14	-0.9732983
61	0x404f2c84	3.237092
62	0x402b2cb1	2.6746027
63	0x3fb1a04c	1.3877044

l2.bias f4 [8]
0	0xbf033571	-0.5125342
1	0x3f3fdec3	0.7494928
2	0x40096ffc	2.14746
3	0x3f200cd4	0.62519574
4	0xbe168449	-0.146989
5	0x3f718d0e	0.9435586
6	0xbf78fef1	-0.9726401
7	0x3f824cfd	1.0179745

l3.weight f4 [205, 8]
0	0xbe08c403	-0.13356023
1	0x3f41496d	0.75502664
2	0xbc8e836b	-0.01739665
3	0xbe5409a1	-0.20706798
4	0xbfd9f03f	-1.7026442
5	0xc0852973	-4.1613097
6	0x3ecb75d0	0.3973832
7	0xbf3fbf7b	-0.7490155
8	0xbf8b6ff3	-1.0893539
9	0x3d83b8b4	0.06431714
10	0xc0028dd1	-2.0399058
11	0xbeb9111b	-0.36145863
12	0xbf1f6ee5	-0.62278587
13	0xbe589bb5	-0.21153148
14	0x3eb4a1d0	0.35279703
15	0x3ea5e92c	0.3240446
16	0xbedbaec2	-0.42906767
17	0xbe93dc1b	-0.28878865
18	0xbfef2606	-1.8683479
19	0x3e9e9683	0.30974206
20	0xbeb239cb	-0.34809718
21	0xc003800c	-2.0546904
22	0xbf9d5db6	-1.2294223
23	0x3f485492	0.78254044
24	0xbf8ee007	-1.1162118
25	0x3e055846	0.13021955
26	0xbf83515d	-1.0259205
27	0x3c247c65	0.010039424
28	0x3e0856ec	0.13314408
29	0xc00445a8	-2.0667515
30	0xbe0b3dfe	-0.13597867
31	0x3e0c65fa	0.13710776
32	0xbff971be	-1.9487836
33	0x3e37936d	0.17927332
34	0xbf90b4df	-1.1305197
35	0x3b2ac090	0.0026054718
36	0xbee376b0	-0.4442649
37	0xbf28bc49	-0.659123
38	0x3e9c38aa	0.3051198
39	0xbefe8ac1	-0.49715236
40	0xbf9e0990	-1.2346668
41	0xbf08cbbe	-0.53435886
42	0xbe90e9b1	-0.28303292
43	0xbda11a07	-0.078662924
44	0x3e393939	0.18088235
45	0xc0a58028	-5.171894
46	0x3ebec342	0.37258345
47	0xbdbb45ad	-0.09144149
48	0xbeb1c9f2	-0.34724385
49	0xbfeac0e8	-1.834012
50	0x3ef7e3a8	0.48415875
51	0x3ebf4e28	0.37364316
52	0x3e9c786d	0.30560628
53	0xc00749bf	-2.113876
54	0xc0a45e0c	-5.1364803
55	0xbf21d4c9	-0.6321531
56	0xbf01ee8b	-0.5075461
57	0xbf85d9e4	-1.045712
58	0xbf6e0d43	-0.92988986
59	0x3f0c30e9	0.5476213
60	0x3ebc4281	0.36769488
61	0xc09a9ea2	-4.8318644
62	0xbfb3ecc9	-1.4056636
63	0xbde50732	-0.11183013
64	0xbf9fc9e7	-1.2483491
65	0xbe9a1c25	-0.30099598
66	0xbf8cae1f	-1.0990638
67	0x3ed112a1	0.40834525
68	0xbf0f860b	-0.5606391
69	0xbf4ef202	-0.80838025
70	0x3ec7edb6	0.39048547
71	0xc0442956	-3.065023
72	0xbf5ac4a8	-0.85456324
73	0x3edaad72	0.42710453
74	0xbdaffd99	-0.08593292
75	0xbeee707b	-0.4657019
76	0xbef6fdc9	-0.48240498
77	0xbf31dec5	-0.69480544
78	0x3f4dca66	0.8038696
79	0xc066f668	-3.6087894
80	0xbf5422d0	-0.8286562
81	0xc035ec4b	-2.8425472
82	0xbf7f1eff	-0.9965667
83	0x3d904727	0.07044821
84	0x3d9bf3a4	0.0761483
85	0xbf0f0a9a	-0.5587555
86	0xbf743629	-0.9539514
87	0x3f366b64	0.71257615
88	0x3aac096f	0.001312537
89	0x3e22e977	0.15909372
90	0xc01b508a	-2.4267907
91	0x3f447799	0.7674499
92	0xbf168635	-0.58798534
93	0xbe943c2d	-0.2895216
94	0xc0a94951	-5.2901998
95	0xbf49a23f	-0.7876319
96	0xbf96a49e	-1.1768987
97	0xc0077592	-2.116551
98	0x3cbcb665	0.023036191
99	0x3ebb2ce0	0.36557674
100	0xbf1c7409	-0.61114556
101	0xc08aaac3	-4.333345
102	0xbfb8c42b	-1.4434866
103	0x3f1d0bc3	0.6134607
104	0xbefbcaa7	-0.4917805
105	0xbfb5fdb1	-1.4218045
106	0xbf00f7d3	-0.5037815
107	0xbe5ed7a0	-0.21761942
108	0x3ec5acf3	0.38608512
109	0xc001a0ec	-2.025447
110	0xbeb4232b	-0.3518308
111	0x3f3fa00f	0.74853605
112	0x3e1e77f5	0.15475447
113	0x3e1c67e7	0.1527401
114	0xc04b4d63	-3.1765983
115	0x3f7cd421	0.98761183
116	0xbee0b238	-0.4388597
117	0xbffe4486	-1.9864662
118	0xc0539893	-3.3061874
119	0xc05e762d	-3.4759629
120	0xbe0fed9d	-0.14055486
121	0x3f30fec4	0.6913874
122	0xbff7ea84	-1.9368443
123	0x3f1bf2e0	0.6091747
124	0x3c6a70ea	0.014309147
125	0xc0598795	-3.3989003
126	0xc008a9c0	-2.1353607
127	0xbf432ab8	-0.7623706
128	0xbde1c0ac	-0.11023077
129	0x3e869bde	0.26290792
130	0xbf21c157	-0.6318564
131	0x3ee33c3a	0.44381887
132	0xbdaa6b81	-0.08321286
133	0xbf00ec8c	-0.5036094
134	0xbfb1beff	-1.3886412
135	0xc012f81a	-2.296393
136	0x3e3d36cd	0.18477936
137	0xc0593ac0	-3.3942108
138	0xbf561607	-0.8362736
139	0x3e615d53	0.22008257
140	0x3f242a20	0.6412678
141	0xbf0152a2	-0.5051671
142	0xc031260a	-2.7679467
143	0x3d92cbff	0.071678154
144	0xbddb9c33	-0.10723152
145	0xc06fe22c	-3.7481794
146	0xbeda2f50	-0.42614222
147	0xbf965428	-1.1744432
148	0x3f372163	0.7153532
149	0x3f2f7c8f	0.68549436
150	0xc05759f4	-3.3648653
151	0x3e68f335	0.22749026
152	0x3e090fa2	0.1338487
153	0xc0243966	-2.5660033
154	0x3ef53c2a	0.47897464
155	0xc0804b8c	-4.009222
156	0x3df23cb0	0.118279815
157	0x3f30c0d5	0.6904424
158	0xc078698f	-3.8814428
159	0x3e48530d	0.19562931
160	0xbe9aef19	-0.30260542
161	0x3dec0d4c	0.11525974
162	0xbe5ccbcd	-0.21562119
163	0x3f297a79	0.66202503
164	0x3cea0b04	0.028569706
165	0xbff24808	-1.8928232
166	0xc097a338	-4.738674
167	0xc07fe399	-3.9982665
168	0xbf5c2435	-0.8599275
169	0x3ef1783b	0.4716204
170	0xc0712cb7	-3.7683542
171	0x3e823aaf	0.25435397
172	0xbf5be2ee	-0.8589314
173	0xbf3970ce	-0.7243775
174	0x3f149707	0.5804295
175	0xc04854f5	-3.1301854
176	0xbf464bc1	-0.7745934
177	0xbffd6554	-1.9796548
178	0x3ec78949	0.38971928
179	0xbf318468	-0.6934266
180	0x3e0755ab	0.13216273
181	0xc031cd7c	-2.7781668
182	0xbfc7c6cb	-1.5607542
183	0x3f7c5153	0.9856159
184	0xbde04991	-0.10951532
185	0x3bbe8318	0.0058139674
186	0xbece2606	-0.40263385
187	0xbe74f106	-0.23920068
188	0x3e362c1f	0.17790268
189	0xc0876960	-4.231613
190	0xbf9ebcc5	-1.2401358
191	0x3f39b5a5	0.7254279
192	0xbf0092bb	-0.5022389
193	0x3dc10e6c	0.09426579
194	0x3ea9aa2a	0.33137637
195	0xbf51ba3d	-0.819248
196	0xbf971247	-1.1802453
197	0xbe9f6a56	-0.31135815
198	0xbebeee41	-0.37291148
199	0x3ea9a3df	0.33132836
200	0x3ddf7fc6	0.10913043
201	0x3eaed6f7	0.3414838
202	0xc01a985b	-2.415549
203	0x3db8d717	0.090254
204	0x3ecd3aa4	0.40083802
205	0xbf0fee00	-0.56222534
206	0xbcea5b4d	-0.028607989
207	0xc0747211	-3.819462
208	0xbf860fb1	-1.0473539
209	0xbe884ea8	-0.2662251
210	0xbfc60bcb	-1.5472349
211	0xbe9dd1ca	-0.3082412
212	0x3ea8d22e	0.32972854
213	0xbe3913d4	-0.1807397
214	0x3e96a791	0.29424718
215	0xbf01de1c	-0.50729537
216	0xbf78de8e	-0.9721459
217	0xbf7b79ea	-0.982329
218	0xbff82917	-1.938754
219	0xbe7ebcad	-0.24876662
220	0x3f0ef2e0	0.5583935
221	0xbe97e31c	-0.29665458
222	0xbdcf5bcc	-0.10124931
223	0x3e123bfc	0.14280695
224	0xbecf2f05	-0.4046556
225	0xbe787e64	-0.24266964
226	0xc08571f3	-4.17016
227	0x3f1f2f5a	0.6218163
228	0xbe9823fb	-0.2971495
229	0xbeb21382	-0.34780508
230	0xbf1391d6	-0.57644403
231	0xc090912a	-4.51772
232	0x3e111aa7	0.14170323
233	0x3e826897	0.2547042
234	0xbf24ca55	-0.64371234
235	0xbd836b42	-0.06416942
236	0x3e9b79a5	0.30366245
237	0xbf942163	-1.1572689
238	0xbf7d9bea	-0.9906603
239	0x3dbf4dcc	0.093410105
240	0xbe9874ed	-0.29776707
241	0xbf84778d	-1.0348984
242	0xbfdf7ff1	-1.746092
243	0x3eebafea	0.4603265
244	0x3ef52736	0.47881478
245	0xbec2166d	-0.37907735
246	0xbf40f488	-0.75373125
247	0xc0229fde	-2.5410075
248	0xbe105fea	-0.14099088
249	0xbf669b49	-0.90080696
250	0xbf47e0a3	-0.78077143
251	0x3de8f50f	0.11374866
252	0x3f1edb35	0.62053233
253	0xbed5654c	-0.41678846
254	0xbf6f354e	-0.9344071
255	0xbf1f6324	-0.6226065

l3.bias f4 [205]
0	0xbf58a3f9	-0.846252
1	0xbeddd1fa	-0.43324262
2	0x3f0a53f1	0.54034334
3	0xbe2f0c82	-0.17094615
4	0xbe9a239c	-0.30105293
5	0xbec77f69	-0.38964394
6	0x3f6935e7	0.91097873
7	0xbe73e58e	-0.23818037
8	0xbe847315	-0.2586905
9	0xbf350596	-0.7071165
10	0xbe422584	-0.18959624
11	0x3eb2e8de	0.3494329
12	0x3f04ca62	0.5187131
13	0x3e2e98af	0.17050432
14	0x3db3547f	0.08756351
15	0x3e8e0f8b	0.27746233
16	0x3e01e3ce	0.12684557
17	0xbf298240	-0.6621437
18	0x3f13bc47	0.57709163
19	0x3f3d5db0	0.7397108
20	0x3f3b6f23	0.73216456
21	0xbee3b823	-0.44476423
22	0x3e847057	0.25866958
23	0xbf5181aa	-0.81838477
24	0x3e5db331	0.21650387
25	0xbda6ffbb	-0.081542455
26	0xbfb7fa4b	-1.4373258
27	0xbf101cc3	-0.56293887
28	0xbed040a2	-0.4067431
29	0xbf13f93b	-0.5780217
30	0xbe7261a4	-0.2367006
31	0x3eeb6c21	0.45980933
32	0xbf1bbcfd	-0.6083525
33	0xbfb3a8a5	-1.4035841
34	0xbf076185	-0.5288318
35	0xbf01ffe3	-0.5078108
36	0x3e42cad4	0.19022685
37	0x3f2290ad	0.6350201
38	0xbf5b2f77	-0.856193
39	0xbf474daa	-0.7785288
40	0x3f1fa758	0.6236472
41	0xbf0528a2	-0.52015126
42	0xbf5dc3fa	-0.8662716
43	0xbfacf242	-1.3511431
44	0xbf00c348	-0.50297976
45	0x3ee178bf	0.44037434
46	0xbf20b2c9	-0.62772804
47	0xbf4d18f6	-0.8011621
48	0xbff3168e	-1.8991258
49	0x3e58e4e8	0.21181071
50	0xbf49d06e	-0.78833663
51	0xbf1ae96f	-0.6051244
52	0xbf34b05f	-0.7058162
53	0xbee46349	-0.44607
54	0xbb8db525	-0.0043245726
55	0x3f464af0	0.77458096
56	0x3e72fb39	0.23728646
57	0x3e875139	0.26429155
58	0xbd47aca5	-0.04874863
59	0xbf0d1f50	-0.55125904
60	0xbe542789	-0.20718206
61	0xbf8fc8d2	-1.123316
62	0x3e2c4654	0.16823703
63	0xbf45feeb	-0.773421
64	0x3ebfebe6	0.37484664
65	0xbdd4c077	-0.10388272
66	0x3f6ffc1c	0.93744063
67	0xbf098a48	-0.53726625
68	0x3d1d9715	0.03847416
69	0x3db0d0d2	0.08633579
70	0x3f1501ba	0.5820576
71	0xbf281a4b	-0.6566512
72	0x3f56afc2	0.83861935
73	0xbcbb9a53	-0.022900736
74	0x3f28ebba	0.6598469
75	0x3dd85053	0.10562196
76	0xbf85c924	-1.0452008
77	0x3d704b9d	0.05866586
78	0xbfc62fd7	-1.548335
79	0x3cc5db88	0.024152532
80	0x3dbc5fa3	0.09197929
81	0x3ea22287	0.31666967
82	0x3d9d7a96	0.07689397
83	0xbf0b244b	-0.54352254
84	0x3e902db9	0.28159884
85	0x3d661d0d	0.05618005
86	0xbf22844a	-0.6348311
87	0xbf1c4d38	-0.61055326
88	0x3ea37c79	0.31930903
89	0xbe4b8fa9	-0.19879021
90	0xbea14e77	-0.31505176
91	0xbec03f23	-0.3754817
92	0xbf3249df	-0.6964397
93	0x3f852ff3	1.0405258
94	0x3d469336	0.048480235
95	0xbf01600a	-0.5053717
96	0x3f24197f	0.64101404
97	0xbe2d4ab6	-0.16923031
98	0xbf77df35	-0.9682496
99	0xbef28eb6	-0.47374505
100	0x3e491bd2	0.19639519
101	0xbee7d778	-0.45281577
102	0x3f14f2cb	0.5818297
103	0xbb5f696b	-0.0034089934
104	0x3e928174	0.2861439
105	0xbf7f4eff	-0.99729913
106	0x3ee98890	0.45612
107	0xbd6298a4	-0.05532135
108	0x3de55593	0.111979626
109	0xbe7631e7	-0.24042474
110	0xbf1198be	-0.5687369
111	0xbf440531	-0.7657042
112	0x3d8ca179	0.06866736
113	0x3f02b146	0.5105175
114	0x3f019975	0.5062478
115	0xbe5cdc7b	-0.21568482
116	0x3ec70779	0.3887289
117	0xbf2d36d0	-0.6766176
118	0xbfb38f6f	-1.4028147
119	0xbf8b3964	-1.0876889
120	0xbe87e6e8	-0.26543355
121	0xbec0e421	-0.3767405
122	0xbf0bff8d	-0.54686815
123	0x3f0d93c4	0.553036
124	0xbf28a0ff	-0.6587066
125	0xbf6ee7cd	-0.9332245
126	0xbec808b4	-0.3906914
127	0x3d41b530	0.047291934
128	0xbd947fd1	-0.072509415
129	0x3f8e1d7d	1.1102749
130	0xbeeb91a2	-0.46009547
131	0xbdbdd6ea	-0.09269507
132	0xbef3ac76	-0.47592515
133	0xbfb137c6	-1.3845146
134	0xbe87dd42	-0.26535994
135	0x3f51045f	0.81647295
136	0xbf5fd618	-0.87436056
137	0xbf01483b	-0.5050084
138	0xbe8a5fd3	-0.27026233
139	0x3e359457	0.17732368
140	0x3d7c05de	0.061529033
141	0xbe5459bf	-0.2073736
142	0x3f1f0e0e	0.6213082
143	0xbf9e621e	-1.2373693
144	0x3e758d3b	0.23979656
145	0x3ed96223	0.42457685
146	0xbf0717f3	-0.5277092
147	0xbf0094ea	-0.50227225
148	0xbf8d587c	-1.1042628
149	0x3df21f19	0.11822338
150	0xbeb88724	-0.36040604
151	0xbf467dae	-0.7753552
152	0xbe64aa44	-0.22330576
153	0xbf0f4b45	-0.5597423
154	0xbf3a35f5	-0.7273858
155	0xbed2c648	-0.41166902
156	0xbe1ebb15	-0.15501054
157	0xbf85f30c	-1.0464797
158	0xbeb542bc	-0.35402477
159	0xbe6569fe	-0.22403714
160	0x3e5d3bdd	0.21604867
161	0xbbf9bac1	-0.0076211398
162	0xbe5cdd08	-0.21568692
163	0xbe9a913c	-0.3018893
164	0x3db72b5e	0.089438185
165	0x3cf37d95	0.029722968
166	0xbeea331b	-0.45742115
167	0xbe15e63d	-0.1463861
168	0x3f2fda14	0.68692136
169	0x3e74b4cc	0.23897094
170	0xbf530ec0	-0.8244438
171	0xbf0a1452	-0.53937256
172	0xbe77e8e3	-0.24209933
173	0x3e9e2c54	0.30893195
174	0xbedda947	-0.4329321
175	0xbf482274	-0.7817757
176	0xbe70e643	-0.23525338
177	0x3d88f87e	0.06688021
178	0xbe241fdd	-0.1602778
179	0xbf10f9d8	-0.5663123
180	0xbf27e7d9	-0.65588146
181	0x3ec9d5d6	0.39420956
182	0xbe8f8522	-0.2803126
183	0xbeb7b607	-0.35881063
184	0xbe98cf0e	-0.2984547
185	0xbe7671da	-0.24066868
186	0xbf597032	-0.8493682
187	0xbee13472	-0.43985325
188	0x3d97cc1a	0.07411976
189	0x3f2292a9	0.63505036
190	0xbf374415	-0.7158826
191	0xbed795dd	-0.42106524
192	0xbf53089c	-0.8243501
193	0x3eb0e33f	0.34548375
194	0xbeb19ea6	-0.34691352
195	0xbebaae9c	-0.3646134
196	0xbfa38f91	-1.2778188
197	0x3f18355c	0.5945642
198	0x3f7e00c9	0.9921995
199	0x3f3d5d37	0.7397036
200	0xbeb7e25d	-0.3591489
201	0xbf27dfa0	-0.655756
202	0xbc820591	-0.015871795
203	0xbc1ea7a4	-0.009683523
204	0xbea83a83	-0.3285714
