Backed_Draft_01/data.pth (torch, 16234 bytes, 6 tensors)

l1.weight f4 [8, 178]
00000000: e9f1 433f c8de 143f 4ac9 103f 903c bfbe
00000010: a424 14bf ea6b 52bc 58e4 a3be 78e0 21bf
00000020: c103 683e bb96 063e 4b87 9abe 8aab 0bbf
00000030: 8dda 8d3f 0136 8cbf 50e6 88be 09a4 803e
00000040: 3b88 71be 3a97 a4be e7a3 73be 452e 2d3f
00000050: b848 32be 97d5 323f f9cd bc3e 61cc cebd
00000060: 3928 2fbd f9e0 26be e694 133e 3341 f73d
00000070: fc8f 1e3f 1b8e e13e 9fc6 963e 926d 3fbe
00000080: 04ad 40bf db65 35be 96ed 08bf 4fa2 6b3f
00000090: 71f7 0c3f e4d5 76be b2ca f0bd 4ef9 ccbd
000000a0: c3f5 dfbe 9fa6 f53e 97a4 f0bd 0a83 c73e
000000b0: 376e 5bbe c246 c0be 53aa 133f 3f33 bcbe
000000c0: 4212 09be ed99 663f 9e9f a8bb eaa1 16bf
000000d0: 365c c1be 78eb 22be 01da 8b3d dfc7 35bf
000000e0: 5c68 3e3f 5906 c1be b7aa 13bf 51ed 68bd
000000f0: 7734 b93e be45 053f 359a 2f3f f450 c4be
00000100: 11f8 0f3f e8bd 773e 53c5 223f c863 0abd
00000110: c2cd 113f e5f1 89be 6826 e13e c15f f43e
00000120: 0e1b b7bc 01bd 093f 7085 1a3f b197 eebe
00000130: 7661 273f 1139 f6be f626 efbe cdb0 c7be
00000140: b1be 63be 110f 0abf 22eb 34bf 23b6 2dbe
00000150: eb79 06bf 7792 bb3e 507b 29bf 3cce 67bf
00000160: 41d9 223f ead7 26bf 43a8 a93c 3a0f 243f
00000170: b1a0 ae3c f318 d83d 1dd2 9bbf 4aea 043e
00000180: d58d 0b3e 50cc 1fbc 4897 313f 79fa de3e
00000190: 954a b13e 36d6 333e fcec 553f 87cc 363e
000001a0: 9a9c c33c 308a fc3e 813b f83e 3d1e 1bbf
000001b0: 633c a53e 163b 19bf 9d95 a83e 0ef4 d1be
000001c0: c5a2 25bf 5eae aabd 9bf8 193f cd53 e4be
000001d0: d7c4 1cbf d6ab 7abf 7437 b83e 38e4 db3d
000001e0: 8509 1abf 6b5d 30bb 73d0 21bf e303 45bf
000001f0: be7e 23bf 469e 20bf f4d7 d5be ddcd 93be
00000200: 8dee 32be 59d9 053f aa40 26bf ac15 5b3f
00000210: 92d3 13bb ecf4 513f 0efa cd3e 584f bcbe
00000220: cc6d 12bf 2f23 513f c5b9 953b 126c 66be
00000230: 37b8 033c 9134 fcbd a15e d33d 42d2 d9be
00000240: c627 2c3f abc5 e93d 53a3 e93e 2257 463f
00000250: c769 823e 5262 bb3e 5f94 0b3f ac05 50bc
00000260: 2e6e 9dbe 51fc 8d3e 3a52 cbbe 76f2 c4bf
00000270: 0495 42bf b9a6 b93e 69cf b73f e22f 343f
00000280: cc72 c33c a967 97be 259d 78be 3740 c0be
00000290: b9e9 5c3f 7a7a 3c3f b9f7 a83d 293f 473f
000002a0: 1da8 0fbf 7088 debe 201d 773f fa49 b43e
000002b0: bb38 47bd 12c0 cc3e 4d93 dfbb 24d7 2d3f
000002c0: baf3 f73e d70b ec3c 598b 563f acb9 cb3e
000002d0: 2573 d23e a9a8 efbe 8956 cbbe 93d1 323d
000002e0: fd6f abbe 0775 2abf 1ddf 3a3e 7747 0cbd
000002f0: fb2d 85be f796 edbe abf9 9d3f 94b6 73bf
00000300: ab4b b0be 57b8 233e b0f8 89be d98a b6be
00000310: e038 91be bfc4 793f 6839 e2bd 3fec 8a3f
00000320: cead 223f e970 413d 35cd 57bd 9480 c2be
00000330: 77f1 1bbe c52e e23b d6bc 653f a216 a6be
00000340: 6d39 8e3e 5016 1fbd e56c 25bf a986 6dbe
00000350: b4f7 01bf d49d 763f a0a5 cc3e 4545 60be
00000360: 6a15 ffbc 0771 16bc ae32 f0be 46e2 c93e
00000370: bf9f 2fbf 944a b93e 508f 6cbe 0bad 99be
00000380: 0157 0a3e 57fe 8dbe 28f8 9c3d 2d74 793f
00000390: be09 56bc 55d4 38bf f17a f5be 0caa 13be
000003a0: 3af7 40bc c254 31bf 9327 1f3f d83e 0bbf
000003b0: ce11 28bf 1656 d83c 7f77 873e 09de 013f
000003c0: 3f8a 2a3f 07e0 03bf fbd7 1a3f 32af 8f3e
000003d0: b382 513f a42e 9fbd 1c59 f93e ae92 9abe
000003e0: dc6c 95bd 63b0 e13e 76a9 b83d b271 bf3e
000003f0: 3801 273f 1249 14bf 5d17 3c3f 5622 07bf
0.76541 0.5815244 0.5655714 -0.37350893 -0.5786841 -0.0128431115 -0.3201015 -0.6323314
0.22657682 0.13143437 -0.30181345 -0.5455862 1.1082321 -1.0953981 -0.26738214 0.2512515
-0.23587124 -0.32146627 -0.23792993 0.67648727 -0.17410553 0.6985716 0.36875895 -0.10097576
-0.04276297 -0.16296758 0.14412269 0.12072983 0.6193845 0.4405373 0.2944841 -0.18694142
-0.75264 -0.17714636 -0.5348753 0.9204454 0.55065066 -0.2410503 -0.11757411 -0.100084886
-0.4374219 0.47978684 -0.11750143 0.38967162 -0.21428762 -0.37553984 0.5768177 -0.36757848
-0.13385871 0.9007862 -0.005145981 -0.5884081 -0.37765664 -0.15910137 0.0682869 -0.71008104
0.7437799 -0.37700155 -0.57682365 -0.056866948 0.3617284 0.52059543 0.68594676 -0.38343012
0.56237894 0.24193537 0.6358234 -0.033786565 0.56954587 -0.26942363 0.43974614 0.47729304
-0.022351768 0.5380402 0.6035986 -0.46600106 0.6538309 -0.48090413 -0.46709412 -0.39002076
-0.22240712 -0.5392924 -0.70671284 -0.16964011 -0.5252978 0.3663518 -0.66203785 -0.90549064
0.63612753 -0.6517321 0.020710116 0.64085734 0.021316858 0.10551634 -1.2173496 0.12979999
0.13628323 -0.009753302 0.6937146 0.4355047 0.34627214 0.17562184 0.83564734 0.17851458
0.023878384 0.4932418 0.48482898 -0.60593015 0.32272634 -0.59855783 0.32926646 -0.4100651
-0.6470149 -0.08334039 0.60144967 -0.44595185 -0.61237854 -0.9791845 0.35979807 0.10736889
-0.60170776 -0.002691115 -0.63208693 -0.76959056 -0.6386527 -0.62741506 -0.41766322 -0.28868
-0.17473812 0.5228477 -0.6494242 0.85579944 -0.0022556526 0.82014346 0.4022984 -0.36779284
-0.57198787 0.8169431 0.0045692646 -0.22502163 0.008039526 -0.12314714 0.103207834 -0.42543226
0.6724819 0.11414655 0.4563242 0.77476704 0.25471327 0.3659845 0.5452327 -0.012696665
-0.30748123 0.27731565 -0.3971117 -1.5386493 -0.7600863 0.36260012 1.4360172 0.70385563
0.02385845 -0.29571274 -0.24278696 -0.37548992 0.8629413 0.73624384 0.08250374 0.7783075
-0.56115896 -0.4346347 0.96528816 0.3521269 -0.048638087 0.39990288 -0.0068229795 0.67906404
0.48428136 0.02881424 0.8380638 0.39790094 0.41103473 -0.46808365 -0.3971446 0.043656897
-0.33483878 -0.6658482 0.18249173 -0.03424784 -0.26011643 -0.4640424 1.2341818 -0.9520047
-0.3443273 0.15988289 -0.26947546 -0.35652807 -0.28363705 0.97565836 -0.110461056 1.0853347
0.63546455 0.04722682 -0.052685935 -0.37988722 -0.1522883 0.006902548 0.89741266 -0.32439142
0.27778187 -0.03883964 -0.64619285 -0.231959 -0.5076859 0.96334577 0.39970112 -0.21901424
-0.03113814 -0.009182221 -0.46913666 0.39430445 -0.6860313 0.3618971 -0.23101544 -0.30014834
0.13509752 -0.27733108 0.076645195 0.97442895 -0.013063846 -0.7219899 -0.4794536 -0.14420336
-0.011777693 -0.69269955 0.6216976 -0.54392767 -0.6565217 0.026408236 0.26458356 0.50729424
0.66617197 -0.51513714 0.6048581 0.2806335 0.81840056 -0.07772568 0.48700798 -0.30190033
-0.07296154 0.44079885 0.09016697 0.3739143 0.65236235 -0.57923996 0.7347315 -0.5278677

l1.bias f4 [8]
00000000: e289 533f cf4a 143f e7d7 2e3f d4cf 833f
00000010: dad0 0e3f c0e9 453f 9d53 843f adb6 ad3f
0.8263227 0.5792665 0.6829819 1.0297799 0.5578743 0.773098 1.0338017 1.3571373

l2.weight f4 [8, 8]
00000000: 0211 0340 c90f d73f 99d5 9b3f 84d2 aebf
00000010: 57a1 0a40 f94c 833f 76b6 09bf d435 943f
00000020: 2f09 813f d395 863f caeb 803f 604c 3f3f
00000030: 07d7 8ebe ef48 93bf 8343 b73f d690 80bf
00000040: f4fd babe 4784 b3be de53 8d3f 47c7 733f
00000050: d56b bdbf 4b39 1340 2119 9dbe 0a4b 05bd
00000060: 4fca c5be d62d 27bf 05b1 2abe 6fc2 2e3f
00000070: 35a7 ff3e e950 0940 78b2 ab3f 502c 10be
00000080: ce58 a7be d369 983e 258b 07be 94e8 e73d
00000090: 7b7f 94be ddd6 97be cc75 8cbe 28b4 d2bd
000000a0: 9aac b63f a497 b43f af79 5bbf 0e1a 8d3f
000000b0: 1acf 92bf 1309 063d 4b3d 903f cbe4 393f
000000c0: cfc5 44bf 1730 96bf 193b b23f 5030 f03f
000000d0: f002 09bf c1cd c9bf fe71 62be 7135 0740
000000e0: d85b 213e 42ad 93be 2aec a5bf 0f9d 083e
000000f0: 8225 8d3e 8a1f bc3c 874c 843e ae90 c03f
2.047913 1.6801692 1.217456 -1.3657994 2.1660974 1.0257865 -0.5379404 1.1578927
1.0080928 1.0514473 1.0071957 0.74725914 -0.27898428 -1.1506633 1.4317478 -1.00442
-0.36521876 -0.35061857 1.1041219 0.9522595 -1.4798533 2.300372 -0.30683234 -0.032542266
-0.38630912 -0.65304315 -0.1666909 0.6826543 0.49932256 2.1455634 1.3413839 -0.14079404
-0.3268494 0.29768237 -0.13236673 0.11323658 -0.2900351 -0.29656115 -0.27433622 -0.10288268
1.4271424 1.4108777 -0.8573255 1.1023576 -1.1469452 0.032723498 1.1268705 0.72614735
-0.7686433 -1.1733426 1.3924285 1.8764744 -0.5352011 -1.5765916 -0.22113797 2.1126368
0.15757692 -0.28843123 -1.2962697 0.13341163 0.2756768 0.022964258 0.25839636 1.5044153

l2.bias f4 [8]
00000000: 24da 7e3e 4efe 39be c9f9 a7be b8c9 da3e
00000010: c761 2dbe bedf 143f eac3 323f 983e 433f
0.24887902 -0.18163416 -0.32807758 0.42732024 -0.1693183 0.58153903 0.6983019 0.76267385

l3.weight f4 [44, 8]
00000000: bb37 8b3b 38c7 b8bf cf75 e2be ab8b 99bd
00000010: 6c40 92bd c714 9abe f7e0 b0bf e563 d6bf
00000020: 90a8 eebe 2bd2 b0bc 4468 babe d7ac 96bf
00000030: eb82 aabe 1296 4a3e 7344 ddbe 5a4b 4dc0
00000040: 87bb 003e 73ef b4bd 10f0 97bf 3da3 ecbe
00000050: 0470 823d 227e 49be 68aa 18c0 401a 03c0
00000060: 2577 9abf ce30 973e a20b 8abe f641 cd3d
00000070: 9a65 5d3e d6a3 82bf 6dd0 cc3d afcd 41c0
00000080: 005f 7e3d 4a5a bcbf 03e4 7bbf d0b9 06bf
00000090: cd38 35be 3936 7abf d6d1 33be 39b9 78be
000000a0: a4c6 593e a670 2db9 236b 27c0 b9e1 12bf
000000b0: 18e6 58bd f7ae 95be 9eb8 8ebf 09cd 14c0
000000c0: bc9a 103e 061c ce3d 0532 88bf 88de 6ec0
000000d0: 12b8 3d3e 3985 98bf 6205 463d 2d76 4dc0
000000e0: e4e6 073f e659 fbbe e793 2ec0 9daa 29c0
000000f0: 570d 8d3e a2eb 7ebe a37d 9bbf b86c 14c0
00000100: 1b35 5e3e 57c3 a3bf dc92 f3be dc66 0fc0
00000110: f8f7 ed3d 090d b7bf 4318 603e 84ae 1bc0
00000120: 3592 153e 3fac 07c0 7aa3 debf 5302 ebbf
00000130: 8081 33bc 829f c7bf 720e d93e 85e0 233f
00000140: 003f 003f f15a 01c0 eb85 8cbf 55b5 0ebf
00000150: 3065 a6bc c772 fabf 29a2 6ebf 6054 c8bf
00000160: 0d3b 713d 5115 a2be aef4 8bbf cc37 7cbf
00000170: e032 503c 6be8 6fbe 9e8f 88be 90cf 78c0
00000180: 9c44 62bf 0b2c 92be fb1d 733d fe79 f6bf
00000190: 08f3 88be 5b58 80be 30c7 133f eda0 3cc0
000001a0: 302b 82be 7366 6fbe 366b 84bf 0e43 4ac0
000001b0: d027 1abd f34e c9bd 67eb 573e 649d 76be
000001c0: c851 b13e 9270 78bf 284e 88bf 958b cfbf
000001d0: 83fa 7fbe 0e14 04bf 4247 40bf 081b e7be
000001e0: 39c5 8abe b8c7 04be 047e 14bd 9085 9dbf
000001f0: 5032 cbbc 1e37 68bf 6da9 aabb 1aa0 6ec0
00000200: a525 b53e 5d3a fbbe 1fe8 26c0 8e0b adbf
00000210: 83e8 75be 80b6 26c0 47f3 293e 7cff f3bf
00000220: da19 983e b533 d13e b438 15c0 775d febf
00000230: 88b5 1c3d a959 bcbe 4b64 1ec0 97f2 03c0
00000240: f835 4fbe e6ac 983e 19a6 c7be 6203 1dbf
00000250: b866 6ebe 8804 12bf 2669 92bf 5a95 b5bf
00000260: b6bb 00be 7ee0 1fc0 e6a6 6abe 96f1 a5bf
00000270: 0a96 7b3e c373 0ac0 78eb e73e f9f8 49bf
00000280: e293 7bbe c959 713e 13a8 3bc0 3241 97bf
00000290: bb6e 873e bf54 313d 3fb9 debd 2a24 a8bf
000002a0: 470b e33e b90e 07bf 2ba2 d0bf d3ce a8bf
000002b0: 7a10 8ebe 62ff 8abd f6bd 20c0 0c10 27bf
000002c0: a7c1 bbbe cf55 1fbf aa0e afbe d4af 87be
000002d0: 7456 07be f1ed 1ac0 6fa3 613e 568d 17c0
000002e0: 88c2 53bf 9656 11bf bb65 8a3e 41a1 26bf
000002f0: 23b7 983e 2e0e 05bf 0843 ea3d 7814 5bc0
00000300: ec80 763e 688b f5be f1d3 3bc0 86e7 1cc0
00000310: 804d 44bc 7b6c d6be 029d aabe 9f64 7e3e
00000320: 5c5e 0dbf 66e3 e0bf eae1 cd3c 5484 b8bf
00000330: ae89 083e e982 fbbe daf6 003f 747c 1ebf
00000340: f9d4 8bbe b9a9 10be 5b03 98bf 2d76 cabf
00000350: a0a4 15be 2244 50bf afca 123f 85c8 2bc0
00000360: 85e0 2bbf cef4 d0bf 46c0 d03e 8bed 3abf
00000370: c846 8cbe aac3 e5bf 6df3 093f 269e 45c0
00000380: 9ffb d13d 2eed 733e 7d43 13c0 9e82 27c0
00000390: 1348 843e cb63 523e 0c1a 8dbf 7e52 15c0
000003a0: c8b3 d13e 479e 65be f687 70bf a746 7ebf
000003b0: ccad efbd e95a 95bf 5c16 d8bf 5dd1 2ec0
000003c0: dbea 09c0 2cc1 2f3e e0d8 8fbe 29fd 2f3e
000003d0: cd9a 26be 85c3 2dbe 323e 04bf ddd5 b4bf
000003e0: cb37 a6bf 5df4 da3e 1b79 1cc0 3d46 b13e
000003f0: dd78 8b3e 573f de3c 67f9 aabf ad89 8bbf
0.004248587 -1.4435797 -0.44230506 -0.07497343 -0.07141194 -0.30093977 -1.3818654 -1.6749235
-0.46612978 -0.02158459 -0.36407673 -1.1771497 -0.33303007 0.1978381 -0.43216285 -3.207724
0.12571536 -0.08834734 -1.1870136 -0.4621829 0.063690215 -0.19677022 -2.3854008 -2.0484772
-1.206761 0.29529423 -0.26962 0.10022347 0.21620789 -1.0206249 0.100006916 -3.028179
0.062102318 -1.4715054 -0.98394793 -0.5262728 -0.17697449 -0.9773899 -0.17560515 -0.24289407
0.21267182 -0.0001654053 -2.615914 -0.57375675 -0.05295381 -0.2923505 -1.1150091 -2.3250144
0.14121526 0.10063939 -1.0640265 -3.7323322 0.18527249 -1.1915656 0.048344977 -3.2103379
0.53086686 -0.49092025 -2.7277772 -2.6510384 0.2754924 -0.24894574 -1.2147716 -2.3191357
0.21699946 -1.2793988 -0.47572982 -2.240653 0.11619562 -1.4300853 0.21884255 -2.4325266
0.14606555 -2.119888 -1.7393639 -1.8360084 -0.010956168 -1.5595553 0.42393833 0.64014465
0.5009613 -2.0211756 -1.0978369 -0.5574544 -0.020311922 -1.9566277 -0.93216187 -1.5650749
0.058894206 -0.31656888 -1.0934045 -0.9852264 0.012707442 -0.23428504 -0.2667207 -3.8876686
-0.8838594 -0.28549227 0.059354763 -1.9255979 -0.26747918 -0.2506741 0.5772581 -2.9473221
-0.25423574 -0.23378925 -1.0345218 -3.1603427 -0.037635624 -0.098295115 0.21085893 -0.24083477
0.34632707 -0.9704677 -1.0648851 -1.6214472 -0.24997906 -0.515931 -0.7510873 -0.4513781
-0.27103594 -0.12966812 -0.03625299 -1.2306385 -0.024804264 -0.907091 -0.0052081854 -3.7285218
0.35380283 -0.49067965 -2.6079175 -1.3519151 -0.24014477 -2.604889 0.16596709 -1.9062343
0.29707223 0.40859762 -2.331586 -1.9872273 0.03825906 -0.36787155 -2.4748714 -2.0616815
-0.20235431 0.2981941 -0.3899391 -0.61333287 -0.23281372 -0.57038164 -1.1438339 -1.4186203
-0.12571606 -2.498077 -0.22915229 -1.2964351 0.24568954 -2.1633155 0.45296836 -0.7889553
-0.24568132 0.23569407 -2.9321334 -1.1816771 0.26451668 0.04329371 -0.10875177 -1.3136036
0.4434454 -0.5275684 -1.629949 -1.3188118 -0.27746946 -0.06786992 -2.5115943 -0.6525886
-0.36671183 -0.6224031 -0.34190875 -0.26501334 -0.13216573 -2.4207728 0.22035001 -2.3680015
-0.82718706 -0.56772745 0.2703074 -0.65089804 0.29827222 -0.5197476 0.114385664 -3.4231243
0.24072617 -0.4795792 -2.9348109 -2.451631 -0.011981368 -0.4187964 -0.33322912 0.24843071
-0.55222106 -1.7569396 0.025132138 -1.4415383 0.1333377 -0.49123314 0.50376666 -0.6190865
-0.27310923 -0.14127244 -1.1876024 -1.5817314 -0.1461358 -0.8135396 0.5734052 -2.6841137
-0.67139465 -1.6324708 0.40771693 -0.7301871 -0.27397752 -1.7950337 0.53887063 -3.0877776
0.10253071 0.23820946 -2.3009942 -2.6173472 0.25836238 0.2054588 -1.1023574 -2.33316
0.40957475 -0.2242366 -0.9395746 -0.99326557 -0.11703071 -1.1668369 -1.6881824 -2.7315285
-2.1549594 0.17163533 -0.2809515 0.17186417 -0.1626999 -0.16969116 -0.516574 -1.4127766
-1.2985777 0.4276456 -2.4448917 0.346239 0.2724065 0.027129812 -1.3357362 -1.090139

l3.bias f4 [44]
00000000: 8b7d 623e ee3e 2fbe 345d e8be a2f2 5abe
00000010: f99e 5dbd d382 2b3c cdee 013e b7b4 653e
00000020: bd69 f93b b38f c2bd 7042 a83e 0c14 73be
00000030: 44b9 cfbe 451e ae3d df83 dd3d ab17 bdbb
00000040: ed44 b6be 1aba 353e 00bd 2abe 6ea9 63bc
00000050: 23da a13d acdb afbe 3fc5 0fbd d442 07bf
00000060: 84db 91bb e384 a6be 2349 86be f45d bfbe
00000070: 6054 a2be a71e 12be 4015 c13d a8c6 603d
00000080: 63ad 8fbe 2493 ffbe 6084 c1be 7085 e3be
00000090: a904 d1be 5bb1 ec3e 9dc5 e13e f0e0 cb3e
000000a0: 4dcd 073f e426 c03e be01 ac3e 9295 993e
0.22118203 -0.1711385 -0.45383608 -0.2138162 -0.054106686 0.010468203 0.12688752 0.22432218
0.007611482 -0.09500065 0.32863188 -0.23738116 -0.40571034 0.08501867 0.10816168 -0.0057706437
-0.3559946 0.17746773 -0.1667366 -0.013895376 0.079029344 -0.34347284 -0.035100218 -0.52836347
-0.004451217 -0.3252326 -0.26227674 -0.37376368 -0.31704998 -0.14269505 0.09427881 0.054876953
-0.2806197 -0.49916947 -0.37796307 -0.44437742 -0.40823868 0.4622906 0.4409608 0.3982005
0.5304764 0.3752967 0.3359508 0.29996926
