Backed_Draft_01/data.pth (torch, 22698 bytes, 6 tensors)

l1.weight f4 [8, 336]
00000000: 489c d23f ae90 263f 039c 4abf fd1a d43f
00000010: de34 0b3f c611 04bf dc6e a0bb edd7 543d
00000020: de31 733d b84f 403c 56d7 933f b196 98bd
00000030: 4061 283e 0416 683e ecac c93d 49c6 433e
00000040: ea70 453e f691 58bf 6b80 42be afd7 7c3f
00000050: 77a8 02bf 0cc9 383f 0eb4 cf3e db50 89be
00000060: fe06 03bf 6609 de3d 10c5 823c 1a41 3ebe
00000070: 612f 573f fc8a 353e 0356 343f 36a1 b4be
00000080: 2ab7 fabe 9222 083f 6cfe b93e ba28 353e
00000090: de36 e93e f5f9 153d 6235 173f 0300 ab3e
000000a0: 805b 6abe 60ad 3cbc 57ec 1e3e 2e3d 453f
000000b0: 2cc1 b63f bb7d 0d40 172f 46bf 057a e9be
000000c0: 961e 853f 190b 4abf b9d1 423f afa6 3a3e
000000d0: 9ff2 1a3f 14e8 92be 4d14 513f 9ddb 18be
000000e0: 4460 15bf ec92 9d3d 0154 dcbd 39c7 733f
000000f0: 61c6 f83e 112f b03e f2da 13be cc1f eabe
00000100: fc72 2cbf 3528 4abd d065 58be 9e9f 19bf
00000110: b066 103e c007 8b3e b066 7f3f ba3b 473f
00000120: 7886 2abf 8d7d 363f 632d e1be 2b71 0fbe
00000130: 20cb 15be 10ce cc3d 7a4b 593e c300 42bd
00000140: c984 87bd e5e4 5abf 526d 01bf 6160 7dbe
00000150: 232f cabc 303c afbe 34f3 cabd 52c5 233f
00000160: 77e1 f03e c869 22bf 9596 e9be 9bab 403e
00000170: 35e7 da3e 5b00 54bf 7028 aa3f f21e 1e3f
00000180: 066a f5be 3ef0 e73c 28e1 e93e 3b06 3abf
00000190: b1c4 013f 8b0e c73f 3cc4 36bf 8776 ac3c
000001a0: 28ab 2b3e 4bdc 793d f6e1 ee3e 12bd 98be
000001b0: 57d6 393f 3556 bfbe 5f5a 74be 9723 5c3e
000001c0: 75fb 0c3c eb07 103e a118 43bf b90e 0f3f
000001d0: 7681 4f3c c168 e43d 97c2 4ebe 1919 193f
000001e0: e363 673f 41b6 803f a643 523f 89e7 ef3e
000001f0: 181d ce3e a224 863f f0e7 3cbe c1dc d93e
00000200: 7fc3 22bf 40b2 15bf 7f43 b6be 02dc 013f
00000210: 4720 9cbe 1acf 723c ca4d c6bd 7464 d4be
00000220: 12ab 383f 6187 c2bf 3b14 8d3f 63e9 013e
00000230: d239 a2be 55b8 e1bc 4893 27bf 0e2d 02bf
00000240: e832 8c3e a406 753f 3908 15bf d404 15bf
00000250: 2211 15bf ba6b c33e 6539 a9be 58f0 b9be
00000260: 1a99 463f b8db 56bf c153 9a3d b4f5 c0be
00000270: 4b7d 8bbe b7ef 05bf f1dc 283e 4d1a abbe
00000280: 9be6 923f c1b2 913f 4e3a 34bf 1e72 1dbf
00000290: c4dc b83f f009 de3e f27b 123d d317 2dbf
000002a0: fd1d 173f 839a 14bf 10e6 c03d 491b 343e
000002b0: 2a30 61be 32bf bdbe 0647 443f 2cec 3cbe
000002c0: a8f8 043f fabc 82bd 2cbf d93d c10a 59bf
000002d0: 7c73 8c3f 9993 a3be f0e4 8e3c 6a9b de3e
000002e0: 8385 2a3f d1c6 4b3f 8c86 703f e480 2a3f
000002f0: 5715 61be 12a7 5f3f 84e0 e63d f22a 6abf
00000300: 6efc 6b3f dcf5 4a3e c110 b53e 2693 f13e
00000310: 704d 20bf 453c 13be c5b3 903d f7bc 13bf
00000320: c53e 8b3d 14f3 d53e 7f17 2b3f 06ee 0b3e
00000330: 254a 203e 543c 703f ecb2 2ebf 5c25 66bf
00000340: 6163 c63e 8246 54bf 2b75 1cbf 74dc 293e
00000350: 144e 133f 02a7 8d3e 2121 443f b6c8 823f
00000360: 9794 67bf 0392 163f e050 5fbe a396 2b3f
00000370: fd86 a83e 27d0 3fbf fed4 41be 5874 34bf
00000380: 5003 e73e 3892 7c3f 7a43 093f f72a 16be
00000390: 57eb a03f 9430 d43e a8d5 10be b8eb 03bf
000003a0: 1da3 96be 184d babe ef3d 313e 92ad 423f
000003b0: 2549 c03e 0b7f 50bf 4b2a a7be 4be6 95bf
000003c0: 4fb2 be3d e37c 0e3f 4d35 d53c 81c6 493f
000003d0: d467 b4be ff50 b8be af82 583e f2d9 17be
000003e0: ea95 323f 8caf f4bd 189b f6be 8a64 2e3f
000003f0: 35bd 523f 15b2 ad3f a460 eabe 5eb8 d7be
1.6453943 0.65064514 -0.79144305 1.6570736 0.54377544 -0.5158962 -0.004896028 0.051963735
0.05937373 0.011737756 1.155009 -0.07450617 0.16443348 0.22664648 0.09847435 0.19118609
0.19281355 -0.8459772 -0.189943 0.9876661 -0.51038307 0.72181773 0.40567058 -0.268195
-0.51182544 0.10841636 0.015963107 -0.18579522 0.8405667 0.177288 0.70443743 -0.35279244
-0.48967868 0.5317775 0.3632692 0.17691317 0.45549673 0.03661533 0.5906583 0.33398446
-0.22886467 -0.011515945 0.15519844 0.7704648 1.4277701 2.210799 -0.77415603 -0.45600906
1.0399959 -0.78923184 0.7610126 0.18227647 0.6052646 -0.28692687 0.816716 -0.14927526
-0.58350015 0.07694039 -0.1075821 0.95225865 0.4858885 0.3441091 -0.1443899 -0.45727384
-0.6736295 -0.04935475 -0.21132588 -0.6000918 0.14101672 0.2715435 0.99766064 0.7782551
-0.66611433 0.71285325 -0.4397994 -0.14008014 -0.14628267 0.10000241 0.21220198 -0.047364008
-0.06617124 -0.85505515 -0.50557435 -0.24743797 -0.02468068 -0.34225607 -0.099096686 0.6397296
0.47047016 -0.6344266 -0.45622697 0.18815462 0.42754522 -0.8281304 1.329359 0.6176597
-0.47932452 0.028312799 0.45679593 -0.72665757 0.5069075 1.5551313 -0.7139318 0.021052612
0.1676451 0.061001103 0.4665677 -0.2983175 0.7259268 -0.37370458 -0.23862599 0.21497951
0.008604874 0.1406552 -0.76209456 0.5588184 0.012665143 0.11152793 -0.20191418 0.5980392
0.9038679 1.005562 0.82134473 0.46856335 0.40256572 1.047993 -0.18447852 0.42551234
-0.63579553 -0.5847511 -0.3559837 0.5072633 -0.30493376 0.014819885 -0.09682806 -0.4148289
0.7213603 -1.5197564 1.1021799 0.12686686 -0.31684738 -0.027553717 -0.6545911 -0.5085
0.27382588 0.9571326 -0.5821567 -0.5821049 -0.5822927 0.38168126 -0.330516 -0.3631618
0.77577364 -0.83929014 0.07535506 -0.37687457 -0.27244028 -0.523189 0.16490532 -0.33418503
1.1476625 1.1382676 -0.70401466 -0.61502254 1.4442372 0.43366957 0.035762735 -0.6761448
0.59030133 -0.58048266 0.09418881 0.17588533 -0.2199103 -0.37059933 0.76670873 -0.18449467
0.5194192 -0.06383701 0.10632166 -0.84782034 1.0972743 -0.31948546 0.01744315 0.43477947
0.6660997 0.79600245 0.939553 0.6660292 -0.21980797 0.87364304 0.11273292 -0.9147178
0.9218205 0.1982035 0.35364345 0.47182578 -0.6261816 -0.1437846 0.07065538 -0.5771021
0.06799082 0.41787016 0.6683273 0.13665017 0.15653284 0.93842053 -0.68241763 -0.89900756
0.38747695 -0.82920086 -0.61116284 0.16588002 0.5754101 0.2766648 0.7661305 1.0217502
-0.90461105 0.58816546 -0.21808195 0.6702673 0.32915488 -0.7492699 -0.18928906 -0.70490026
0.45119715 0.9866061 0.53618586 -0.14664827 1.257182 0.41443312 -0.14144003 -0.51531553
-0.2942132 -0.36386943 0.17308782 0.760461 0.37555805 -0.8144385 -0.32649454 -1.1710905
0.093113534 0.5565931 0.026026392 0.7881852 -0.35235465 -0.35999295 0.21143602 -0.14829233
0.6976 -0.119475454 -0.48165202 0.6812216 0.82319957 1.3569971 -0.45776856 -0.42132849

l1.bias f4 [8]
00000000: b2fe 143f 8b10 413f 4703 8d3f 0a42 ef3f
00000010: 163c c53e ff1f 063f 1910 833f d850 ea3e
0.58201134 0.7541587 1.1016625 1.8692029 0.38522404 0.5239257 1.0239288 0.45764804

l2.weight f4 [8, 8]
00000000: 0ba2 083f 556c 3440 6822 743f 922c 0c40
00000010: 2216 c9bf 5acc 27c0 69b4 9ebe 7431 4f40
00000020: 823f 1e3e 5ed4 9dbe b998 b0be 7c93 933d
00000030: 88f0 393d b538 8dbe 9cf5 35be e051 d53c
00000040: 26b1 bdbf 1f52 7d3e 6c99 833f 9ff8 2d40
00000050: effa e0bf 6f78 be3f 927f 7640 f119 9ebf
00000060: 12c6 82bd a11a 79be aa4b 893e 72e5 61be
00000070: 6b2f e5bd 7399 7ebe c5d4 2ebe c397 6d3e
00000080: d461 1e40 3a17 29be 8e59 0540 a90b 0e40
00000090: aeae 3240 55d5 94bf efe6 c5be 4f3f fcbf
000000a0: 2a13 b1be ef1b 9dbe a810 f13d 2754 42be
000000b0: 9fe0 47be 408f 143d e854 71bd 7041 763d
000000c0: 103e ea3f 07d2 3040 1f62 e53f 0588 51bf
000000d0: df7c 51bf ed04 2740 9338 05c0 daf9 d3bd
000000e0: 76c1 babe 7064 b0be 376b cabd d850 373d
000000f0: 3c48 ea3d 9e6b 82be 2b7d d33d ae7c 353d
0.5337226 2.819112 0.95365 2.1902204 -1.5709879 -2.6218476 -0.30997017 3.2373934
0.15453914 -0.30826086 -0.34491518 0.07205865 0.045395404 -0.27582327 -0.17769474 0.026040018
-1.4819686 0.24738358 1.0281196 2.7182996 -1.7576579 1.4880503 3.8515363 -1.2351667
-0.06385435 -0.24326564 0.2681554 -0.22060183 -0.11190685 -0.24863224 -0.17073353 0.23202424
2.474721 -0.16512766 2.083591 2.2194617 2.7919116 -1.1627604 -0.3865275 -1.970682
-0.34584934 -0.30685374 0.11770755 -0.18977414 -0.1951928 0.036269426 -0.058918864 0.060121
1.830019 2.762819 1.7920569 -0.81848174 -0.81831163 2.6096756 -2.081578 -0.1035039
-0.36475724 -0.34451628 -0.09883731 0.044754833 0.11439559 -0.2547273 0.10326608 0.044308357

l2.bias f4 [8]
00000000: 436f 203f a824 e3bd 6f36 493f 42a6 b2be
00000010: a705 d23e 77cb a5be 5bbd d5be 6af0 4bbe
0.6266977 -0.11090976 0.78598684 -0.3489247 0.41019937 -0.32381794 -0.4174603 -0.1991593

l3.weight f4 [39, 8]
00000000: 72d2 4c3e 3d20 33be 14d0 debf a5e7 2e3e
00000010: ceb9 a33e 7e9c a3be efd1 953d 5f55 013e
00000020: e5b1 47be 6086 363d 647f 82c0 2100 69be
00000030: 3074 213f df68 aa3e d795 a33e 1268 273d
00000040: 49eb 0d3e 2c72 a43d ef97 04c0 9738 a2be
00000050: 5340 853f 8e4a 133e 57e5 93bf 2530 a73e
00000060: 1860 193f f593 4dbe a24c c7bf ae8c 77be
00000070: e04d ebbe 8067 2a3b 4bce 603e ee28 0abe
00000080: 6900 9abe 9e2e 9dbe 8784 373e a37e 0a3c
00000090: e984 e33e 6ebd 753e 0799 3cc0 190c a4be
000000a0: 6b58 12c0 0486 e03d 07f2 bdbf 61fe e7bd
000000b0: 90e4 a73e b0dd 09be 5155 2c3f 9ce5 cbbd
000000c0: 9eb9 82bf 0e07 0cbe 3d08 7dba e027 78bd
000000d0: b2f2 753e 99ee a93e f977 2fbf 8357 523e
000000e0: b3b4 22c0 d075 643d 9be2 3cbe 2ab0 67bd
000000f0: cd6f 47c0 7f72 b13e 3d8d 693f 888c f23d
00000100: caa1 bebe c6d4 15be 14eb 1cbe 453c febd
00000110: b289 95be 601b 91bd f3df ebbc 5be3 933e
00000120: 2332 60bf b0cf 0e3e cb50 323f c6d3 1c3e
00000130: f4c6 eebf 36e7 5fbe 6c09 c9be c9c7 013e
00000140: b970 a2be 7a9d 5b3e 9112 83bf 2b6f 583e
00000150: a397 3dbe 60dc f13c 4eeb 0e3f b928 95be
00000160: 0089 a73f 3e25 55be 4324 00c0 0e7c a5bd
00000170: 51e8 783e a0da 53be 0565 c4bf c60e bebe
00000180: b650 4d3e e8cf 873d 0ac3 3bbf 646a 553c
00000190: 9d6c 8abd 1ee2 e8bd ccb1 0ebe 88e2 9a3d
000001a0: 7138 403f e04d d8bc 80d3 61c0 563d a9be
000001b0: e5f3 393e 4090 b6bb 5cb5 25be 1b35 f7bc
000001c0: 8d26 c43e 3120 a03e 04f1 143e 364c 7ebe
000001d0: 20f3 95bf b182 a13e bb01 1dbf 7d81 903d
000001e0: 6407 8e3f 12a4 143e 905c 083e 611f a1be
000001f0: 8fa5 d3bf 4a71 86be bd44 0ec0 a900 bfbd
00000200: 1c73 0c3f 70ec 043d 9f61 023f 479f 183e
00000210: 2542 7cc0 7cfc cd3d a6a3 75bf 901b 53be
00000220: 47eb d8be 6f56 67be c099 d13e aa90 24be
00000230: 98d0 9abe 3681 abbe 99d1 a2bf 2641 23bd
00000240: 7c63 70be 13c4 80be 2723 1cbb 4046 4bbe
00000250: 7b7a 0bc0 9474 b4be 026c c83e 4abb 9f3d
00000260: 62ee 8e3f 28d3 4fbd cdbe 3dc0 5369 90be
00000270: 2233 90bf a4e0 bdbd 0e57 7c3d fa1a 9cbe
00000280: 270b 09bf 0d57 4cbe 95db 40bf fe55 80be
00000290: bcda d33e 7b50 853e faab d5bd 513f b93d
000002a0: 14be 1ac0 5041 85be 0db8 b3be 5c74 343e
000002b0: 4080 c93d 2e48 323e ccfe 7b3e 2721 073e
000002c0: 46dc 36c0 1a6e 153e fd71 8b3f 73c3 9c3e
000002d0: a288 7bbf 95b3 833e 191c 22c0 56fb 4abc
000002e0: aaec 693f 496e a1be 3364 2cbf 0f81 3a3d
000002f0: 12ae 11bf 44a5 76be 235c 35bf 2b76 1b3e
00000300: 8fd0 42c0 414f 1dbe d509 b53e 9a9f 183e
00000310: 766c b8bf a36a b23e 5043 9e3e 4703 6bbe
00000320: 51b4 26c0 0094 a7bc 3640 d4be 512f 363e
00000330: 68ee 2d3f ee43 453e d464 1bbf 5c08 3dbe
00000340: ee5d 5abf 9c5f 043e 490d 933f d88d b8be
00000350: 407d 60c0 9287 eabd 557d 00c0 fb9b 903d
00000360: 95f8 a0bf 4e81 97be c2bc 42c0 c200 843e
00000370: b2ca 10be 9a87 6c3e f8d1 983f c989 9abd
00000380: e8f0 a63e 03f1 8b3e e04b 2dc0 c7b4 a63e
00000390: af03 c3bf f827 1e3d 4f2c 5c3f e423 713d
000003a0: 8c03 54c0 f1e9 33be 8bdd 163f 5b60 07be
000003b0: e4b3 4dbe 18d0 efbd d280 42bf 4164 3abe
000003c0: 7b25 ba3e 7af5 463e f1a0 00bf f607 12be
000003d0: f2ca 66bf 6845 54bd ee92 453d be67 373e
000003e0: fd3f 21c0 000a 053b 681a fb3c 48a0 96bd
000003f0: e0e4 5b3f 20f2 4f3d 54b9 25c0 426b afbd
0.20002154 -0.17492767 -1.740725 0.17080553 0.31977695 -0.31955332 0.07315432 0.12630223
-0.19501455 0.044561744 -4.0780506 -0.22753955 0.63067913 0.33283135 0.31950256 0.040870734
0.13859285 0.08029589 -2.0717733 -0.316838 1.0410255 0.14383909 -1.1554364 0.3265392
0.5991225 -0.20075972 -1.5570261 -0.24174759 -0.4595785 0.0026001632 0.21953695 -0.13492176
-0.30078438 -0.3069963 0.17921649 0.008453044 0.4443734 0.23998043 -2.94684 -0.3204048
-2.2866466 0.109630615 -1.4839486 -0.11327816 0.32791567 -0.13463473 0.6731768 -0.09955904
-1.0212896 -0.13674566 -0.00096524117 -0.060584903 0.24018362 0.33189848 -0.6854244 0.20541196
-2.542279 0.055776417 -0.18445818 -0.056564488 -3.1161988 0.34657666 0.9123114 0.118432105
-0.3723281 -0.14631948 -0.1532405 -0.12413839 -0.29206616 -0.070852995 -0.02879331 0.28884396
-0.875765 0.13946414 0.6965453 0.1531516 -1.8654466 -0.21865544 -0.39265 0.12673868
-0.31726626 0.21446791 -1.0240041 0.21136157 -0.18514876 0.029524028 0.55827796 -0.2913263
1.3088684 -0.20814988 -2.0022132 -0.08080302 0.24307372 -0.20688868 -1.5343329 -0.37120646
0.2005032 0.06631452 -0.7334448 0.013025854 -0.067589976 -0.113712534 -0.13935012 0.07562739
0.7508612 -0.026404321 -3.528534 -0.33054608 0.18159445 -0.005571395 -0.16182464 -0.03017669
0.38310662 0.3127456 0.14545065 -0.2483376 -1.1714821 0.31545022 -0.61330765 0.07055948
1.1096005 0.14515713 0.1331656 -0.31469253 -1.65349 -0.26258308 -2.2229455 -0.09326298
0.5486314 0.032452047 0.5093021 0.1490451 -3.9415371 0.10057923 -0.9595283 -0.20615983
-0.42367002 -0.22591566 0.40937614 -0.1607081 -0.3023727 -0.33497018 -1.2720214 -0.039857052
-0.2347545 -0.25149593 -0.0023824663 -0.19851017 -2.1793506 -0.35245192 0.39144903 0.077993944
1.1166499 -0.050738484 -2.9647706 -0.28205356 -1.1265604 -0.092713624 0.06160646 -0.3048933
-0.5353264 -0.19955082 -0.75335056 -0.25065607 0.4137782 0.26037964 -0.104331926 0.0904528
-2.4178514 -0.26026392 -0.35101357 0.17622513 0.09838915 0.17410347 0.24608916 0.1319624
-2.8571944 0.14592782 1.0894161 0.30617866 -0.9825536 0.25722948 -2.532965 -0.012389025
0.91376746 -0.31529453 -0.6734039 0.045533236 -0.56906235 -0.24086481 -0.70843714 0.15181796
-3.0439794 -0.15362264 0.35359064 0.14904633 -1.44081 0.34846982 0.3091073 -0.22950469
-2.6047556 -0.020456314 -0.4145524 0.17791487 0.67941904 0.19264194 -0.60700727 -0.1846022
-0.85299575 0.12927097 1.1488429 -0.36045718 -3.5076447 -0.11451639 -2.0076497 0.07061001
-1.2575861 -0.2959084 -3.0427709 0.25781828 -0.14139822 0.23098603 1.1939077 -0.07545812
0.32605672 0.27332315 -2.707756 0.32559797 -1.5235499 0.038612336 0.8600511 0.05887212
-3.3127165 -0.1756971 0.589318 -0.1322035 -0.20088154 -0.117096126 -0.75977814 -0.18202306
0.3635672 0.1942958 -0.5024558 -0.1426085 -0.9015342 -0.051824003 0.048235826 0.17910668
-2.5195305 0.002030015 0.03065224 -0.0735479 0.8589611 0.050768018 -2.5894365 -0.0856538

l3.bias f4 [39]
00000000: 8141 acbc 036f 6bbe 174d f23e 203f 0abf
00000010: 6a14 49bf 9ab8 abbe 35d9 31bf 7b7a 173f
00000020: 576d ddbe 7e48 023c 20fa e1be 9ea5 153f
00000030: f622 ddbf d2f7 16bf 1e0b 13bf ad2d 69bf
00000040: 58fe 2d3f 1747 23bf f656 1ebe 4532 b6bd
00000050: 532a 1fbf ae40 833f edc1 94be 0387 e6be
00000060: 838b 4d3e 9637 45bd fa33 843f ee20 683f
00000070: 6458 1f3e 72e1 3f3d f876 9dbf fda7 3b3e
00000080: d6d4 ccbc e46a 27be edc4 633e 0cd9 a33e
00000090: ae8c d4bd 7604 b03f f4b5 bc3d
-0.021027328 -0.22991566 0.4732444 -0.5400257 -0.78546774 -0.33539277 -0.69472057 0.59171265
-0.43247482 0.007951854 -0.44136143 0.58455837 -1.7276294 -0.58971894 -0.5743884 -0.9108532
0.6796622 -0.6378035 -0.1546286 -0.08896307 -0.62173957 1.0254114 -0.29054204 -0.4502488
0.20072751 -0.048148714 1.0328362 0.90675247 0.15561062 0.04684586 -1.2301931 0.18325801
-0.025003832 -0.1634937 0.2224309 0.3200153 -0.10378395 1.3751361 0.09214392
