Backed_Draft_01/data.pth (torch, 22698 bytes, 6 tensors)

l1.weight f4 [8, 336]
-0.032754567 0.60624844 1.1622745 -0.7205124 -1.2673644 0.9022037 -1.059147 0.34913242
0.3979757 0.1607022 0.9439605 0.036146693 -1.3406954 1.3659579 0.73471695 0.5388438
0.0753911 0.47408324 0.23245561 -0.16521321 1.3387394 0.72193885 1.4899186 -0.53900856
1.2170367 -0.065987125 1.0923994 0.94020134 -0.45235312 -0.5608926 0.069734834 0.6849103
0.04524969 1.0767459 -0.635516 -0.2854315 -1.0279197 0.9691761 0.1742867 -0.10093959
0.024224866 0.45188037 -0.31914866 0.16395423 -2.3186078 -0.012065829 1.6074955 0.65924317
-1.0271088 0.6243309 -0.04018974 0.3186867 0.17070812 0.083816774 1.672339 -0.57737565
-1.2802393 0.20036419 -0.09914799 1.6738255 -0.5557103 -1.5655154 2.6852722 0.6823035
0.6848438 0.5205601 -1.2093797 0.8695456 -0.052886564 0.9896277 0.09301775 0.008079777
1.2300332 -0.34861487 -0.4561806 0.65473384 0.9519134 -0.6206829 -0.9555897 -0.0432374
-0.432472 0.6436622 0.2760139 0.99145997 -1.075011 0.79915106 -2.1896515 0.2604727
-1.092697 0.69350624 0.6950657 -0.078273594 -1.3301338 -1.7277273 1.120773 1.7540145
1.173031 -0.3553754 -1.0634333 0.4022108 -1.033662 -0.19951883 0.7362291 0.5710513
-0.08244759 0.22057697 0.51918614 1.0176576 0.21173754 -0.9525504 0.45802945 -1.5810499
0.36646155 -0.057532106 0.63876766 -0.5301994 0.15629476 1.5444903 -0.4081941 1.3201234
-0.2603506 -1.6569338 0.20761567 -0.05469085 -1.0941452 1.176472 0.64257175 -0.4832475
0.64132214 1.258671 -0.6266027 -0.5430422 0.78530127 1.1731399 1.0380595 -1.2751797
0.021939754 1.6948154 -0.67464566 -0.09762444 0.30819306 0.4882021 1.0767162 1.4194684
-1.648319 0.69674987 -0.013883686 -0.02119944 -0.016721115 0.3827716 0.80363345 0.12347294
1.5110037 1.103236 0.055671867 -0.6234517 0.6049673 -1.5440695 0.11213056 0.6410461
0.9781853 0.47818276 1.2668276 1.0861447 1.5372473 0.6706995 0.7848874 1.322642
0.56185484 1.2850871 -0.94838566 0.6083159 1.8738225 1.0782878 1.6346262 -0.5360041
0.10210865 0.61601406 0.99171025 0.6879377 -2.0269122 -0.31013295 -0.017973825 0.05364788
0.8473869 1.641286 0.7273746 -0.25819215 -0.18931977 -0.43562332 0.6099123 -0.64950556
-1.7215333 0.5032294 0.11578286 -1.2934372 0.7058252 0.73715305 -0.13597739 -1.5971127
0.3406348 -1.1671761 -0.35870433 -0.57477534 -0.893684 1.8241191 0.69410044 2.620478
1.4969183 1.8698627 0.5552862 -0.3700203 1.0715301 1.194797 -1.9559071 1.6892096
0.79744625 -0.034028146 -0.26818275 -0.3090405 0.24055636 0.45211387 -1.2403034 0.727246
-0.5439097 -1.7951396 -0.34385118 -1.4711723 1.0561604 -0.46458638 -0.43678123 0.90483886
0.732151 -1.5248773 -0.7614038 0.5714647 0.30431253 1.1674281 -1.6017485 0.025874492
0.13149878 -0.6109748 -0.60517615 0.7088746 0.12324252 0.31709823 -0.3422575 -0.42092136
-0.06961543 0.1856696 -0.7871003 -0.399465 -0.28330496 2.0673075 -1.6658462 0.7020804
00000000: a729 06bd 1933 1b3f 69c5 943f 8073 38bf
00000010: ff38 a2bf d2f6 663f 2192 87bf 7cc1 b23e
00000020: 79c3 cb3e 1e8f 243e 65a7 713f 8e0e 143d
00000030: e89b abbf b5d7 ae3f 6916 3c3f abf1 093f
00000040: a666 9a3d 0abb f23e d808 6e3e a72d 29be
00000050: d05b ab3f fcd0 383f a7b5 be3f 77fc 09bf
00000060: dcc7 9b3f 4224 87bd bed3 8b3f 09b1 703f
00000070: d49a e7be a896 0fbf 23d1 8e3d 4856 2f3f
00000080: bd57 393d cfd2 893f 2db1 22bf 1424 92be
00000090: df92 83bf ed1b 783f 3678 323e 6ab9 cebd
000000a0: 3a73 c63c dd5c e73e 7467 a3be 9ee3 273e
000000b0: 1264 14c0 c1af 45bc 6ac2 cd3f 29c4 283f
000000c0: 4d78 83bf 26d4 1f3f ff9d 24bd e72a a33e
000000d0: 1cce 2e3e 21a8 ab3d 340f d63f e4ce 13bf
000000e0: e2de a3bf 452c 4d3e 1a0e cbbd ea3f d63f
000000f0: 0843 0ebf cf62 c8bf 80db 2b40 71ab 2e3f
00000100: ec51 2f3f 6d43 053f f4cc 9abf 8a9a 5e3f
00000110: 959f 58bd 3e58 7d3f 1780 be3d 0a61 043c
00000120: ba71 9d3f a67d b2be 8190 e9be a39c 273f
00000130: 99b0 733f 13e5 1ebf 87a1 74bf b319 31bd
00000140: f86c ddbe 0cc7 243f b251 8d3e 52d0 7d3f
00000150: f699 89bf 2a95 4c3f 4023 0cc0 ae5c 853e
00000160: 7fdd 8bbf a089 313f d3ef 313f e84d a0bd
00000170: d341 aabf 2b26 ddbf 7d75 8f3f 8c83 e03f
00000180: e125 963f c4f3 b5be 951e 88bf 93ee cd3e
00000190: 094f 84bf aa4e 4cbe 8379 3c3f 6b30 123f
000001a0: 48da a8bd eede 613e 62e9 043f 9b42 823f
000001b0: bad1 583e 58da 73bf d682 ea3e d85f cabf
000001c0: d9a0 bb3e c9a6 6bbd 4786 233f 26bb 07bf
000001d0: bc0b 203e dcb1 c53f d1fe d0be cef9 a83f
000001e0: ad4c 85be 6816 d4bf 3499 543e 8303 60bd
000001f0: f30c 8cbf a296 963f 957f 243f 376c f7be
00000200: b02d 243f 221c a13f 0969 20bf d004 0bbf
00000210: 8109 493f 7329 963f 22df 843f 1739 a3bf
00000220: 00bb b33c b6ef d83f 94b5 2cbf 53ef c7bd
00000230: 7bcb 9d3e a0f5 f93e d6d1 893f 24b1 b53f
00000240: 1efc d2bf 335e 323f 6678 63bc 73aa adbc
00000250: b8fa 88bc a4fa c33e ecba 4d3f 61df fc3d
00000260: 9268 c13f d636 8d3f 2f08 643d 889a 1fbf
00000270: 23df 1a3f 12a4 c5bf b5a4 e53d 991b 243f
00000280: 5a6a 7a3f 5fd4 f43e 6827 a23f ca06 8b3f
00000290: 85c4 c43f f6b2 2b3f 61ee 483f 554c a93f
000002a0: b8d5 0f3f bc7d a43f 67c9 72bf 97ba 1b3f
000002b0: 6ad9 ef3f 5605 8a3f 6e3b d13f 9137 09bf
000002c0: 571e d13d 19b3 1d3f b9e0 7d3f af1c 303f
000002d0: eeb8 01c0 bfc9 9ebe d83d 93bc e1bd 5b3d
000002e0: 59ee 583f a915 d23f 3935 3a3f c331 84be
000002f0: 0bdd 41be 050a dfbe 3623 1c3f ff45 26bf
00000300: 345b dcbf a4d3 003f 901f ed3d 5a8f a5bf
00000310: f6b0 343f 10b6 3c3f a83d 0bbe 306e ccbf
00000320: af67 ae3e 0766 95bf 18a8 b7be 7a24 13bf
00000330: 7ac8 64bf bc7c e93f 91b0 313f e9b5 2740
00000340: 059b bf3f a957 ef3f 3d27 0e3f 4d73 bdbe
00000350: e627 893f 1cef 983f 2a5b fabf 0538 d83f
00000360: 7025 4c3f 1961 0bbd 404f 89be 8e3a 9ebe
00000370: 6854 763e 787b e73e 43c2 9ebf cb2c 3a3f
00000380: ab3d 0bbf 22c7 e5bf 430d b0be 604f bcbf
00000390: 4430 873f 44de edbe caa1 dfbe 85a3 673f
000003a0: 3f6e 3b3f 2e2f c3bf 5ceb 42bf 834b 123f
000003b0: dace 9b3e 496e 953f 1806 cdbf bef6 d33c
000003c0: 9ea7 063e d868 1cbf d3ec 1abf ce78 353f
000003d0: 9366 fc3d b35a a23e 603c afbe 0183 d7be
000003e0: 8992 8ebd 2c20 3e3e 687f 49bf ad86 ccbe
000003f0: 590d 91be c44e 0440 733a d5bf 8bbb 333f

l1.bias f4 [8]
0.0051974575 0.45155895 -0.083862975 0.8509615 0.72268564 0.36825544 0.3983945 3.3480475
00000000: 6f4f aa3b bc32 e73e 5ac0 abbd 9dd8 593f
00000010: ed01 393f fa8b bc3e 5dfa cb3e 6946 5640

l2.weight f4 [8, 8]
1.2013958 2.4269338 -1.5979978 6.3740826 4.5788403 -2.1254647 3.1472938 1.1171535
0.0035064518 -0.03485179 0.2709677 0.009019434 -0.28085318 -0.34972426 0.11972001 -0.1574095
-0.3503781 0.1705075 0.29441738 -0.059977494 0.07124981 0.09935048 -0.21417017 -0.37059143
-0.1945159 0.1735438 -0.07698053 -0.023602627 0.047022205 -0.22570097 -0.30303326 -0.1337005
2.731352 3.7188134 5.255284 -1.9073907 -1.7950747 3.823952 -0.89023185 0.5181112
-3.2472973 -1.1761552 -2.2709713 0.10263019 -0.0170307 1.9255917 -2.7205796 4.1935744
0.20912036 0.13585597 -0.17759207 -0.060316563 -0.09403762 -0.23276132 -0.29367742 -0.20746174
0.2585865 -0.14413054 -0.18596074 0.07665083 -0.31040332 -0.15759553 -0.26096776 -0.13515306
00000000: 56c7 993f e252 1b40 318b ccbf 7cf8 cb40
00000010: dc85 9240 9d07 08c0 436d 4940 e3fe 8e3f
00000020: 80cc 653b c0c0 0ebd 47bc 8a3e 40c6 133c
00000030: fdcb 8fbe 0f0f b3be c42f f53d f52f 21be
00000040: c264 b3be 8599 2e3e e0bd 963e f6aa 75bd
00000050: 6ceb 913d 4478 cb3d 6d4f 5bbe 29be bdbe
00000060: 2d2f 47be 77b5 313e f8a7 9dbd 4c5a c1bc
00000070: 5b9a 403d 281e 67be 2d27 9bbe c9e8 08be
00000080: 79ce 2e40 0a01 6e40 492b a840 6125 f4bf
00000090: 02c5 e5bf a1bb 7440 3ce6 63bf f0a2 043f
000000a0: b8d3 4fc0 418c 96bf 9857 11c0 c72f d23d
000000b0: f783 8bbc ca79 f63f fa1d 2ec0 c331 8640
000000c0: a623 563e d41d 0b3e b2da 35be 800e 77bd
000000d0: cc96 c0bd fc58 6ebe e35c 96be da70 54be
000000e0: 7365 843e f596 13be 7e6c 3ebe 1cfb 9c3d
000000f0: 2fed 9ebe b960 21be 919d 85be 9065 0abe

l2.bias f4 [8]
-0.49599957 -0.19204345 -0.35152376 -0.366378 -2.2235465 3.0919669 -0.09392518 -0.24636982
00000000: a8f3 fdbe 0aa7 44be ecfa b3be e695 bbbe
00000010: 964e 0ec0 c9e2 4540 d85b c0bd 5f48 7cbe

l3.weight f4 [39, 8]
0.1892846 -0.32941082 0.033475906 0.23157486 -3.756 0.24150193 0.27529392 -0.0150491595
-0.3567773 0.014320105 0.15140274 0.27097657 -3.7827318 0.8257205 0.15855291 0.015827835
-1.1883497 0.106291026 -0.1447879 0.16542336 -1.3089197 1.0501503 0.1462464 0.26914307
0.57978785 0.24764308 -0.3522121 -0.16723372 -0.7765159 -2.19962 -0.11550145 -0.33104104
0.39563954 -0.2538215 0.01949698 0.060524464 -0.8103244 -1.0091997 -0.009834677 0.27394602
-1.9772736 0.14668629 -0.18365493 -0.16948423 -0.014182461 0.4654923 -0.12857562 -0.35055515
0.35959524 0.2063317 -0.13240363 -0.32792267 -0.058081273 -5.4313135 -0.25037727 0.18153086
0.68538094 0.04032156 0.12381792 0.250225 -1.9655579 -1.3146658 -0.15146148 -0.0499793
-3.3341923 -0.23936269 0.15859684 0.15694717 0.2707787 0.20953111 -0.093905866 -0.026959062
-1.0402741 -0.053173333 -0.3453168 0.17088363 -0.063481554 0.2666612 0.04420209 -0.16143368
-0.3512992 0.115282804 -0.2982318 0.27867934 0.27440557 -1.1399565 0.029163778 0.14228776
0.63868225 0.23030779 -0.30633244 0.19785264 -0.6329431 -4.582169 -0.07611814 0.32879993
-1.4718806 0.34318987 -0.16446342 -0.3406584 0.23875776 -0.036430012 0.12082362 -0.2894619
0.7996778 0.07359871 0.20459494 0.19432096 -2.7069314 -2.5457785 -0.2550383 0.2956957
-0.36540326 -0.28658926 0.12578128 -0.24751103 -0.36979398 0.11674688 0.0220069 -0.2721187
-2.2091405 -0.110563144 -0.3135452 0.03523907 0.8511485 -1.6291674 0.00083240867 0.020220846
-1.0555129 0.33439025 0.18242797 -0.13158554 0.44269004 -0.7010435 0.2568945 -0.10370751
0.06781971 -0.017822862 -0.35205916 -0.23733771 0.28129718 -4.467168 -0.31998667 -0.11301108
0.19169356 -0.19754454 -0.05583268 0.031265467 -0.22781423 -1.2675545 0.063243 -0.086870044
-0.98118675 0.095419675 -0.022063835 -0.29804817 0.74768376 -3.6098208 0.052682936 0.14173627
-1.3271085 -0.14916718 -0.013017259 0.08852947 -0.4486746 0.6889451 -0.08973238 0.0512262
-0.15636005 -0.24351501 0.2732696 -0.25243503 -0.1535805 -0.49035582 0.32497743 0.10350302
-0.49887562 0.21329299 -0.3137243 0.17097417 -0.8381774 0.50401366 -0.34654394 -0.31496492
-3.6580877 0.0888682 -0.36435357 0.14782223 -0.33369964 0.92759347 0.3402154 -0.011606187
-0.069525175 -0.09770915 -0.19495298 -0.09059563 -0.9011009 0.112924196 -0.35231802 0.2492443
-0.3495822 0.13562089 -0.2736237 -0.112142056 0.54516304 -5.141962 0.31501696 -0.17638358
0.084630325 -0.07576847 -0.2913797 -0.14892508 -0.5901235 -0.36626548 0.11960715 -0.22694147
-0.9631698 -0.09433201 0.16655277 -0.24816798 0.6347009 -1.8277731 -0.07378253 -0.045800984
-2.2592363 0.1439398 -0.29344144 -0.10042435 0.5225047 -0.46801633 0.16763166 0.22252771
0.37859777 0.2436848 -0.30477896 0.06255546 -0.20455536 -2.727511 -0.1922912 -0.11158146
-4.366955 0.1970965 -0.23022932 0.25010726 0.71202606 -0.8095071 0.0416241 0.18775621
-0.38086635 -0.07678297 -0.2562306 -0.08863968 0.4818891 -2.6097863 0.0383054 -0.25673777
00000000: d2d3 413e 89a8 a8be 081e 093d f621 6d3e
00000010: 4e62 70c0 484c 773e 53f3 8c3e c090 76bc
00000020: 84ab b6be e09e 6a3c 5209 1b3e 71bd 8a3e
00000030: 4718 72c0 6b62 533f b25b 223e 60a9 813c
00000040: d81b 98bf 1caf d93d 4743 14be be64 293e
00000050: ae8a a7bf 536b 863f 9ec1 153e 1fcd 893e
00000060: fa6c 143f 2696 7d3e 2555 b4be 513f 2bbe
00000070: bfc9 46bf 93c6 0cc0 068c ecbd 367e a9be
00000080: 4491 ca3e e4f4 81be 21b8 9f3c 80e8 773d
00000090: 6b71 4fbf 752d 81bf a021 21bc a742 8c3e
000000a0: 4d17 fdbf ee34 163e 0a10 3cbe 468d 2dbe
000000b0: 8e5d 68bc 0255 ee3e 54a9 03be f77b b3be
000000c0: de1c b83e 9e48 533e d194 07be 7be5 a7be
000000d0: a1e6 6dbd 52cd adc0 7331 80be 3ae3 393e
000000e0: 2075 2f3f 3828 253d 4094 fd3d 7e1d 803e
000000f0: 6797 fbbf f846 a8bf b818 1bbe 18b7 4cbd
00000100: 6863 55c0 7e1b 75be 3667 223e c2b6 203e
00000110: 81a3 8a3e 538f 563e b851 c0bd 40d9 dcbc
00000120: b427 85bf 48cc 59bd 5dcd b0be 1efc 2e3e
00000130: 9e02 82bd d187 883e 400d 353d df4e 25be
00000140: 7ddd b3be 6419 ec3d d7b1 98be 0faf 8e3e
00000150: e37e 8c3e 18ea 91bf e0e8 ee3c e2b3 113e
00000160: ae80 233f ced5 6b3e 9bd7 9cbe e299 4a3e
00000170: 8f08 22bf 21a1 92c0 d4e3 9bbd 7758 a83e
00000180: 9566 bcbf 95b6 af3e 1969 28be c76a aebe
00000190: ea7c 743e a337 15bd 6072 f73d 5a34 94be
000001a0: afb7 4c3f ecba 963d 5681 513e 13fc 463e
000001b0: 5d3e 2dc0 09ee 22c0 6194 82be 6d65 973e
000001c0: 2316 bbbe d4bb 92be cfcc 003e 8873 7dbe
000001d0: a355 bdbe fd18 ef3d d047 b43c 2453 8bbe
000001e0: 8f62 0dc0 ee6e e2bd ff88 a0be d856 103d
000001f0: dee4 593f 8f88 d0bf 0036 5a3a 30a6 a53c
00000200: 0c1b 87bf 3335 ab3e 66ce 3a3e 5cbe 06be
00000210: 45a8 e23e 9677 33bf ad87 833e 9a64 d4bd
00000220: 0fe5 8a3d 4001 92bc 1941 b4be a808 73be
00000230: 2f06 903e 0af3 8ec0 4bd5 a3be 5a72 e7bd
00000240: 514b 443e 1e49 4abe cfb0 64bd 3810 003d
00000250: 2248 69be 3a3f a2bf 8c85 813d ece8 b1bd
00000260: 0e2f 7bbf 646b c33d 37bf b4bc c599 98be
00000270: 3468 3f3f 4e07 67c0 10ca 573d 5023 113e
00000280: b1de a9bf 48bf 18be 5746 55bc f04e b53d
00000290: adb8 e5be b55e 303f 9cc5 b7bd 90d2 513d
000002a0: d91c 20be 005c 79be fee9 8b3e 2a3f 81be
000002b0: 3544 1dbe eb0f fbbe 7163 a63e 64f9 d33d
000002c0: a06c ffbe 7a69 5a3e 79a0 a0be da13 2f3e
000002d0: cb92 56bf 0a07 013f 356e b1be 1543 a1be
000002e0: 1c1e 6ac0 8800 b63d 8d8c babe b65e 173e
000002f0: aeda aabe c476 6d3f b730 ae3e e027 3ebc
00000300: 3763 8ebd bc1b c8bd c1a1 47be 348a b9bd
00000310: 8cae 66bf cd44 e73d 0763 b4be e639 7f3e
00000320: 70fc b2be 34e0 0a3e 6818 8cbe bcaa e5bd
00000330: ce8f 0b3f f48a a4c0 e749 a13e e69d 34be
00000340: aa52 ad3d 802c 9bbd b82f 95be d17f 18be
00000350: 5512 17bf 2687 bbbe 98f4 f43d 5863 68be
00000360: 4c92 76bf 2431 c1bd cf8c 2a3e bf1f 7ebe
00000370: c27b 223f 78f4 e9bf 4c1b 97bd d099 3bbd
00000380: 5497 10c0 f464 133e f53d 96be 48ab cdbd
00000390: dec2 053f d69f efbe a2a7 2b3e 4ede 633e
000003a0: 91d7 c13e 8288 793e fd0b 9cbe 141d 803d
000003b0: f676 51be 8a8f 2ec0 fce7 44be d284 e4bd
000003c0: 18be 8bc0 aad3 493e 3cc1 6bbe 0f0e 803e
000003d0: 5747 363f db3b 4fbf 087e 2a3d 2a43 403e
000003e0: ea00 c3be 6440 9dbd a830 83be b888 b5bd
000003f0: 2bba f63e bd06 27c0 20e6 1c3d 2273 83be

l3.bias f4 [39]
-0.73142236 -0.3487536 -0.22411765 -0.30176017 0.079942875 -1.0259376 -0.966428 -1.7711096
-0.14358284 0.7979544 0.36799335 0.42977703 -1.8132721 -0.9722426 0.5269653 0.20510876
-0.025125489 0.77843654 0.4385357 0.048337884 -1.1679286 -1.2826601 -1.2650203 0.21714814
-1.2085261 -0.2731234 -0.9784108 0.15278848 -0.4964251 0.5152005 0.4595819 -0.012359311
-0.6725187 2.3206031 0.37208223 -0.25540128 -0.7140961 1.8276393 2.4843714
00000000: 7f3e 3bbf d58f b2be 197f 65be 4f80 9abe
00000010: 17b9 a33d ec51 83bf d367 77bf b8b3 e2bf
00000020: 6107 13be bd46 4c3f a069 bc3e bc0b dc3e
00000030: 4d19 e8bf e4e4 78bf 33e7 063f 0808 523e
00000040: f8d3 cdbc 9e47 473f c087 e03e f2fd 453d
00000050: af7e 95bf 352e a4bf 2fec a1bf 155c 5e3e
00000060: fcb0 9abf d5d6 8bbe 2179 7abf 9574 1c3e
00000070: 6e2b febe 2ee4 033f 524e eb3e b57e 4abc
00000080: 2f2a 2cbf c384 1440 9081 be3e f5c3 82be
00000090: 01cf 36bf 16f0 e93f f1ff 1e40
