Backed_Draft_01/data.pth (torch, 22698 bytes, 6 tensors)

l1.weight f4 [8, 336]
000000 ad 85 c4 3e 52 c9 01 3f 4d 00 a9 3e c7 d4 4c bf
       0.38383237 0.50697815 0.33008042 -0.8001217
000010 2f 28 cb be 6f 9e 46 3d a3 d9 1a 3f f8 77 33 3f
       -0.39679095 0.048490938 0.6048834 0.7010493
000020 8f 2c 25 3f 3c 86 8b 3d 5d 9e 98 bf 86 ab 3d 3e
       0.64521116 0.068127126 -1.1923329 0.18522462
000030 c0 32 92 be 5f 89 ec 3e 59 33 5b 3f 14 af b5 bd
       -0.28554344 0.46198556 0.85625225 -0.08871284
000040 41 b9 12 3f fc f1 c7 3e 5f ec 01 3f 4b e6 3c bf
       0.57313925 0.39051807 0.507513 -0.737889
000050 47 3d 33 bf 08 14 60 3e 72 85 38 3f 1e 4a 8d 3e
       -0.70015377 0.21882641 0.7207862 0.2759561
000060 95 b3 12 3f 46 d0 ec bd 7b 8a 8b bd 84 78 7b be
       0.5730527 -0.115631625 -0.068135224 -0.24557692
000070 04 9c 14 3e 70 92 06 bf 1f 7b b3 bd fa 3d e3 3e
       0.1451264 -0.52567196 -0.08763718 0.44383222
000080 1f da 37 bd c1 34 1a 3f 34 44 b8 be a5 04 e3 bd
       -0.04488575 0.60236746 -0.35989535 -0.1108487
000090 48 e2 64 bf 29 9d 0b 3f 31 0d 3c 3f 4e 6e 3f be
       -0.8940778 0.5453668 0.7345763 -0.18694422
0000a0 a0 29 7b bf bc a9 3b 3f f8 c6 a4 3e be 28 72 be
       -0.9811039 0.7330587 0.3218305 -0.23648354
0000b0 9f f5 01 bf 8a 70 13 3e be 70 21 3f 55 1d f2 3e
       -0.50765413 0.14398399 0.63062656 0.47288004
0000c0 b5 d7 27 bf 9c d5 e7 bc 56 28 ce be 24 5e 7d 3f
       -0.6556352 -0.0283001 -0.4026515 0.9897177
0000d0 71 fb a8 3e 69 e3 1e bf 57 eb 08 be c9 64 e4 3e
       0.33004335 -0.6206575 -0.13371025 0.44608143
0000e0 f3 68 18 3f 35 cb ac be bd b5 82 3e d9 5d 3e bd
       0.5953514 -0.33748785 0.2552928 -0.04647622
0000f0 de 41 8d be e1 1a 08 3f cc c8 a3 3f 01 6c cb 3e
       -0.27589315 0.53166014 1.2795653 0.39730838
000100 bb 17 bb 3d 69 75 27 3f 2e a1 17 3f 55 8b d5 3d
       0.091353856 0.6541353 0.59230316 0.10426966
000110 60 b4 a4 bd 1a 9a 9c 3e dd 05 4c 3f 49 cc b6 be
       -0.08042216 0.3058632 0.79696447 -0.35702732
000120 20 a3 75 3f 3d 4e cf 3e 85 f3 09 bf f3 41 53 3f
       0.95952034 0.4048938 -0.53887206 0.82522506
000130 f8 c8 3b 3f 63 ff d4 3e 87 85 31 bf 91 36 16 be
       0.7335353 0.41601095 -0.6934437 -0.14669253
000140 41 5d e4 be 1c 20 6e bb 82 48 b5 bd 87 11 bc 3e
       -0.44602397 -0.0036335057 -0.088517204 0.36732122
000150 8e cd 83 3e bb 9b 8c be 81 f9 2b 3d 5d ed fc be
       0.25742763 -0.27462563 0.041985992 -0.49399844
000160 f7 75 d8 3e 5b 88 d6 3b 25 f7 ca 3e f4 94 f3 3d
       0.422775 0.0065470166 0.3964168 0.11893645
000170 ca 37 f4 bc 6a 84 b8 3f 18 60 48 3f 2e fa a2 3f
       -0.029811759 1.441541 0.7827163 1.2732599
000180 16 6b 0f 3f 30 81 e2 be 03 53 f1 3e 9d df 32 be
       0.56022775 -0.44239187 0.47133645 -0.17468114
000190 c1 d6 6a bf 29 e9 8e be 5f b6 8e be 60 1e ca 3e
       -0.9173394 -0.27912262 -0.27873513 0.394763
0001a0 9c 36 f6 3d 63 a8 e4 be 19 96 9a be 93 f4 b1 3e
       0.12022135 -0.4465972 -0.3019264 0.34756908
0001b0 a2 c9 f9 be 63 2c 0b 3f 80 00 27 bf c0 32 97 3f
       -0.48786646 0.54364604 -0.6523514 1.1812363
0001c0 4b 5b b1 3e 9c 6c 15 be 14 9d 5b 3f 29 d2 6b 3e
       0.34639964 -0.14592212 0.8578656 0.23029388
0001d0 37 0e 4d 3f 5e d5 34 3f 12 52 ce 3e c1 f5 1e 3f
       0.80099815 0.7063807 0.4029699 0.6209374
0001e0 02 d0 e5 be 53 52 79 bf 0a a2 15 3f 64 12 89 be
       -0.4488526 -0.9739124 0.58450377 -0.26771843
0001f0 04 ed ee 3e 0b b5 1e 3e c0 6f fc 3e 38 8d 93 be
       0.46665204 0.1549875 0.49304008 -0.2881868
000200 6d d2 c2 3d 56 11 36 bf 73 64 38 3e f9 b6 0e 3e
       0.09512792 -0.711202 0.18007068 0.13936986
000210 7d f7 e1 3e c5 e3 49 3e 8a 18 89 3e b8 4b b8 be
       0.4413413 0.19715793 0.26776534 -0.3599527
000220 bf 1d b5 bd 16 3f 9b bf 1e c3 aa be 3f 71 04 be
       -0.08843564 -1.2128627 -0.33351988 -0.12933825
000230 17 91 07 3f 7b bf 3a 3f bc 9c 0c bf 9d 17 46 3f
       0.52955765 0.72948426 -0.5492666 0.7737978
000240 d5 02 1f 3f f6 e5 ba 3e 48 2c 46 3f 4d d4 3f 3f
       0.62113696 0.3650357 0.7741132 0.7493332
000250 0b 9f 3c 3f 6b 99 a8 3e d1 27 8b be 00 cf 20 bf
       0.7368018 0.3292955 -0.27178815 -0.62815857
000260 24 14 f6 3e 1c d5 33 3f f5 cf bd 3e e8 ea 83 3e
       0.4806224 0.70247054 0.3707272 0.25765157
000270 8d 0b 65 3e 4b 30 7b bf 4d a1 40 3f c2 8d 67 3e
       0.22367688 -0.98120564 0.75246125 0.2261267
000280 80 85 1b 3e 0d 7f 81 3f c0 f0 11 3f 58 66 f0 be
       0.15187645 1.0116898 0.5700798 -0.46953082
000290 33 e2 c7 3d 90 03 cd be e4 75 1a 3e 41 50 bb be
       0.09759941 -0.4004178 0.15084034 -0.36584666
0002a0 ad f9 2f 3f bf af 3a bf 08 df 42 3e 70 71 96 bc
       0.6874035 -0.7292442 0.19030392 -0.018364638
0002b0 f7 ed f4 3f db be 4c 3e f8 d0 3c be 65 94 53 3e
       1.9135121 0.1999468 -0.1843909 0.20662077
0002c0 ee 3e ad 3d b8 f6 b4 3e 67 27 2b 3f 71 9f a4 bc
       0.084592685 0.3534448 0.66857 -0.020095559
0002d0 7c 7c 1b be 1a 98 b9 3e 93 60 a1 be 31 48 73 be
       -0.15184206 0.36248857 -0.31518993 -0.23758008
0002e0 03 79 80 be bb f5 25 be ce 60 a6 3e 39 86 22 bf
       -0.25092325 -0.1620702 0.3249573 -0.6348606
0002f0 73 39 99 bd 5a f8 2d bd 49 2f 28 be df 15 ff 3e
       -0.07481661 -0.042473175 -0.16424288 0.49821374
000300 d0 8f f0 bc 98 33 8c 3c 70 d1 80 bd 85 f6 e5 be
       -0.02936545 0.017114446 -0.06289947 -0.44914642
000310 1d e6 a3 3d 37 10 2c 3f 3c c8 f8 3e 1f 76 79 bf
       0.08002875 0.6721224 0.48590267 -0.97445863
000320 55 09 43 3f 51 c8 b5 be a8 08 8f 3e d5 28 0a bf
       0.76186115 -0.35504392 0.27936292 -0.53968555
000330 c1 05 61 3e e7 74 ea 3c 28 07 36 3c 47 ea a0 3f
       0.21974851 0.028620197 0.011110105 1.2571496
000340 46 57 14 3f ae c1 16 3f b2 fb eb 3d 7f 84 92 3e
       0.5794567 0.5888928 0.115226164 0.28616711
000350 c2 43 5f 3f 42 0a 80 3e e4 47 33 bf 59 b6 3b 3d
       0.87212765 0.25007826 -0.7003157 0.045828197
000360 7b fe 59 bf 1e b2 29 bf 3f c3 db 3e a9 a8 b1 3e
       -0.8515393 -0.6628741 0.42922398 0.3469899
000370 09 64 4f 3d 95 fc b6 3e 97 3f 13 3f 94 96 2b 3c
       0.05063251 0.3573958 0.57518905 0.010472912
000380 44 2f b3 3e f3 bd f0 bc db 22 4c bf 0f 8c 1d 3f
       0.34996998 -0.02938745 -0.79740685 0.6154184
000390 30 09 31 3f 6e fb b6 be 22 20 06 3f e7 fc 68 3d
       0.69154644 -0.357387 0.5239278 0.05688181
0003a0 49 ae a0 3e e7 fb 9d 3f ae d4 91 be 5e 59 11 bf
       0.3138297 1.23425 -0.28482574 -0.5677699
0003b0 b6 8d 99 3e 0c b8 ae 3e 69 a7 2a bf 69 8f bc bf
       0.2999093 0.34124792 -0.666617 -1.4731265
0003c0 d3 90 41 3e 14 0f 23 be 52 b4 f0 be 56 b2 51 3e
       0.18902902 -0.1592372 -0.47012573 0.20478186
0003d0 e1 f2 1c bf cb 17 8c 3f ee 79 81 bd 94 3b 1c 3f
       -0.61308104 1.0944761 -0.06322084 0.6102841
0003e0 c0 0c 5a be 81 36 0b 3e 40 93 3f 3d db af a5 3e
       -0.21293926 0.1359501 0.046771288 0.3236073
0003f0 a7 a4 d5 3b 9c 4c a3 bf 3f b7 e3 3c 81 67 df 3e
       0.006519872 -1.2757754 0.02779734 0.43633655

l1.bias f4 [8]
000000 6a 73 2f 3f b7 2f ef 3e 80 8f 4d 3f 7f 19 9b 3f
       0.6853548 0.4671609 0.8029709 1.2117156
000010 20 ff 2c 3f c0 5a ba 3e f2 19 27 3f f2 bd 2f 3f
       0.6757679 0.36397362 0.65273964 0.6864921

l2.weight f4 [8, 8]
000000 a1 33 cc 3f 46 6d cb 3e 4d 42 e4 bf c8 f1 a2 3f
       1.5953256 0.39731807 -1.7832733 1.2730036
000010 6b 67 be 3f b1 26 df bd 73 dc bc bf 91 1a 0a 40
       1.4875311 -0.10896052 -1.4754776 2.1578715
000020 00 7f 99 3e 8c c7 39 bf 9e ac 14 40 10 fb b9 3e
       0.29979706 -0.7257011 2.3230357 0.36324358
000030 d4 5a 52 3f 99 e4 2f 40 89 18 3d be 54 9d 6d be
       0.8216984 2.7483275 -0.1846639 -0.23204547
000040 8b 3e a2 bf cd a8 ef 3f 86 a0 20 40 e4 8b f1 3e
       -1.2675337 1.8723389 2.5097976 0.4717704
000050 63 17 aa 3f 9f 5c de bf ed c6 13 3f 53 e3 56 3f
       1.3288387 -1.7372016 0.5772541 0.8394062
000060 3a 8f 0d 3f 78 1a 07 bf 80 55 ba 3f b1 5f c6 3f
       0.5529667 -0.52774763 1.4557343 1.5497953
000070 a7 25 2f 40 28 3e 68 3d 31 51 2a bf 12 5a b1 bf
       2.736673 0.0566999 -0.6653014 -1.3855612
000080 64 2f ab 3f c6 05 31 3f 6c fe 10 bf d2 c5 71 3f
       1.3373837 0.69149435 -0.56638217 0.94442475
000090 32 0e 92 bf 5c ce b3 bf 7d 70 15 40 38 e6 bd bf
       -1.1410582 -1.4047351 2.3349907 -1.4835882
0000a0 ec f8 64 bd 6d 60 88 bf 07 84 5f 3f 22 0b ba 3d
       -0.055901453 -1.0654427 0.8731083 0.09084155
0000b0 28 96 18 3f 8d e9 75 3f cf 24 a9 3e e9 fd 29 3f
       0.5960412 0.96059495 0.33035895 0.6640306
0000c0 d1 ca 2c be 96 2c 94 be 8d 5d 13 3e 11 2b 24 be
       -0.16874243 -0.28940266 0.14391156 -0.16032054
0000d0 41 7a b1 be 73 55 38 3e 26 05 83 be a6 91 05 be
       -0.34663585 0.18001346 -0.25589865 -0.13043842
0000e0 c9 c7 f2 3a ea 8b c1 3f 6c d6 0f 3f 9b bc 6f bd
       0.0018522675 1.5120823 0.56186557 -0.058529478
0000f0 ab f9 ad bf c3 40 e2 3f 17 dc 3d 3f 68 19 cd 3f
       -1.3591818 1.7676014 0.74163955 1.6023378

l2.bias f4 [8]
000000 de 13 c0 3e 26 f6 5e 3e 17 b4 c2 3e 2c 8a f0 3e
       0.37515157 0.21773586 0.38028023 0.46980417
000010 8e 0e 3a 3f b5 ad d2 3e aa bc 96 be ab f3 a2 be
       0.7267846 0.41148153 -0.29440814 -0.3182653

l3.weight f4 [39, 8]
000000 8d da 5b bf a1 a6 43 3f 41 9c ec bf 7d 99 4e 3f
       -0.8588036 0.7642613 -1.8485185 0.80702955
000010 5b d4 c2 bf 0b 6b 2e 3e 19 12 26 bd 23 9c ce be
       -1.5221056 0.17033021 -0.040544603 -0.40353498
000020 9c f8 25 c0 01 d2 bc 3e bf 98 0b bf dc c4 31 bf
       -2.593299 0.3687897 -0.5452995 -0.6944101
000030 59 ad cb bf 9d e5 87 3f 59 7a cb bc ef 45 0a 3f
       -1.5912277 1.0616947 -0.024838613 0.5401296
000040 bc 0f f2 bf 1d 86 d6 3e 29 5e 48 3f f9 cc 57 3e
       -1.8911052 0.41899195 0.78268677 0.21074285
000050 33 64 4e c0 55 1a 5e be b5 76 a0 3c ff 63 41 be
       -3.2248657 -0.21689732 0.019587854 -0.18885802
000060 91 aa 87 bf aa ab c0 bf 06 c7 ff 3e 24 51 07 c0
       -1.0598928 -1.5052388 0.4995653 -2.1143274
000070 f5 4c 55 3f 24 be 74 c0 01 d0 54 bd 58 0d 51 3d
       0.8332055 -3.8241053 -0.05195618 0.051038116
000080 75 1b 02 bf e1 c0 86 3d 90 2a d9 be 91 bc 4a c0
       -0.50823146 0.065797575 -0.42415285 -3.1677592
000090 8b 0b ff be 61 55 0b 3f 0e 0c 3f 3e 1c 3a d1 3e
       -0.49813494 0.5442715 0.18656942 0.40864646
0000a0 04 cf dc bf 62 3a a1 3e 56 b9 81 be ef c2 88 3e
       -1.7250676 0.31489855 -0.25336713 0.26711223
0000b0 4f 95 27 bf 85 c1 85 bf 89 07 56 be 4a 26 56 3e
       -0.654622 -1.0449682 -0.20901312 0.20913044
0000c0 cb bc e1 3e c5 35 63 3d 80 3c a9 bf 39 79 6d 3e
       0.4408935 0.0554712 -1.3221588 0.23190774
0000d0 d3 dc 1a c0 f4 97 3a 3e c3 93 28 be 8a de ab be
       -2.419728 0.18222028 -0.16462617 -0.3356822
0000e0 77 21 a2 3e 8d b5 78 3e d2 2d ec bf af c4 3f 3f
       0.31666157 0.24288006 -1.8451483 0.7490949
0000f0 45 f8 a0 be 8d 0f 3b bf 54 7b 7d be da a4 97 bf
       -0.31439415 -0.73070604 -0.24754077 -1.1847184
000100 61 68 8d bc 8b e4 9b 3d b3 1f 78 be 45 06 01 3f
       -0.017261686 0.076119505 -0.24230842 0.5040019
000110 95 48 65 bf 87 e8 6f bc 6b 9d df bd 71 5f 71 bf
       -0.89563876 -0.014642841 -0.10918697 -0.9428626
000120 bd a3 a0 be 3f 2c 99 bf 8d 43 bd be be 1a a3 be
       -0.31374922 -1.1966628 -0.369656 -0.3185634
000130 19 0b 8a 3f ba 00 52 c0 d0 97 b3 bc 04 ce e0 be
       1.0784637 -3.2812943 -0.021922976 -0.43907177
000140 9f 2d 1f 3f a2 11 27 bf 49 42 19 bf 88 ff 78 3e
       0.6217899 -0.6526128 -0.5986677 0.24316227
000150 2d 93 b2 be 2d 24 05 be bd a3 9b bd d6 bd 53 bf
       -0.3487791 -0.13002081 -0.0759959 -0.8271154
000160 8d c1 0d 3f 81 dc e1 bd f2 0a 1c c0 f0 87 ac be
       0.5537346 -0.11028386 -2.438168 -0.33697462
000170 3c 3b a5 be 47 dc 8e be d1 50 a3 be a3 9b 0e be
       -0.32271755 -0.27902433 -0.31897596 -0.13926558
000180 fc 64 3a 3e b9 9d ac 3e 07 b7 f7 bf 5c b1 ac bf
       0.18202585 0.33714083 -1.935273 -1.3491626
000190 f0 fd 9d bf 5f 8c 0d 3f bb 27 81 3e 55 2a f7 3d
       -1.234312 0.55292314 0.25225624 0.12068621
0001a0 7c b7 09 c0 81 a9 7a 3d e8 24 ae 3d 85 e6 d3 bf
       -2.151824 0.061196808 0.08503133 -1.6554724
0001b0 cf 01 c3 3d 24 cd 3c bf 51 02 87 3e 48 61 be 3e
       0.09521829 -0.7375052 0.26368955 0.37183595
0001c0 7b 94 82 bd d4 d8 9f bf e9 0d 11 3f b4 7b 53 3e
       -0.06375977 -1.2488046 0.5666185 0.20652658
0001d0 d6 fb ec bd 3e a5 b0 bf 6e 27 06 3e 33 da 0c bf
       -0.115714714 -1.3800428 0.13100979 -0.55020446
0001e0 7f 8a a7 3e 59 64 92 bf 49 96 43 bf 43 1a 12 3f
       0.32722852 -1.1436874 -0.7640119 0.5707132
0001f0 f3 04 26 3f e3 f5 82 bf 5a 95 a6 3e 3d 35 c4 bf
       0.648513 -1.0231289 0.3253582 -1.5328747
000200 9f 96 06 3e ec 92 b5 be a3 f9 4c 3e 8b a0 ba bf
       0.13143395 -0.35463655 0.20017104 -1.4580244
000210 c9 9e 61 bf 7a bc e1 bf 3c f9 9c be 33 96 ce 3e
       -0.8813291 -1.7635643 -0.306589 0.40348968
000220 22 35 4e bf 4b 65 97 be c2 ac ca 3e 3c 11 ce be
       -0.80549824 -0.29569468 0.3958493 -0.40247524
000230 0b 1f 97 3d 0f ec 69 c0 f8 1a 65 be 0c 4d e1 3d
       0.07378968 -3.6550329 -0.22373569 0.11001024
000240 e4 19 e1 3e 03 ab ba bf 2d 96 bf be 9c df f1 be
       0.43965065 -1.4583439 -0.37419263 -0.47240913
000250 b4 e0 03 3e 4d 49 08 c0 6d 8f 3a be d6 a3 9c bc
       0.12878686 -2.129474 -0.18218775 -0.019121092
000260 47 47 50 3f f0 59 21 c0 7d 2e 74 3e 76 9b 19 c0
       0.8135876 -2.5211143 0.23845859 -2.4001136
000270 fc 64 81 bf b7 16 0d c0 db 3f 06 be 62 b2 bf 3d
       -1.0108943 -2.2045114 -0.13110296 0.09360196
000280 8a ca f4 be 95 9b 0f 3d 82 03 e9 3e 8e 78 6a 3e
       -0.47810775 0.035060484 0.4551049 0.2289755
000290 06 d5 80 bf f0 a1 0b c0 d0 11 71 3e b9 de 5f be
       -1.006501 -2.1817589 0.23541951 -0.21862306
0002a0 39 fc f0 be 03 b4 25 3d 58 9d d7 be 67 a8 bf 3e
       -0.4706743 0.040454876 -0.4211223 0.37433168
0002b0 31 d2 5b 3e 73 b6 00 c0 ca 75 99 3e 7a 19 15 bf
       0.214669 -2.0111358 0.29972678 -0.58242
0002c0 be 84 2e 3d dc 23 ff be 20 7a 5c 3f f0 22 1f c0
       0.04260706 -0.49832046 0.8612385 -2.4865074
0002d0 74 51 2d c0 b9 c3 94 bf 57 37 84 be 51 18 52 3e
       -2.7080965 -1.162223 -0.2582347 0.20517088
0002e0 6a 52 8c 3e e8 c8 71 be 12 88 e2 3d 04 79 3f 3f
       0.27406627 -0.23611796 0.110611096 0.7479403
0002f0 b9 57 db be d2 2a 34 c0 7d 71 e9 bc 1c 5f d3 bf
       -0.42840365 -2.8151135 -0.028496498 -1.65134
000300 8d 58 98 3e 4c 42 b7 be 6f 7a 17 c0 06 03 9c 3e
       0.2975506 -0.35792768 -2.3668478 0.30471057
000310 e1 f0 3c 3f 02 63 08 c0 42 fd b3 be f2 99 48 bf
       0.7380505 -2.131043 -0.35154158 -0.783599
000320 84 85 8b bf bf c0 dc 3d 82 3a c9 bf 38 56 78 be
       -1.0900121 0.10778951 -1.572098 -0.2425164
000330 88 ba 5f 3f 2a 67 37 3d 86 a9 2b 3e f9 34 2f bf
       0.87394 0.04477612 0.16763887 -0.68440205
000340 80 3f 8a bf f5 54 27 bf 84 17 35 3f b3 9d 2a c0
       -1.0800629 -0.6536401 0.70739007 -2.6658752
000350 d0 19 06 bf b6 4b 9d bf fa 19 54 3e 90 7a 0b 3f
       -0.52383137 -1.228873 0.20713034 0.5448389
000360 37 27 f6 bd 45 3f d3 3e fe e8 c0 3d c6 0f c7 bf
       -0.120191984 0.41259208 0.0941944 -1.5551689
000370 8c a0 31 c0 ad f1 b9 be 01 24 a8 3d af a2 8c 3e
       -2.775424 -0.36317196 0.08209992 0.27467868
000380 5c 73 94 3e c9 be b5 bf 32 27 e6 bf 7e 2b d4 bf
       0.28994262 -1.4198848 -1.7980711 -1.6575773
000390 66 f2 55 3f 75 82 6b 3e e0 47 16 3e 58 4e 51 be
       0.83572996 0.22998984 0.14675856 -0.20440042
0003a0 d6 2d b5 be 1d ec 16 3b 46 8d 46 bf ee 53 73 bf
       -0.35386533 0.0023028918 -0.77559316 -0.9504994
0003b0 b7 9c b8 3e 47 7e 7d bf 6d da cc bd 79 eb 30 3e
       0.36057064 -0.9902081 -0.10002599 0.17277326
0003c0 bd e2 4b 3e 66 c1 0f bf e2 20 db 3e af 85 51 3e
       0.19910713 -0.5615448 0.42798525 0.20461152
0003d0 30 6d 1a c0 47 4c 54 bf 90 68 22 be 71 b3 83 be
       -2.4129143 -0.8292889 -0.158602 -0.2572284
0003e0 80 34 c5 3d 3e b3 12 3e 37 d6 33 bf db 8a 63 be
       0.09629154 0.14326188 -0.7024874 -0.22220938
0003f0 96 4c 84 bf d5 09 45 bf f8 cd 6c 3d bb 14 fa 3d
       -1.0335872 -0.7696813 0.057813615 0.12210985

l3.bias f4 [39]
000000 df 44 d1 ba eb 70 26 3e 34 99 2c 3e 5d f7 89 3e
       -0.001596596 0.16254012 0.16855317 0.26946536
000010 78 c2 97 3e e2 af 54 bf e7 dc e7 be 51 c1 56 be
       0.29640555 -0.83080876 -0.45285723 -0.20972182
000020 cf 4e 20 bf 81 88 da bd 27 92 fc be 0f 37 6a be
       -0.6262025 -0.10670567 -0.49330255 -0.22872566
000030 8a 21 87 be 59 53 d8 bd 40 92 9e be 7e 2d fd be
       -0.26392776 -0.10562772 -0.30970955 -0.4944877
000040 da 35 a4 3d c9 c2 17 bf d0 d1 cc be 2f 90 d1 be
       0.08018084 -0.59281594 -0.40003824 -0.40930316
000050 46 d1 05 bf 71 80 96 be 3f 2a 8d 3e e6 60 17 3e
       -0.5227245 -0.29394868 0.27571294 0.14783058
000060 c5 16 9b 3e e3 73 1b be 9d 80 a6 be 1e 97 05 be
       0.3029081 -0.15180926 -0.3252 -0.13045928
000070 e3 e0 10 bd 61 c3 ea bd 6b 35 ee be eb 07 72 be
       -0.03537072 -0.11463047 -0.4652513 -0.23635833
000080 27 77 f3 3c ee 66 a3 3e 53 a8 3d 3e c0 3a c9 3e
       0.029719902 0.31914467 0.18521242 0.39302635
000090 97 98 24 bf 8f 79 7a 3f 35 11 06 3f
       -0.64295334 0.97841734 0.52370006
