Backed_Draft_01/data.pth (torch, 16234 bytes, 6 tensors)

l1.weight f4 [8, 178]
-0.03536619 -0.056449443 -0.0019085904 -0.027302125 -0.040457197 -0.042240117 0.019432299 0.03893899
0.023795247 -0.0046688416 -0.035418283 -0.049833782 0.06685673 -0.04650214 -0.03572725 0.034094878
0.004173115 0.049427852 -0.00045961142 -0.016608875 0.007546693 -0.040860195 -0.022794005 0.07223527
0.023633651 -0.06271254 0.073310636 0.061114997 0.047453783 0.013109244 0.0671283 -0.008335985
0.01283823 0.03877143 0.0671117 -0.06340183 -0.029599905 0.048632815 -0.025936339 0.010207057
0.04691387 -0.014751091 -0.007070318 -0.0662375 -0.02181432 -0.039711837 -0.020010374 -0.065697245
-0.05493912 0.03402792 -0.045412555 -0.05379043 -0.0428171 0.025172286 0.045147993 -0.029055951
-0.03768262 0.06598005 0.07403611 0.03730011 0.014998713 0.02700748 0.02350679 0.0121304095
-0.060755335 0.01764954 -0.035659503 0.062498733 -0.044127624 0.035067797 0.051407684 -0.066160336
0.013533317 -0.037924755 0.047663838 0.00036417693 -0.051031537 -0.04998242 0.029783174 -0.01747838
0.060878083 0.07241571 -0.071527876 -0.07364195 0.047965996 -0.021365367 -0.0044336496 -0.0036437812
-0.022712078 -0.022151016 0.02944953 -0.0074965805 -0.057554018 -0.0115433335 0.009893239 0.033091463
-0.06814094 -0.003682822 0.072463125 0.00562354 -0.031903327 0.01204475 -0.056644227 0.073797815
-0.05160387 0.051409975 0.041477896 0.04782176 0.046681933 -0.0039579123 -0.029626802 0.056905687
-0.020736894 -0.063431524 -0.05475638 0.07145363 -0.023679938 0.06092663 -0.05714927 0.060842425
-0.044972904 0.02831 0.0039762408 -0.025798604 -0.015508033 0.06513001 -0.0010413453 -0.016547035
0.01178167 0.05968903 0.06861858 0.06317286 0.0016101375 0.040764034 -0.023727313 0.056090757
0.054612037 0.05183269 0.06151226 -0.0011697337 0.06433612 -0.035436198 0.0013196692 -0.044269904
-0.0659865 0.018265389 0.026327642 -0.05553419 -0.038799822 -0.0053633675 -0.023614934 0.040070817
-0.016885795 0.019287629 -0.04393108 0.028853178 -0.053781085 -0.03022108 0.055056054 0.0558123
0.056185827 -0.021984588 -0.0044362694 -0.059993535 0.04520055 0.030164875 0.03494212 -0.054285474
0.017708609 -0.033707753 0.025651127 -0.0293429 0.033302456 0.02647581 -0.059215583 0.059946597
-0.0022278978 -0.0037101507 -0.3620355 0.3707066 0.31950098 0.5931187 1.2932146 0.71513313
-0.53800976 0.7147215 0.52422726 -0.4033262 -0.45218673 0.47717047 -0.72663414 0.54528034
-0.5024691 0.20843929 0.18361008 0.5978544 0.69416094 -0.91355133 1.4792186 -0.9620965
-0.4219778 -0.74029946 -0.70025426 0.9992718 -0.6779739 0.81867087 0.53037274 -0.86182576
-0.47967362 0.6731922 0.017614983 0.3083826 0.3414336 0.3862049 0.26928467 0.696546
-0.6537068 -0.1390993 -0.53852814 0.26060268 -0.59799445 -0.5716912 0.29722387 -0.45462412
-0.96972084 0.7520736 1.6469289 -0.21573412 0.9183109 1.2220823 0.9184828 1.092017
1.0516557 -0.43452585 -0.94526005 -0.49030173 0.77908504 -0.7495107 0.55121404 0.9056072
1.0958635 -0.54384375 1.1358167 -0.14688544 1.1080158 0.7067905 -1.4509152 0.77242696
-0.814484 0.54528874 0.80974084 0.5573509 -0.8590187 1.0590986 -0.2976461 1.121725
00000000: 23dc 10bd 8837 67bd ab29 faba b5a8 dfbc
00000010: 72b6 25bd f903 2dbd 7c30 9f3c 7e7e 1f3d
00000020: 40ee c23c 15fd 98bb c312 11bd 821e 4cbd
00000030: 2eec 883d 0779 3ebd bd56 12bd 12a7 0b3d
00000040: a0be 883b dc74 4a3d 00f8 f0b9 560f 88bc
00000050: 404a f73b 055d 27bd 7eba babc 16f0 933d
00000060: 5c9b c13c 6f6f 80bd e323 963d b853 7a3d
00000070: e65e 423d 28c8 563c 907a 893d a893 08bc
00000080: 7057 523c cace 1e3d dc71 893d d2d8 81bd
00000090: 807b f2bc 3433 473d 7278 d4bc 803b 273c
000000a0: c228 403d 8fae 71bc 20ae e7bb 87a7 87bd
000000b0: f2b3 b2bc e1a8 22bd ccec a3bc 478c 86bd
000000c0: d807 61bd dc60 0b3d 8402 3abd 5b53 5cbd
000000d0: fc60 2fbd 1c36 ce3c 1aed 383d bf06 eebc
000000e0: 1759 1abd 8c20 873d 3ea0 973d 00c8 183d
000000f0: 29bd 753c ca3e dd3c 5091 c03c a0be 463c
00000100: 96da 78bd c595 903c b30f 12bd acfe 7f3d
00000110: 2bbf 34bd 40a3 0f3d dd90 523d 127f 87bd
00000120: d8ba 5d3c fd56 1bbd 283b 433d 00ef be39
00000130: 7206 51bd 5eba 4cbd d8fb f33c d22e 8fbc
00000140: 4c5b 793d b04e 943d 357d 92bd 97d1 96bd
00000150: fe77 443d 6c06 afbc 2648 91bb 81cc 6ebb
00000160: ae0e babc 0c76 b5bc 2440 f13c e0a5 f5bb
00000170: c3bd 6bbd 4020 3dbc 4017 223c ea8a 073d
00000180: 7a8d 8bbd 805b 71bb 8c67 943d ac45 b83b
00000190: 10ad 02bd 5857 453c c703 68bd 4f23 973d
000001a0: 945e 53bd 4493 523d bae4 293d c0e0 433d
000001b0: 8e35 3f3d 60b1 81bb e8b3 f2bc f015 693d
000001c0: 6be0 a9bc 63e8 81bd 3a48 60bd 4856 923d
000001d0: 6efc c1bc 348e 793d 5a15 6abd e835 793d
000001e0: 8235 38bd 60ea e73c 204b 823b 9857 d3bc
000001f0: 6815 7ebc e262 853d c07d 88ba a68d 87bc
00000200: e807 413c 7c7c 743d e687 8c3d c660 813d
00000210: 400b d33a 30f8 263d c85f c2bc 6cbf 653d
00000220: dfb0 5f3d 844e 543d 48f4 7b3d c051 99ba
00000230: a8c2 833d 8c25 11bd c0f8 ac3a 5c54 35bd
00000240: ee23 87bd 4ca1 953c 11ad d73c d277 63bd
00000250: 90ec 1ebd 30bf afbb 1b74 c1bc 4c21 243d
00000260: 1454 8abc 1701 9e3c 13f1 33bd 805d ec3c
00000270: 8e49 5cbd 3392 f7bc 7582 613d 709b 643d
00000280: 1c23 663d 0619 b4bc 205e 91bb c8bb 75bd
00000290: 3624 393d 541c f73c 781f 0f3d 725a 5ebd
000002a0: a511 913c 2411 0abd 5022 d23c 8560 f0bc
000002b0: 2868 083d cce3 d83c 0a8c 72bd 908a 753d
000002c0: ec01 12bb 0026 73bb b85c b9be 41cd bd3e
000002d0: a295 a33e a1d6 173f 0e88 a53f f712 373f
000002e0: 02bb 09bf fdf7 363f c233 063f c680 cebe
000002f0: 0585 e7be b04f f43e b204 3abf 7e97 0b3f
00000300: d1a1 00bf 1c71 553e 4804 3c3e fc0c 193f
00000310: 88b4 313f 80de 69bf 0957 bd3f f54b 76bf
00000320: 790d d8be 4484 3dbf dd43 33bf 47d0 7f3f
00000330: b38f 2dbf 6a94 513f 82c6 073f 9da0 5cbf
00000340: c897 f5be 5356 2c3f 4c4d 903c 53e4 9d3e
00000350: 63d0 ae3e a6bc c53e aedf 893e d750 323f
00000360: 5459 27bf 0c70 0ebe fbdc 09bf b76d 853e
00000370: 2a16 19bf 5b5a 12bf ba2d 983e 7ec4 e8be
00000380: a03f 78bf e587 403f 91ce d23f 68e9 5cbe
00000390: 6c16 6b3f 316d 9c3f b021 6b3f 37c7 8b3f
000003a0: a79c 863f 2c7a debe 90fc 71bf d408 fbbe
000003b0: 1e72 473f efdf 3fbf 5d1c 0d3f e0d5 673f
000003c0: 4145 8c3f 5839 0bbf 7162 913f 2369 16be
000003d0: 76d3 8d3f 39f0 343f 97b7 b9bf c6bd 453f
000003e0: 0682 50bf 0b98 0b3f 2d4b 4f3f 8cae 0e3f
000003f0: a6e8 5bbf 8b90 873f 1265 98be af94 8f3f

l1.bias f4 [8]
-0.07539363 0.9775172 1.5599313 0.9989346 1.1381378 0.4083548 0.61060965 0.541258
00000000: fa67 9abd 913e 7a3f d4ab c73f 2eba 7f3f
00000010: 80ae 913f e113 d13e ea50 1c3f e28f 0a3f

l2.weight f4 [8, 8]
-0.2461396 0.088449635 1.6891179 0.2505139 2.0439422 -1.121584 -1.0517794 1.6237019
0.075372405 0.15977293 1.8200012 -0.22335267 0.67383564 0.89557683 2.0308511 -1.801049
0.30755046 0.21698585 0.36843753 -1.1184812 0.8900126 0.5799391 1.9370081 0.7694874
0.18063244 2.4362676 1.1408315 1.0745219 0.461866 -0.50649637 -1.0248888 -0.95277816
0.2909551 -1.162079 1.2221417 -0.18682928 0.58314615 0.7112017 1.2830664 -0.96314317
-0.28178942 0.08483385 0.28493923 2.0168943 -1.8845867 1.6440299 1.5823606 1.9190952
0.26509032 -0.296032 -0.28334445 0.07008317 -0.15731615 -0.18255511 -0.2309519 0.29396787
-0.18434425 0.49950632 -0.6835343 -0.20300956 1.3308939 1.6061653 -0.84708506 0.541788
00000000: 050c 7cbe 1525 b53d 0435 d83f 5c43 803e
00000010: f3cf 0240 1190 8fbf b5a0 86bf 77d5 cf3f
00000020: d95c 9a3d 849b 233e cdf5 e83f 90b6 64be
00000030: 7e80 2c3f 8644 653f 77f9 0140 c688 e6bf
00000040: 4177 9d3e 8a31 5e3e d8a3 bc3e 642a 8fbf
00000050: ded7 633f e476 143f e2ef f73f 20fd 443f
00000060: b6f7 383e cfeb 1b40 c406 923f ef89 893f
00000070: b379 ec3e bfa9 01bf 8e2f 83bf 45e9 73bf
00000080: 11f8 943e 01bf 94bf 246f 9c3f 2d50 3fbe
00000090: 1149 153f 5111 363f 853b a43f 8d90 76bf
000000a0: b446 90be 5fbd ad3d 8ee3 913e cc14 0140
000000b0: 233a f1bf 926f d23f cb8a ca3f e9a4 f53f
000000c0: ebb9 873e 8291 97be 8612 91be c487 8f3d
000000d0: 7c17 21be baef 3abe a87e 6cbe f582 963e
000000e0: bdc4 3cbe 4bbf ff3e 1bfc 2ebf bde1 4fbe
000000f0: bb5a aa3f d396 cd3f 91da 58bf 9eb2 0a3f

l2.bias f4 [8]
1.0422915 0.7410065 -0.47512802 0.7483961 0.19484226 -0.039155286 -0.34940293 -0.8724435
00000000: cf69 853f 9ab2 3d3f fb43 f3be e396 3f3f
00000010: bb84 473e 4b61 20bd f1e4 b2be 7558 5fbf

l3.weight f4 [44, 8]
0.39695156 -0.22506279 0.10029184 -1.3229095 -0.13235724 -0.72892314 0.038966954 0.21333209
-0.62280643 -0.6566133 -0.29661012 -1.634309 -0.37851337 0.52794933 0.12172213 -0.6039405
-1.2302213 0.42996866 0.23394784 -0.91681194 0.12632729 -0.34999093 0.0048238635 -0.0014419353
0.41585934 -2.2498984 -0.75830156 -0.14160793 -0.8588677 0.08663019 0.28819087 -0.39372066
-0.07653554 -0.37511513 0.27822348 -2.413426 -0.11489908 -0.22676338 -0.045157105 0.4601168
-0.5661903 0.40743557 -0.845848 -0.42102057 0.01431909 -0.12410843 -0.21020602 0.14653668
-0.5551095 -0.06860336 -3.164628 0.46908313 -2.0388305 0.29554024 0.1396831 -0.9245806
0.12351194 -2.1733797 -2.4227586 0.3662823 -0.8585536 0.44050664 -0.14121583 -2.018002
-0.3985651 -0.073783346 -0.24654289 -0.253861 -1.4788498 -0.15839273 -0.26358223 0.4455786
-1.9081098 0.065134056 -0.46568835 -1.1532598 0.32436597 0.30710006 -0.19458681 -0.44837567
-0.3720286 0.30965412 0.3563904 -2.1346078 0.39149567 -0.7355603 0.35293308 0.34686467
-0.16377711 -0.2776194 -0.5647351 -0.00031641687 -3.1936245 0.233416 0.2747008 -0.8155564
-0.73384 0.29674423 -1.5045912 0.23513156 -0.5034603 0.16262536 -0.026168019 -2.166603
0.12846689 -0.18830447 -0.13879612 -0.56766075 -0.47790423 -0.008467555 0.2683049 -0.8086977
0.24937585 -1.7920413 -0.109677136 -1.8968807 -1.7533175 0.33941013 -0.16728282 -0.23569883
0.17255552 -0.14821523 -0.96287626 0.25448602 -0.6454645 -0.30829915 -0.12648025 -0.40824887
-2.1352673 -0.28169996 -0.32612264 -1.9142635 -0.60948133 0.5478129 0.2877573 0.16197626
-1.9202148 0.16524632 -0.007388516 0.104157165 -0.08736933 0.019907258 -0.08062351 -1.0490162
-0.7670854 0.048231695 -0.09627147 -2.16892 0.26231545 0.114997484 -0.04773143 -0.018704684
0.44379845 -0.9315176 0.3802728 -0.39512873 -2.1955762 -0.36112303 -0.215317 -0.3168301
-1.2377045 -0.344306 -2.0406415 -0.24367955 0.023452919 0.59329206 -0.32085493 -0.6326709
-0.030409284 0.2753553 0.12006874 -1.0262473 0.2587984 -0.45836526 -0.2165824 -0.57697994
-2.1753912 0.04673674 -0.31186494 -0.09067352 -0.18633121 -0.050530903 0.0360319 0.35352993
0.24745284 0.05261379 -3.1073425 0.43201828 -3.0468545 -0.4041814 0.2625769 -0.28413734
-1.7385987 -0.38589856 -0.15532868 -0.055871498 -2.0736465 0.34252903 -0.18206659 0.010663464
-0.4010496 -2.1388557 -0.14940065 -0.10414544 -1.2265906 0.04555076 -0.32232797 0.45610043
-0.57898533 -1.4523237 -1.9964025 0.14384642 -1.371278 0.41837353 -0.20533729 0.183497
-0.9308661 -1.299908 -1.0982909 -1.2381101 -1.4867114 0.558247 0.036859244 0.6377288
-0.84850246 -0.2937671 0.23776238 -1.2723001 -0.7778998 0.098842606 0.22941622 0.4811266
0.44618317 -1.4940332 -2.5628836 0.43069145 -1.5583438 -0.1035628 0.2541723 -0.346454
-0.44796622 0.2056323 -0.20591554 0.30260274 -2.4682615 -0.43278852 0.08882278 -0.35640514
-0.14342037 -0.379561 -0.9281363 0.60660595 -1.8366952 -0.7232694 0.20601693 0.019043924
00000000: 3c3d cb3e dc76 66be cf65 cd3d 1955 a9bf
00000010: a888 07be b59a 3abf d09b 1f3d ba73 5a3e
00000020: 3e70 1fbf cf17 28bf 48dd 97be 0a31 d1bf
00000030: 81cc c1be b027 073f 7449 f93d d89b 1abf
00000040: e477 9dbf da24 dc3e 0690 6f3e 30b4 6abf
00000050: f15b 013e 0332 b3be 8011 9e3b 52ff bcba
00000060: 84eb d43e 56fe 0fc0 0d20 42bf ab01 11be
00000070: c1de 5bbf 2b6b b13d c18d 933e c195 c9be
00000080: aabe 9cbd 170f c0be 4f73 8e3e 9275 1ac0
00000090: 3550 ebbd a934 68be a8f6 38bd 6e94 eb3e
000000a0: d9f1 10bf 659b d03e 7f89 58bf 0290 d7be
000000b0: 9e9a 6a3c 902c febd 3f40 57be b60d 163e
000000c0: a81b 0ebf eb7f 8cbd 4489 4ac0 aa2b f03e
000000d0: 337c 02c0 0d51 973e 1609 0f3e 50b1 6cbf
000000e0: d4f3 fc3d a718 0bc0 7a0e 1bc0 5b89 bb3e
000000f0: 2bca 5bbf 168a e13e e29a 10be f226 01c0
00000100: ba10 ccbe b91b 97bd bd75 7cbe 12fa 81be
00000110: f34a bdbf b431 22be 40f4 86be e122 e43e
00000120: f13c f4bf 0165 853d b46e eebe 049e 93bf
00000130: 4c13 a63e 383c 9d3e c441 47be 7f91 e5be
00000140: 887a bebe fc8a 9e3e cd78 b63e 6a9d 08c0
00000150: 1f72 c83e ae4d 3cbf a5b3 b43e 3f98 b13e
00000160: 30b5 27be 2124 8ebe 7b92 10bf c1e4 a5b9
00000170: 5864 4cc0 9b04 6f3e 95a5 8c3e 4ec8 50bf
00000180: f0dc 3bbf dcee 973e 7296 c0bf 54c6 703e
00000190: c6e2 00bf 4387 263e 505e d6bc a0a9 0ac0
000001a0: d38c 033e e3d2 40be 9220 0ebe 3752 11bf
000001b0: ddaf f4be 80bb 0abc 435f 893e d006 4fbf
000001c0: 625c 7f3e 9c61 e5bf 689e e0bd fdcc f2bf
000001d0: b56c e0bf 2ac7 ad3e 304c 2bbe 095b 71be
000001e0: 65b2 303e bcc5 17be 0f7f 76bf fe4b 823e
000001f0: 293d 25bf 63d9 9dbe 0a84 01be ff05 d1be
00000200: 38a8 08c0 fa3a 90be 8cf9 a6be 9606 f5bf
00000210: f806 1cbf 773d 0c3f ed54 933e 1bdd 253e
00000220: 99c9 f5bf 5536 293e 5d1b f2bb 5a50 d53d
00000230: b1ee b2bd 8c14 a33c f01d a5bd 2a46 86bf
00000240: b55f 44bf 998e 453d fa29 c5bd 96cf 0ac0
00000250: 364e 863e cd83 eb3d 0882 43bd 913a 99bc
00000260: 8d39 e33e f077 6ebf 1eb3 c23e 504e cabe
00000270: 5284 0cc0 1ee5 b8be 0f7c 5cbe 8e37 a2be
00000280: 1a6d 9ebf e048 b0be df99 02c0 2287 79be
00000290: 5620 c03c fde1 173f 1947 a4be b8f6 21bf
000002a0: e41c f9bc 5ffb 8c3e 99e6 f53d 125c 83bf
000002b0: 3981 843e daae eabe c7c7 5dbe f5b4 13bf
000002c0: 9c39 0bc0 066f 3f3d c3ac 9fbe 0ab3 b9bd
000002d0: 9ccd 3ebe 7ef9 4ebd 3096 133d e001 b53e
000002e0: 4764 7d3e 8f81 573d b3de 46c0 8031 dd3e
000002f0: aaff 42c0 ddf0 cebe 7b70 863e 737a 91be
00000300: 678a debf 7f94 c5be 7b0e 1fbe 83d9 64bd
00000310: a0b6 04c0 f75f af3e aa6f 3abe cfb5 2e3c
00000320: 6056 cdbe 03e3 08c0 7cfc 18be 344a d5bd
00000330: ec00 9dbf 6f93 3a3d 2c08 a5be ff85 e93e
00000340: 6238 14bf bee5 b9bf 1e8a ffbf 7a4c 133e
00000350: 0a86 afbf 0e35 d63e f043 52be a3e6 3b3e
00000360: 3e4d 6ebf 6363 a6bf cc94 8cbf 647a 9ebf
00000370: 8f4c bebf 47e9 0e3f b8f9 163d 3242 233f
00000380: 7537 59bf a468 96be fb77 733e bbda a2bf
00000390: 7124 47bf fe6d ca3d 16ec 6a3e 3a56 f63e
000003a0: 1f72 e43e 7b3c bfbf 4906 24c0 9783 dc3e
000003b0: cf77 c7bf bc18 d4bd df22 823e 6b62 b1be
000003c0: d45b e5be 4691 523e 86db 52be bfee 9a3e
000003d0: fff7 1dc0 7596 ddbe b8e8 b53d bc7a b6be
000003e0: cadc 12be d255 c2be 579a 6dbf 874a 1b3f
000003f0: d418 ebbf 2f28 39bf 1af6 523e 0102 9c3c

l3.bias f4 [44]
0.20193183 -0.0322045 -0.04194706 -0.028046032 0.32323626 -0.37570226 -0.15854333 -0.2804757
0.02981334 -0.47467262 -0.05801418 -0.12750246 0.1207965 -0.1507337 0.2711389 -0.46160817
0.30034944 -0.17359829 -0.21507184 0.21472454 0.3327445 0.08015322 0.11729128 -0.40611833
0.14851025 -0.3703807 0.2828917 0.013950181 -0.25190517 -0.23827112 -0.2041389 -0.2657085
-0.5558989 0.014955878 -0.57650584 0.33713326 -0.20312265 0.19454679 -0.12771685 0.13219175
0.88746506 0.34849083 -0.011421011 0.20647559
00000000: 38c7 4e3e dee8 03bd aed0 2bbd cbc0 e5bc
00000010: 397f a53e 0c5c c0be 2f59 22be 839a 8fbe
00000020: 1b3b f43c 4a08 f3be 47a0 6dbd 0190 02be
00000030: 2864 f73d ef59 1abe b8d2 8a3e e857 ecbe
00000040: 67c7 993e c0c3 31be cb3b 5cbe c0e0 5b3e
00000050: 7d5d aa3e 5f27 a43d 6936 f03d beee cfbe
00000060: 1213 183e 8aa2 bdbe 2ed7 903e 4d8f 643c
00000070: b7f9 80be 58fd 73be ca09 51be f20a 88be
00000080: 644f 0ebf 8009 753c e395 13bf bb9c ac3e
00000090: 62ff 4fbe 4637 473e 35c8 02be 465d 073e
000000a0: e930 633f 646d b23e 311f 3bbc 566e 533e
