Backed_Draft_01/data.pth (torch, 15082 bytes, 6 tensors)

l1.weight f4 [8, 155]
000000 b0 ad d7 3d 10 b8 a2 3e 9e fd 47 3e e1 c3 82 be
       0.10531175 0.31781054 0.19530341 -0.2554007
000010 f1 e6 5a bf a9 8d 49 3e e6 8d cc 3e 24 e0 be 3e
       -0.8550864 0.19682945 0.3995201 0.3728038
000020 7e b4 83 be 3f aa d0 3e 87 ee d8 3e 64 6f 3f bf
       -0.25723642 0.40754887 0.42369482 -0.74779344
000030 be 9e db 3e 3c bf bc 3e 28 d4 6c be 3f 9e 5d 3f
       0.42894548 0.3686465 -0.23127806 0.8656959
000040 d1 18 9a 3e ac 1f af 3e fa 78 4a bf 39 38 0b bd
       0.30097058 0.3420385 -0.79090846 -0.033989165
000050 da 7e 51 bf 1d a0 cf be cc 1b 0d 3f 27 78 05 3f
       -0.81834185 -0.40551844 0.5512054 0.5213646
000060 69 0f 5f 3f 91 92 31 bf 5c cf 51 3d df 45 3a bf
       0.8713289 -0.6936427 0.051223144 -0.72762865
000070 70 d7 f8 be eb 8e 0d be 6a 9d 31 3f b9 44 46 be
       -0.48601866 -0.1382405 0.6938082 -0.19362153
000080 17 ff 88 3e a6 b9 5d 3e 52 f8 0b 3f 0a 95 15 bf
       0.26757118 0.2165285 0.5467578 -0.5843054
000090 b7 f8 06 3f 83 94 81 3e b2 47 5a 3f 98 03 16 be
       0.5272326 0.25308618 0.8526565 -0.14649808
0000a0 ef 91 9b 3e e1 c5 06 3e a4 6b f9 3e 19 93 05 3f
       0.30384776 0.13161422 0.48714936 0.5217758
0000b0 b5 38 00 bf b8 36 1b 3f b1 bd 44 3f 49 d2 84 be
       -0.5008653 0.6063037 0.76851946 -0.25941685
0000c0 36 8c 2c bf 12 18 d9 bc 5a 38 10 3f 3c 86 b9 3c
       -0.67401445 -0.026500735 0.56335986 0.022647016
0000d0 06 68 ef 3e d5 92 5e 3d a4 f9 25 3e 76 e9 16 3f
       0.4675905 0.05433925 0.16208512 0.58949983
0000e0 0f 07 03 3f c1 31 06 3f c0 93 44 3f 29 78 73 bf
       0.51182646 0.5241967 0.7678795 -0.95105225
0000f0 b5 40 cb 3e 50 39 06 bf 1a 93 49 bd 88 f8 f5 3d
       0.39697805 -0.524312 -0.049212553 0.12010294
000100 e8 ec a6 3e 38 c7 4a be 7b 38 3f 3f e4 66 0d 3f
       0.3260262 -0.19802558 0.7469556 0.55235124
000110 ba 46 34 3f b4 c4 2e 3f 5c a5 c2 3e 13 df 4f 3f
       0.7042042 0.68268895 0.38016784 0.8119976
000120 57 2e 11 3d f1 9b 48 3f 30 cc 14 3f 38 35 1f be
       0.035444584 0.7836295 0.58124065 -0.15547645
000130 78 76 2d bf 84 3c 40 3e 3a f4 fe bd 11 a7 15 3f
       -0.67758894 0.18773085 -0.12448926 0.5845805
000140 b1 bc 00 bf bb 9e 4d be 43 2d a1 3e 7c a8 90 3d
       -0.5028792 -0.20080082 0.31479844 0.07063386
000150 7d df b8 3f 7c 92 20 bf 6f d7 a4 3e 54 57 6b 3d
       1.4443203 -0.6272352 0.32195613 0.05745633
000160 ca 01 38 bf 7b 38 35 b9 67 88 0b bf 92 94 32 bf
       -0.7187773 -0.00017282546 -0.5450501 -0.6975795
000170 84 a5 5b bd bd fc 5a be 59 7c c0 3e c6 14 30 be
       -0.053624645 -0.21385475 0.3759487 -0.17195424
000180 4f 9f 1d 3f 8f c6 39 bf 54 38 8b bd 7a 27 04 3f
       0.6157121 -0.725686 -0.06797853 0.51622736
000190 19 27 23 3f 20 07 a3 3d 8c 89 f2 be 34 ad 45 bf
       0.63731533 0.07960343 -0.47370565 -0.7721741
0001a0 36 b5 85 3f 04 59 e5 3e 5e 2a 33 3f 4d 73 12 3f
       1.0445926 0.44794476 0.6998652 0.57207185
0001b0 3e cb 11 bf dc 6c 13 3f a4 30 61 be e7 0c 24 bf
       -0.5695075 0.5758798 -0.21991211 -0.6408219
0001c0 8c fb 1c bf 3c e8 52 3f 16 a2 2f bf e8 8a 1c be
       -0.6132133 0.8238561 -0.686067 -0.15287364
0001d0 e2 b3 e5 3e e9 64 60 3c 72 de d8 be f5 b2 0d 3d
       0.44863802 0.013695934 -0.42357212 0.034594495
0001e0 85 14 3c 3f 46 17 c7 be 7c 98 47 3f 01 8b 6d 3d
       0.7346881 -0.38884944 0.7796705 0.057993893
0001f0 53 91 f3 3e c0 31 07 3f 91 8e 01 3e cf 50 94 3e
       0.4757181 0.5281029 0.12652041 0.28967902
000200 cd aa f8 3e 91 e6 9b 3d 40 75 04 be 74 91 8d 3e
       0.4856781 0.076123364 -0.12935352 0.27650034
000210 88 50 90 3e 9e 89 2f 3f 82 9f a2 bf 56 9d 13 bf
       0.2818644 0.6856936 -1.2704928 -0.5766195
000220 8c 27 11 3f 36 3f f2 3e 6a b0 43 3e ff 57 c2 3e
       0.5670097 0.4731385 0.19110265 0.3795776
000230 91 43 84 3e eb eb c6 3e 88 7e 40 bf be 58 0b bf
       0.258328 0.38851866 -0.7519307 -0.54432285
000240 2c d0 0e 3e b3 85 32 3f 45 4c 3c bf e4 e5 1d 3f
       0.13946599 0.6973526 -0.7355388 0.6167891
000250 97 bf 03 be 04 3b 24 be 32 c3 d9 be 45 80 4e 3f
       -0.12866054 -0.16038138 -0.42531735 0.80664474
000260 76 2f 8c bd e1 48 13 bd d5 10 98 be d8 b2 20 be
       -0.0684499 -0.035958175 -0.29700342 -0.15693223
000270 65 38 81 3e 33 df 84 3e aa 7b 30 bf f2 3c d7 bc
       0.25238338 0.25951537 -0.68938696 -0.026274178
000280 d9 a8 45 be b2 8b 43 3d 5e e5 46 3d b7 77 30 be
       -0.19302692 0.047740646 0.048558585 -0.17233168
000290 59 5a 4f bd 15 8c 8d bd 96 db b7 3e 29 5c 17 bf
       -0.05062327 -0.06911484 0.35909718 -0.59125
0002a0 24 ef 51 bd e8 ec be be 59 1e 02 bf ce ff 12 3d
       -0.051253453 -0.3729012 -0.50827557 0.035888486
0002b0 db d6 9e be 97 80 fd be 91 df dc be 8c 35 d5 be
       -0.31023297 -0.4951217 -0.43139318 -0.41642416
0002c0 49 c0 aa bd 7c 97 39 bf 21 d8 25 bf ca 17 a5 bd
       -0.08337457 -0.7249677 -0.6478291 -0.08061178
0002d0 13 2c e8 be 82 34 f4 bd b6 c2 48 bf 39 72 38 3f
       -0.45346126 -0.119240776 -0.78422105 0.7204929
0002e0 10 d1 ee 3b 95 8c 10 3f c4 01 2b 3f cd fe 77 3e
       0.007288106 0.5646451 0.6679957 0.24218293
0002f0 9f 3b cd be 39 1e 3a bf b6 9a 75 3e dd 40 1f 3e
       -0.4008455 -0.72702366 0.23984799 0.15552087
000300 ad 16 92 3e 8c a0 9f 3e a0 44 2c bc f7 96 b7 3d
       0.28532925 0.31177175 -0.010514408 0.08964341
000310 f2 2c 09 bb 6a be 31 3e 64 52 9a bf 7b 69 78 3f
       -0.002093133 0.17357793 -1.2056394 0.9703595
000320 32 9b 60 3f 5f e6 27 bf a1 db dc be 8d 12 3e be
       0.8773681 -0.65585893 -0.43136314 -0.18561764
000330 09 19 47 3f 2f a2 26 3e 46 dc 07 3f e1 82 2a bf
       0.77772576 0.16272806 0.53070486 -0.66605955
000340 5d ff 5f 3e b8 45 45 bd 7c b6 99 3c 02 59 96 3e
       0.21874757 -0.048162192 0.018763773 0.29364783
000350 a9 09 ab bd 2d 68 14 3f 23 ee 59 bf bc d4 c2 3d
       -0.08351452 0.5797146 -0.8512899 0.09513232
000360 62 36 68 3f e0 56 01 3e 96 53 14 be df 7a 96 3e
       0.9070798 0.12630796 -0.1448501 0.29390618
000370 6b f4 26 3f 16 f3 1e 3d fe 61 0f be 16 e4 b2 3d
       0.652167 0.038806044 -0.14002225 0.0873491
000380 8d b5 69 3d 57 6d 88 3c e4 ba 2b 3c f8 29 02 3f
       0.057057906 0.0166537 0.01048157 0.5084529
000390 98 3b f5 bc 70 17 25 be 1d 30 29 bd 69 4a ad be
       -0.029935643 -0.16122222 -0.04130565 -0.33845833
0003a0 d0 20 6b 3e ec d7 38 3f e6 b1 23 3f 80 ff 18 be
       0.22961736 0.7220447 0.63943326 -0.14941216
0003b0 fe 85 3b 3f ca cc 3c 3f 5e 66 f9 bd fe 32 c0 3f
       0.7325133 0.73749983 -0.12177728 1.5015562
0003c0 7c 85 08 bf 28 f6 43 3e e1 9e 2a be 22 11 6d bf
       -0.5332868 0.1913687 -0.1666217 -0.9260427
0003d0 39 9b e4 3e 90 77 2e 3d 21 90 fd be ec 41 8b bd
       0.44649675 0.042594492 -0.49524024 -0.06799683
0003e0 5b cd 22 3f 00 0d 9c 3e e8 bc d5 bc 0d e9 8b bd
       0.635946 0.30478668 -0.026091054 -0.0683156
0003f0 9f ad ad be 66 fd 28 3f fe 24 90 3e d8 ef 0d 3f
       -0.33921525 0.66011655 0.28153223 0.554441

l1.bias f4 [8]
000000 d0 37 06 3f 28 3e d7 3e d1 b9 22 3f bb b7 d9 3e
       0.52428913 0.4203961 0.63564783 0.42522988
000010 48 22 bb 3f 3e 98 f7 3e c0 77 4b 3f fc cf 9b 3f
       1.4619837 0.4835834 0.794796 1.2172847

l2.weight f4 [8, 8]
000000 c7 35 9a be e8 24 6d 3e 1f 5f 07 3f 29 ec 95 3d
       -0.30119154 0.2315861 0.5287952 0.073204346
000010 5e 0d 29 bf 12 a5 b7 be 5e f8 93 be 75 91 44 be
       -0.6603602 -0.35868126 -0.28900427 -0.19196112
000020 c0 fd 23 bf 62 62 a5 bd 7c 34 97 3f 0a 05 1f 3f
       -0.64059067 -0.08075406 1.1812892 0.62117064
000030 1e 97 03 3f 16 96 3e bf 14 3b 91 bf 35 ae 23 3f
       0.5140246 -0.7444776 -1.1346154 0.63937694
000040 86 69 67 3f 9f d3 b5 3f bd 96 13 bf f1 d4 80 bf
       0.9039539 1.4205207 -0.57651883 -1.0064985
000050 23 32 e8 3f e9 1d 20 bf ae b0 8f 3e 56 b3 fb 3f
       1.81403 -0.6254564 0.28064483 1.9664104
000060 ad 32 82 bf 23 ee a7 bf d7 40 64 3f a3 6a 3d be
       -1.0171715 -1.3119549 0.8916144 -0.1849771
000070 94 7e a7 bd ba ef a0 3e 89 cb 11 3f a7 fe 5d 3f
       -0.0817844 0.31432897 0.56951195 0.86716694
000080 59 ef 80 bf 57 f2 a9 bf 51 97 8d 3e bf c7 97 be
       -1.0073043 -1.3277081 0.27654508 -0.29644582
000090 67 eb 95 3f 22 61 87 3f 1b 88 9c 3f c2 a2 c5 3f
       1.1712464 1.0576518 1.2229036 1.5440295
0000a0 a9 a5 f0 3f e3 2b 26 bf 30 95 01 40 2a 9f 47 3e
       1.8800555 -0.64910716 2.0247307 0.1949431
0000b0 b2 6c dc 3f 66 a4 f7 be 45 2f 21 3e ab ee cb bf
       1.7220671 -0.48367614 0.15740688 -1.5932211
0000c0 2e d2 bf bd 6a f1 4e 3f 13 ac 20 bf d3 30 ad 3f
       -0.093662605 0.8083712 -0.62762564 1.3530525
0000d0 8b c6 83 3f e6 ca 00 40 75 f1 a8 bf e3 99 7d 3f
       1.0294966 2.012384 -1.3198687 0.9906294
0000e0 68 4c 22 bf 7e 49 a0 3f 1f 68 a7 3e 55 6b b0 3f
       -0.63397837 1.2522428 0.32696626 1.3782755
0000f0 3d d6 70 bf 4f e0 5e 3f f7 90 b7 3f 1e ad d5 be
       -0.940769 0.8706102 1.4341115 -0.4173364

l2.bias f4 [8]
000000 fe fd ff bc 63 a1 ff 3e 03 0b 37 3f 03 69 6b be
       -0.031249043 0.49927816 0.7150118 -0.22989278
000010 4d 34 40 3f 7a e4 05 3f 34 77 46 3e 0b b2 89 bd
       0.75079805 0.5230175 0.1938141 -0.06723412

l3.weight f4 [41, 8]
000000 f6 2a ce 3e dc 5d de bf 7a 44 ee bf d3 4f e0 bf
       0.40267152 -1.7372394 -1.8614647 -1.752436
000010 90 1c d3 bf ca f9 10 3f 5a 65 a3 bf e9 54 18 3e
       -1.6493092 0.5663115 -1.2765305 0.1487614
000020 af 50 93 bd 60 c0 1d c0 62 b0 f8 bf 51 d5 e2 be
       -0.071931235 -2.4648666 -1.9428828 -0.44303373
000030 dc ec bd 3e 80 2d cb bf b3 27 84 bc b1 57 98 3e
       0.37094772 -1.587326 -0.016132211 0.29754403
000040 3e 00 ec be e0 62 2e bf 3e ee db bd b4 5a 63 bf
       -0.46093935 -0.6811962 -0.107388005 -0.88810277
000050 8b ab f0 bf ac 50 aa bf 49 19 68 3d 8a f8 a3 3e
       -1.8802351 -1.3305869 0.05666474 0.32025558
000060 25 3b 05 bf 1c e4 51 bf 32 4e e2 3d 63 e4 e2 be
       -0.5204337 -0.8198869 0.11050071 -0.4431487
000070 9a c0 0c c0 4a ef e7 be 3b f5 e9 3e 50 0e 18 bf
       -2.1992555 -0.4529975 0.45694908 -0.5939684
000080 32 27 f1 bd 19 9e ed bf 9d 9f 2b 3f 4b 22 ce bf
       -0.11775054 -1.8563873 0.67040426 -1.6104215
000090 82 18 0c c0 5c ae 8e 3e 4c ee 03 c0 fc ce 7a bf
       -2.1889958 0.278674 -2.0614195 -0.97972083
0000a0 2f 80 05 bf 85 95 bf bf b2 bb 31 c0 8d eb d1 bf
       -0.5214872 -1.4967505 -2.777081 -1.6400009
0000b0 b3 d8 04 bf 4c e5 62 3c ce db 19 3e 54 8e a1 3e
       -0.51893157 0.013848614 0.15025255 0.315539
0000c0 54 d3 96 be 0e e4 15 c0 64 69 71 bf d3 36 1f bf
       -0.29458106 -2.3420444 -0.9430144 -0.6219303
0000d0 d8 4c 0e bc af 75 95 3e 99 21 ee bd 7d 59 32 bf
       -0.008685313 0.29191348 -0.11627502 -0.696678
0000e0 27 6c bf 3d dc 0c 03 c0 94 80 2d bf 99 17 f7 bf
       0.093468 -2.0476599 -0.6777432 -1.9304076
0000f0 b9 41 9f be ca 86 1b c0 0c 96 9f 3e 40 07 b9 3e
       -0.3110483 -2.4301019 0.31169164 0.36138344
000100 08 67 93 be 9f 55 b2 bf f2 48 3a 3b f0 30 4c c0
       -0.28789544 -1.393238 0.0028424826 -3.190487
000110 ba b5 60 be b5 b1 93 be 27 6c 9b 3e dd b7 93 bf
       -0.21944323 -0.28846517 0.3035595 -1.1540486
000120 92 50 a3 be 4b fb 20 be 74 42 f5 3e 47 45 3a c0
       -0.31897408 -0.1572086 0.47902262 -2.9104784
000130 3e 0d cf bf 39 68 51 3d ff 65 ac be da 53 e3 bf
       -1.6175916 0.051124785 -0.33671567 -1.7759964
000140 33 d6 a5 3d a9 92 2d bf 7e 97 5a 3b 38 a0 05 c0
       0.08097496 -0.6780191 0.0033354457 -2.087904
000150 c5 16 81 bf 64 55 21 3f 0f e4 b0 bf 0b b1 de bf
       -1.0085074 0.6302092 -1.3819598 -1.7397779
000160 fb 5c 1b c0 91 0a 50 be a6 40 87 bf ec 04 2b c0
       -2.42755 -0.20316531 -1.0566604 -2.6721754
000170 cd f1 44 bf f3 bb cb 3e ca 01 30 be f7 73 a1 be
       -0.7693146 0.3979183 -0.17188182 -0.31533787
000180 eb ac 76 3f 30 8f 86 3e ef cf f8 bf de d1 8f bf
       0.963576 0.26281118 -1.9438456 -1.1235921
000190 0a fb a5 bf 38 03 1c 3f 37 f8 c9 bf cc d5 06 bf
       -1.2967236 0.6094241 -1.5778874 -0.5266998
0001a0 52 81 0a 3e e6 aa 84 bf 41 a5 d8 be 9a fd 22 be
       0.13525894 -1.0364654 -0.4231358 -0.15917054
0001b0 38 3d de 3e c5 84 e3 3c 36 c7 0c c0 03 1a 20 bf
       0.4340608 0.02777327 -2.1996589 -0.6253969
0001c0 12 22 b0 be ea e3 a8 bf bd 94 8f bf 53 ba 0a c0
       -0.34400994 -1.3194554 -1.1217266 -2.1676223
0001d0 c9 c2 ff be 1a a3 ed be b9 d3 19 3f da 26 ab bd
       -0.49953297 -0.464135 0.6008869 -0.0835702
0001e0 91 4b 52 bd 8f 9e 1f c0 86 6f 2a 3d 02 65 2c c0
       -0.051341597 -2.4940526 0.041610263 -2.693665
0001f0 15 0f 12 bf 43 3a b6 3e 17 3a 01 bf 2a 6d 47 bf
       -0.57054263 0.35591325 -0.50479263 -0.77900946
000200 52 58 fa be c9 45 5e bf 3e 18 07 c0 8f aa 78 3e
       -0.48895508 -0.86825234 -2.1108546 0.24283813
000210 e8 cc ec 3e 89 92 3b bf d6 3f 8f bd d0 bd 03 bf
       0.4625008 -0.7327047 -0.069945976 -0.51461506
000220 9e ca d2 be 0e 28 a1 bf ae 6a e0 bf 4e a0 09 3f
       -0.4117021 -1.2590349 -1.7532556 0.5376023
000230 4f a6 0b 3f 5f 93 86 bf 7e 9d 17 c0 78 61 5c 3e
       0.5455064 -1.0513724 -2.3689876 0.21521556
000240 dc 84 db bf b6 39 8c bf f9 48 bb bd 98 fe 73 bf
       -1.714992 -1.0955112 -0.09144778 -0.95310354
000250 69 af d5 bf 71 6f 22 3d 67 66 e8 bf 66 b8 b0 3d
       -1.6694156 0.03965706 -1.8156251 0.08628921
000260 84 60 27 3e 48 79 f5 3e 4f dd 57 be bc 10 07 3f
       0.16345412 0.47944093 -0.21080516 0.5275991
000270 1a 09 23 3f 09 0b b7 bf 90 5e f9 bf cf 33 4a bf
       0.6368576 -1.4300243 -1.9481983 -0.78985304
000280 67 76 7f be 90 95 f4 bf 91 2e 68 be ae 03 eb bf
       -0.2494751 -1.9108143 -0.22674014 -1.8360498
000290 fc 54 ee 3e b7 14 81 bf d1 75 08 bf a1 5e 76 bd
       0.46549213 -1.0084447 -0.53304774 -0.06014884
0002a0 f9 6e 75 be 23 dd 8c bf 7a 36 13 bd e7 d1 ab bf
       -0.23968114 -1.1004986 -0.035940625 -1.3423432
0002b0 19 2c 36 bf de 20 f9 bf f2 78 29 3f 52 22 f9 be
       -0.7116104 -1.9463155 0.6620017 -0.48658997
0002c0 f5 cb b3 be 9f 36 fc bf 34 fe 25 3f 70 a0 a9 bf
       -0.35116544 -1.9704169 0.6484101 -1.3252087
0002d0 4c bb b6 bf 17 d8 b2 bf e6 38 87 3e 3d df a4 bf
       -1.4275908 -1.3972195 0.26410598 -1.2880627
0002e0 26 5e 69 be 56 0e 4f bf 41 f9 f2 be fa 04 2a c0
       -0.22789821 -0.8088125 -0.4745579 -2.6565537
0002f0 51 e2 dc bf 91 ec 01 3f 55 e8 d4 3e fb 36 c3 bf
       -1.7256566 0.50751597 0.41583505 -1.5251154
000300 57 c2 86 bf a4 13 92 bf ae db 17 c0 4d 2c 5f be
       -1.0528058 -1.1412244 -2.3727832 -0.21794243
000310 7d 70 e5 3e 3d 97 24 3f fe 84 1c c0 53 f3 4c bf
       0.44812384 0.6429327 -2.4456172 -0.80058783
000320 ea c7 c8 be 51 77 b6 3b 8b de 87 bf b4 3c d9 3e
       -0.39215022 0.005568423 -1.061479 0.42429125
000330 3e d0 c7 be f7 ad f8 3e bd 41 a0 bf 48 3d cc bf
       -0.39026064 0.48570225 -1.2520062 -1.5956202
000340 1f cd 97 bd 65 24 43 c0 82 45 16 c0 4d a3 ab bd
       -0.074121706 -3.0490963 -2.3479924 -0.083807565
000350 bf 3c 92 3e ea 0c a5 3d 60 f4 89 bf 8e 2e 02 3c
       0.2856197 0.08059104 -1.0777702 0.00794567
000360 f5 87 95 3d 67 82 ae be 47 e0 87 bf 41 62 bc 3e
       0.07301322 -0.34083864 -1.0615319 0.36793712
000370 94 8f 51 3e 7d 1a cd bf 14 94 ed 3e 2e 93 90 bf
       0.20464927 -1.6023709 0.46402037 -1.1294916
000380 cb 91 ff bc 79 44 3c bf ff 5d ae bf 31 7a 9c bf
       -0.03119745 -0.7354198 -1.3622435 -1.222479
000390 03 d0 8a 3d 0a ac 84 bf 8c 77 ae bf 3c a9 35 3f
       0.06777956 -1.0365002 -1.3630233 0.70961356
0003a0 73 26 b7 be b4 9a 63 bf 6d 10 dd be 88 c9 86 bb
       -0.35771522 -0.88907933 -0.43176594 -0.00411338
0003b0 ce 1e db 3e dc e7 15 c0 30 87 80 bf 81 59 09 3e
       0.4279694 -2.3422766 -1.0041256 0.1341305
0003c0 d3 aa b6 be 3f 76 ad 3e c6 ea de bf 5e f1 a3 bf
       -0.35677204 0.33879277 -1.7415397 -1.2808034
0003d0 90 b4 1a c0 32 c4 e5 3d 3f 09 89 b8 a2 c4 44 bc
       -2.4172707 0.11219062 -6.534391e-05 -0.012009772
0003e0 e6 d1 2c bf cb e3 cd 3e 22 87 07 c0 77 c4 77 be
       -0.6750778 0.40212855 -2.1176229 -0.24196039
0003f0 fd be 11 bf 4e db 2d bf e0 f3 a2 3e 07 08 b1 be
       -0.5693205 -0.6791276 0.31826687 -0.34576437

l3.bias f4 [41]
000000 cb db d8 3e 9c f7 88 bd 4e e3 98 3e e3 24 e5 be
       0.4235519 -0.06687853 0.2986092 -0.44754705
000010 eb b9 97 3e 98 c0 2f be f9 4e 57 bb 19 1a 86 3e
       0.29634032 -0.17163312 -0.0032853468 0.26191786
000020 1b 7b 15 be 0a 61 e1 be 50 38 b6 be 18 bf 9b 3e
       -0.14597742 -0.44019347 -0.35589838 0.3041923
000030 4f 9b fb 3e 8e 93 43 be 73 d9 64 be 1b f0 9b 3e
       0.4914193 -0.19099256 -0.22348575 0.30456623
000040 c7 61 9b be 48 40 b4 3d f0 16 d8 3e fb b1 2f 3e
       -0.30348036 0.08801323 0.42205 0.17157738
000050 a3 37 97 be 13 7c 20 3e e3 35 91 3d 04 09 a8 3d
       -0.29534635 0.1567233 0.07090356 0.082048446
000060 65 28 89 be df 57 16 bd 98 33 01 3e c4 99 ee bc
       -0.2678863 -0.036704894 0.12617338 -0.029126056
000070 f3 66 da 3c c6 74 49 3e 14 25 e8 be 73 e6 bb bd
       0.026660418 0.19673452 -0.45340788 -0.09174814
000080 cc 03 d4 be bc 23 2c 3e e0 73 8f be 9c b8 cd be
       -0.41409147 0.16810507 -0.28018093 -0.40179908
000090 25 be 01 be af 2c ea 3e 72 5a f8 bd aa d5 2c 3e
       -0.1267019 0.45737216 -0.12126626 0.16878381
0000a0 bd 06 8d bd
       -0.06886051
