Backed_Draft_01/data.pth (torch, 13674 bytes, 6 tensors)

l1.weight f4 [8, 152]
0.15025426 0.13719755 0.06519453 0.5361465 0.27829006 0.7960114 0.2815892 0.7580402
-0.5706371 -0.39959532 0.195597 -0.53874755 -0.15155801 0.42658752 -0.4681117 -0.5706309
-0.017478982 -0.5653943 0.79174584 0.018566137 0.012988287 -0.17268932 0.8816982 0.5950082
1.0390513 0.49890822 -0.003323039 0.55401105 0.8156884 -0.15907899 0.07013883 -0.45545518
0.06329855 0.70450425 -0.065460116 0.11220505 0.76369053 0.66237867 0.1480107 -0.37683153
0.5858375 -1.3134083 -0.7821826 0.84562063 -0.58652365 -0.45106596 0.20112069 0.7434452
0.048622508 0.18381892 -0.0200129 0.0059231594 0.0055788266 -0.18437523 -0.29518923 -0.016095787
-0.265343 0.60018224 1.4971377 0.7792472 1.6054562 0.6501575 1.0073315 0.27172798
0.088033624 -0.37113822 0.8852697 0.41667527 0.9028164 0.85594857 0.20609117 -0.24266067
-0.12580828 1.2092547 0.76338625 -0.44940576 0.07436901 -0.37720674 -0.027972598 0.55281085
-0.384745 0.40570766 1.2682738 0.858786 0.5258335 0.69344336 0.761568 0.60601324
0.7413298 0.77701885 0.6037967 -0.11529666 1.0438974 0.8479423 0.80302244 0.44359404
-0.43487716 0.7049364 -0.094097555 0.014767636 0.010716567 -0.47329614 -0.20264219 0.5217822
0.87718403 0.5255194 -0.071272634 -0.04071466 0.106477566 -0.069637164 0.41879508 0.51915073
1.0975306 0.15385106 -0.842416 0.8307477 0.19902037 0.22136529 -0.3840402 -0.0060848515
-0.23897001 -0.54908186 0.7780497 -0.020731036 -0.71194637 0.10168504 -0.59475267 0.6349224
0.39091283 0.13642243 0.44502112 -0.44439718 0.591945 -0.63289696 -1.419681 0.8098231
0.7872347 0.8847775 0.36359408 0.49565595 -0.5145619 0.22020952 0.1948174 -0.39350775
-0.15074441 -0.7139554 0.7072792 -0.72214675 0.9754637 -0.015568807 0.18139741 -0.47429818
0.52365357 0.12876847 0.18696986 0.2829591 -0.012181568 -0.36353928 0.066742666 -0.3644981
-0.41256934 -0.7142635 -0.065674916 -0.052252434 -0.6570018 0.6364101 0.71940655 -0.815239
0.56115294 -0.7451969 -0.55758846 -0.46293336 -0.37555808 -0.48375592 -0.88325846 -0.89631313
-0.93702346 0.1801936 0.9505446 0.006867072 -0.70882785 0.55431163 0.22816269 0.7972483
-0.3718704 -0.65262574 0.5986743 0.16556142 0.1750325 -0.05078174 0.035053782 -0.96362495
0.6963823 1.2039741 -0.5224482 -0.28930536 0.7578756 -0.69199747 0.42805097 -0.09131658
-0.6663216 -0.8433286 0.6750204 -0.026965296 -0.38820705 0.66241795 0.4475757 0.7469272
-0.4158178 -0.20934233 -0.5185417 -0.37952042 1.2565155 0.6944044 -0.96062636 -0.395902
0.17826693 -0.013097739 1.110018 0.43788505 1.0408211 1.0708027 0.033202935 -0.42987588
-0.13173304 -0.40998265 -0.11307587 0.85309315 -0.36161074 0.052053504 0.90737146 -0.9159866
-0.006016952 0.093625344 -0.88551027 -0.894521 0.07365016 -0.80990684 -0.8506128 -0.86195403
-0.6608669 -0.8838116 -0.18624048 0.5263559 -0.07533343 -0.45923772 -0.24954374 -0.019423304
0.9088118 -0.36394528 0.30628616 0.6822223 0.9275334 -0.7157841 -0.16185677 -0.8684334
00000000: 41dc 193e 847d 0c3e b684 853d e640 093f
00000010: 097c 8e3e 67c7 4b3f 762c 903e ec0e 423f
00000020: 4615 12bf c297 ccbe 944a 483e 5ceb 09bf
00000030: 0632 1bbe ae69 da3e 56ac efbe de14 12bf
00000040: 1530 8fbc aebd 10bf dbaf 4a3f 0318 983c
00000050: d3cc 543c 78d5 30be f9b6 613f 7552 183f
00000060: a2ff 843f e670 ff3e 58c7 59bb abd3 0d3f
00000070: f4d0 503f 9ae5 22be f2a4 8f3d 6c31 e9be
00000080: aca2 813d 645a 343f f40f 86bd c3cb e53d
00000090: 3981 433f a691 293f 1e90 173e 10f0 c0be
000000a0: 72f9 153f c31d a8bf 1e3d 48bf 987a 583f
000000b0: 6a26 16bf 1ef2 e6be 95f2 4d3e 6d52 3e3f
000000c0: 6528 473d 073b 3c3e 18f2 a3bc 1017 c23b
000000d0: 97ce b63b dccc 3cbe 0b23 97be 50db 83bc
000000e0: 0adb 87be 8ba5 193f 35a2 bf3f bf7c 473f
000000f0: 977f cd3f b970 263f 3df0 803f ee1f 8b3e
00000100: f94a b43d d405 bebe 09a1 623f 7656 d53e
00000110: fa1e 673f 721f 5b3f 9009 533e 0a7c 78be
00000120: e3d3 00be dcc8 9a3f 486d 433f 8318 e6be
00000130: c84e 983d 3e21 c1be ca26 e5bc 0385 0d3f
00000140: 4cfd c4be eab8 cf3e cc56 a23f 66d9 5b3f
00000150: 069d 063f 8185 313f 1ff6 423f af23 1b3f
00000160: cac7 3d3f b5ea 463f 6c92 1a3f a820 ecbd
00000170: 6e9e 853f bf12 593f e192 4d3f c21e e33e
00000180: 38a8 debe b676 343f 38b6 c0bd f4f3 713c
00000190: 8a94 2f3c df53 f2be 6f81 4fbe 8593 053f
000001a0: 228f 603f 7088 063f 63f7 91bd 6ac4 26bd
000001b0: e910 da3d ee9d 8ebd 4f6c d63e 10e7 043f
000001c0: e27b 8c3f 228b 1d3e 93a8 57bf e2ab 543f
000001d0: ffcb 4b3e 95ad 623e eba0 c4be 6f63 c7bb
000001e0: 8eb4 74be a190 0cbf 442e 473f 22d4 a9bc
000001f0: 1e42 36bf 3f40 d03d b641 18bf 468a 223f
00000200: ba25 c83e 52b2 0b3e cfd9 e33e 0788 e3be
00000210: b589 173f 8905 22bf 1bb8 b5bf 9150 4f3f
00000220: 3788 493f c780 623f 0129 ba3e 9ec6 fd3e
00000230: 54ba 03bf 9b7e 613e 367e 473e d979 c9be
00000240: be5c 1abe c8c5 36bf 4010 353f 9cde 38bf
00000250: fdb7 793f 4f14 7fbc 3ec0 393e 36d7 f2be
00000260: 290e 063f e2db 033e 0775 3f3e 04e0 903e
00000270: 3395 47bc d221 babe 61b0 883d 7f9f babe
00000280: 4a3c d3be f9d9 36bf 9280 86bd a606 56bd
00000290: 4531 28bf c6eb 223f 072b 383f 81b3 50bf
000002a0: b8a7 0f3f 39c5 3ebf 1ebe 0ebf 9a05 edbe
000002b0: 2649 c0be dbae f7be 3a1d 62bf c774 65bf
000002c0: c5e0 6fbf ac84 383e e456 733f 2d05 e13b
000002d0: be75 35bf 5ee7 0d3f 7ba3 693e 7718 4c3f
000002e0: cc65 bebe 7b12 27bf b842 193f ef88 293e
000002f0: b83b 333e 8400 50bd 8e94 0f3d 20b0 76bf
00000300: 1c46 323f d31b 9a3f 2abf 05bf d51f 94be
00000310: 2304 423f bf26 31bf 7f29 db3e 3004 bbbd
00000320: 0d94 2abf 62e4 57bf 23ce 2c3f 53e6 dcbc
00000330: 13c3 c6be 3994 293f a428 e53e 9f36 3f3f
00000340: 12e6 d4be d65d 56be 26bf 04bf 8050 c2be
00000350: 80d5 a03f 7dc4 313f 9ceb 75bf abb3 cabe
00000360: 9b8b 363e e697 56bc 1215 8e3f 7832 e03e
00000370: a039 853f 1010 893f cdff 073d b118 dcbe
00000380: 07e5 06be 3fe9 d1be 5294 e7bd 5064 5a3f
00000390: 0b25 b9be 0e36 553d 7f49 683f 197e 6abf
000003a0: da29 c5bb a5be bf3d cdb0 62bf 54ff 64bf
000003b0: e5d5 963d 0e56 4fbf c3c1 59bf 05a9 5cbf
000003c0: 932e 29bf 7a41 62bf d3b5 3ebe 43bf 063f
000003d0: 6a48 9abd 3521 ebbe 6588 7fbe 9f1d 9fbc
000003e0: e4a7 683f 0957 babe 8ad1 9c3e 1fa6 2e3f
000003f0: d472 6d3f a03d 37bf c8bd 25be a751 5ebf

l1.bias f4 [8]
1.3554195 1.1082679 1.7726827 0.82875204 0.35171297 0.7611116 0.56744957 1.1222858
00000000: 637e ad3f b9db 8d3f 44e7 e23f 1829 543f
00000010: b913 b43e 36d8 423f 6044 113f 10a7 8f3f

l2.weight f4 [8, 8]
0.07658423 -1.0611583 1.2095232 -1.2686516 1.4806652 0.03988421 2.11678 0.3045209
2.5799801 1.9315205 2.20471 -0.5961276 -0.0065200366 0.6555931 -1.0328447 -0.6027336
0.95565706 -0.5320732 -0.7098747 0.4375052 1.717786 2.6573992 -0.5643752 2.287339
-1.3774729 2.20881 1.1411891 -1.3522247 -0.7217925 -0.53785455 0.5027965 1.3823932
-0.18308039 0.020857424 -0.31746557 -0.202733 -0.350927 0.33078268 -0.009732664 -0.16225934
2.2399018 -1.3437262 0.9316228 1.8131621 -1.8212788 -0.8243957 1.0246994 0.69928986
0.2104048 -0.34558865 -0.18457393 -0.088093944 -0.2094101 0.20044307 -0.21472897 -0.13295595
-0.83529073 1.5462219 0.59380466 2.6502163 1.321177 -1.3704282 -0.70136434 0.8736199
00000000: 31d8 9c3d 09d4 87bf a8d1 9a3f 2d63 a2bf
00000010: 7086 bd3f a05d 233d 5379 0740 2aea 9b3e
00000020: 651e 2540 103c f73f f819 0d40 d29b 18bf
00000030: 08a6 d5bb f3d4 273f 4134 84bf c04c 1abf
00000040: f1a5 743f f335 08bf 59ba 35bf ae00 e03e
00000050: 69e0 db3f d412 2a40 e57a 10bf c363 1240
00000060: 0851 b0bf 255d 0d40 7c12 923f b315 adbf
00000070: 65c7 38bf d6b0 09bf 45b7 003f 43f2 b03f
00000080: 6d79 3bbe 30dd aa3c d98a a2be 3d99 4fbe
00000090: b4ac b3be 595c a93e c075 1fbc 5027 26be
000000a0: 8d5a 0f40 38ff abbf d57e 6e3f b215 e83f
000000b0: aa1f e9bf 990b 53bf 5a29 833f a904 333f
000000c0: 5b74 573e fff0 b0be f300 3dbe 996a b4bd
000000d0: 9a6f 56be f340 4d3e e9e1 5bbe 9b25 08be
000000e0: 9dd5 55bf 99ea c53f 9503 183f 259d 2940
000000f0: 541c a93f 316a afbf 9d8c 33bf 8ea5 5f3f

l2.bias f4 [8]
0.040610336 0.7990056 0.17474979 0.9724461 -0.17494772 0.69551253 -0.30141893 0.24716286
00000000: 0657 263d a28b 4c3f 9cf1 323e 3af2 783f
00000010: 7f25 33be 1c0d 323f 9553 9abe 4318 7d3e

l3.weight f4 [37, 8]
0.012470797 -0.5610712 -0.5331811 0.19877394 -0.16751091 0.25210243 0.06522092 -2.3666167
-0.15596652 -2.106764 -1.4823877 -0.15080085 -0.2060003 0.673712 0.045490034 0.2837342
0.22509319 0.06339189 0.19834982 -0.81405306 -0.2581519 -2.0265927 -0.08092233 -0.74906176
-0.98920536 0.29041263 0.15886049 -0.02475999 0.25989768 -2.2499352 -0.27967402 0.5376712
-0.6401086 0.36209178 0.27662975 -0.8537687 -0.06507951 -0.99056035 -0.32359758 0.017661536
-0.05923259 -0.88755983 0.009541629 -0.6005463 0.16769782 -0.52094555 -0.30974442 0.33767483
-0.34893066 -0.1473708 -0.36559284 0.567505 0.29089144 -1.4098111 -0.3013456 0.11793153
0.2577491 -1.7347082 -0.61116195 0.47344622 0.10710883 -0.45037693 -0.25414866 -0.49684715
-1.2794528 -0.8756136 -0.839627 0.54210424 -0.2826168 0.035302673 -0.009304462 0.9081126
-1.0028934 -0.0028812874 0.5623649 0.38163748 -0.1420101 -1.5800517 0.12425339 -0.4139655
-0.5580214 -1.9117668 -0.003524976 -1.2905262 0.25706622 0.6071552 -0.35374707 0.25979185
-0.7555932 -0.3181304 -0.21237221 0.16042356 -0.23186679 0.4086998 -0.039723758 -0.38306722
0.14352977 -1.6171333 0.20206214 -0.13479444 0.31153646 0.10909952 0.23424393 -2.0269186
-0.5254133 0.23729025 -2.28605 -0.15984386 0.11382514 0.15626554 0.14437552 0.3413375
0.04495332 -1.3430936 0.5005362 0.6358493 0.20324364 -2.0139365 0.13551275 -1.4176902
0.0697468 0.48908386 -0.5742641 -0.36450818 -0.04719752 -0.68903947 -0.17302735 -0.95383996
-0.03736042 -0.50590044 0.0099391565 -1.7209506 -0.2495283 0.6508654 -0.13327752 -1.4389755
0.28867352 -0.91846406 0.6135219 -1.5137511 0.3138925 -0.8890198 0.22304155 -1.763584
-0.38050988 0.0359052 0.388867 -0.12164857 -0.25908545 -0.34277195 -0.15165886 -2.3889163
-0.6112221 0.60371816 -2.20677 0.6271586 0.25202754 -2.0766523 0.13598122 0.32188436
-0.059860945 0.4278041 -2.4718494 0.1250892 0.32845733 0.21337478 -0.041960243 -2.5627913
0.09233761 -2.0032325 0.4344923 -2.271364 0.0029645562 -0.07504873 -0.044394426 -0.2913579
-0.90106076 -1.2647611 0.5005964 -1.377768 0.2885395 -0.47359186 -0.20632747 0.6765326
0.8775217 -1.1902386 -0.21897236 -1.0262783 -0.3074181 -1.5924003 -0.13005543 -0.64072996
0.48005262 -2.1722136 -2.7030506 0.7226494 0.18665549 0.24473816 0.30595356 -1.4550253
-1.9442207 -0.42928797 0.6803064 0.02838263 -0.3365675 -2.3291118 0.09245368 0.7788716
0.07815303 -0.3000057 -2.6774886 0.7967555 -0.015785903 -0.46064633 -0.1741768 -0.5093025
0.6261372 -2.15808 -0.91816473 -0.73016876 0.21288487 0.4793348 -0.056609817 -1.3043388
-0.41618058 -0.7206952 0.66628134 -0.5472058 -0.3446543 -2.2123566 -0.024183001 0.20258205
0.23767675 -0.6941311 -2.0794528 -0.11660128 -0.00085389614 0.5529761 -0.31130838 -0.97736835
-0.21895441 0.6271957 -1.5289954 -1.804217 0.32642177 0.78322995 -0.18141927 -1.7582779
-1.2118001 -0.17703843 -0.06781024 -1.7394843 -0.3375544 0.6654115 0.28952143 0.2641377
00000000: 5052 4c3c 5da2 0fbf 8e7e 08bf 658b 4b3e
00000010: fb87 2bbe 9213 813e 8c92 853d a676 17c0
00000020: b0b5 1fbe 39d5 06c0 e1be bdbf 8a6b 1abe
00000030: bef1 52be 6478 2c3f c253 3a3d 9c45 913e
00000040: d47e 663e 9bd3 813d 371c 4b3e c865 50bf
00000050: 7c2c 84be b2b3 01c0 9bba a5bd 83c2 3fbf
00000060: 903c 7dbf f7b0 943e 53ac 223e 76d5 cabc
00000070: 4f11 853e f0fe 0fc0 6f31 8fbe d2a4 093f
00000080: 28de 23bf 1864 b93e 6aa2 8d3e 9690 5abf
00000090: 6848 85bd 5d95 7dbf 95ae a5be edae 903c
000000a0: df9d 72bd 1f37 63bf 7e54 1c3c 67bd 19bf
000000b0: fab8 2b3e b05c 05bf d296 9ebe b7e3 ac3e
000000c0: 0aa7 b2be 5fe8 16be fc2e bbbe 0248 113f
000000d0: b9ef 943e b174 b4bf f849 9abe 1686 f13d
000000e0: b1f7 833e eb0a debf 1c75 1cbf 8b67 f23e
000000f0: e05b db3d ce97 e6be c61f 82be c062 febe
00000100: 1cc5 a3bf 3628 60bf ccf1 56bf 58c7 0a3f
00000110: 26b3 90be 8999 103d be71 18bc 117a 683f
00000120: d05e 80bf fbd3 3cbb 25f7 0f3f fd65 c33e
00000130: 186b 11be 223f cabf 9078 fe3d 49f3 d3be
00000140: 7eda 0ebf c6b4 f4bf 4903 67bb f62f a5bf
00000150: 2f9e 833e 866e 1b3f 561e b5be 7003 853e
00000160: 8e6e 41bf fde1 a2be 1a78 59be 1346 243e
00000170: 7d6e 6dbe 1a41 d13e 61b5 22bd 6321 c4be
00000180: 78f9 123e 39fe cebf 61e9 4e3e 8e07 0abe
00000190: b581 9f3e 926f df3d a4dd 6f3e 09b9 01c0
000001a0: 7c81 06bf 37fc 723e a54e 12c0 1cae 23be
000001b0: 281d e93d 1304 203e 2dd7 133e cac3 ae3e
000001c0: f920 383d 7eea abbf 2423 003f 05c7 223f
000001d0: 1a1f 503e 56e4 00c0 dbc3 0a3e df76 b5bf
000001e0: 69d7 8e3d 3369 fa3e f902 13bf d1a0 babe
000001f0: 3052 41bd e464 30bf 152e 31be db2e 74bf
00000200: 3d07 19bd b182 01bf d8d7 223c 1c48 dcbf
00000210: 5984 7fbe 1d9f 263f e779 08be 5930 b8bf
00000220: 04cd 933e 7620 6bbf c50f 1d3f 99c2 c1bf
00000230: 85b6 a03e cd96 63bf 0165 643e 1fbd e1bf
00000240: 31d2 c2be 5511 133d 9319 c73e e322 f9bd
00000250: d9a6 84be ce7f afbe 764c 1bbe 01e4 18c0
00000260: 0d79 1cbf 468d 1a3f b83b 0dc0 778d 203f
00000270: c109 813e dfe7 04c0 a93e 0b3e 07ce a43e
00000280: c030 75bd 2409 db3e c832 1ec0 6217 003e
00000290: 8f2b a83e eb7e 5a3e 81de 2bbd c604 24c0
000002a0: 801b bd3d f634 00c0 c675 de3e 075e 11c0
000002b0: 0049 423b 26b3 99bd eed6 35bd dd2c 95be
000002c0: ebab 66bf b1e3 a1bf 1627 003f b45a b0bf
000002d0: 73bb 933e a27a f2be 8247 53be 3e31 2d3f
000002e0: 43a5 603f bd59 98bf 4a3a 60be 165d 83bf
000002f0: e865 9dbe c6d3 cbbf 402d 05be e106 24bf
00000300: 75c9 f53e 8c05 0bc0 c8fe 2cc0 8dff 383f
00000310: 9e22 3f3e a49c 7a3e f2a5 9c3e 453e babf
00000320: 39dc f8bf a2cb dbbe 8f28 2e3f b082 e83c
00000330: 9352 acbe 2b10 15c0 5b58 bd3d 2164 473f
00000340: b20e a03d 599a 99be f95b 2bc0 2bf8 4b3f
00000350: 7051 81bc d6d9 ebbe 675b 32be a661 02bf
00000360: 874a 203f fc1d 0ac0 d80c 6bbf 57ec 3abf
00000370: 7efe 593e 5f6b f53e b2df 67bd 93f4 a6bf
00000380: 9f15 d5be 7b7f 38bf 6a91 2a3f ae15 0cbf
00000390: 8776 b0be 4097 0dc0 6e1b c6bc ab71 4f3e
000003a0: 8961 733e 93b2 31bf c115 05c0 a7cc eebd
000003b0: 00d8 5fba d78f 0d3f d063 9fbe d034 7abf
000003c0: 9635 60be e68f 203f 1fb6 c3bf 95f0 e6bf
000003d0: c120 a73e c281 483f f9c5 39be 400f e1bf
000003e0: 441c 9bbf 9049 35be 18e0 8abd 6ca7 debf
000003f0: eed3 acbe 6858 2a3f 273c 943e 0e3d 873e

l3.bias f4 [37]
-0.31113175 -0.20883344 -0.24194439 -0.42696008 -0.46663445 -0.3987193 -0.041519005 -0.30294558
-0.17035967 -0.10093857 -0.54822695 -0.25508088 -0.3509549 -0.09097797 -0.07840166 -0.023920594
-0.07377399 0.08487151 -0.34547165 0.1985664 0.18574104 0.16159786 0.09731005 0.30735156
0.0074554062 -0.0045236717 0.07055993 -0.3883025 0.011698639 -0.006531988 -0.16649605 -0.21056902
0.35565016 0.20125124 -0.2532814 0.17424881 0.19511275
00000000: a94c 9fbe 6fd8 55be 45c0 77be 839a dabe
00000010: b6ea eebe f024 ccbe d50f 2abd af1b 9bbe
00000020: c472 2ebe e2b8 cebd 9a58 0cbf f699 82be
00000030: 5cb0 b3be a852 babd 0d91 a0bd 1ff5 c3bc
00000040: d116 97bd 1dd1 ad3d a9e1 b0be fe54 4b3e
00000050: e632 3e3e e979 253e 7e4a c73d 2f5d 9d3e
00000060: 7b4c f43b 4f3b 94bb b981 903d 96cf c6be
00000070: a6ab 3f3c 490a d6bb f17d 2abe 689f 57be
00000080: c717 b63e ce14 4e3e 1aae 81be 486e 323e
00000090: a3cb 473e
