Backed_Draft_01/data.pth (torch, 53546 bytes, 6 tensors)

l1.weight f4 [8, 685]
0.09755934 1.1845032 -0.6864831 0.19255339 0.63986456 -0.26275945 -0.16424453 0.39678252
0.38876414 1.128332 -1.257884 0.4531391 -0.46794015 1.0794727 -1.2346933 0.3170353
0.18765806 -1.2364987 0.4748924 -0.056261584 1.146187 -0.16345304 0.62765545 -1.0315809
1.1769705 0.12107047 0.45216006 -1.0767894 -1.0285081 -0.6831675 -0.687117 -0.04002524
0.42542905 -1.2633419 -0.75299954 -0.7802665 -1.0147778 1.3697749 1.8594587 0.8217596
-0.5968843 -1.3320689 0.98163456 0.364204 1.0874215 0.4447814 0.00892712 0.3783731
0.32029054 1.0322788 0.96899635 -0.122923255 0.12626809 -0.47115988 -1.9182255 -0.8289623
1.1663349 1.389264 1.2804824 -0.21832466 0.5647572 1.2708441 1.3024485 -1.4298464
-0.9694907 0.44391406 1.0817722 1.5034875 0.120897405 -0.4976723 1.7947816 0.5399708
-1.0628122 -0.43154222 0.46215412 0.29689503 0.7378722 1.2177417 0.9991662 -0.9174393
0.42768547 -0.90810674 0.17449804 -1.2728577 1.2465363 0.5354536 -0.02471641 1.1709638
0.632692 -0.079757065 0.88982093 0.055181857 -1.0350134 0.3885391 -0.41593853 -0.028273026
1.1591079 -1.1885303 0.7374408 -0.47898817 0.040023364 0.053113047 1.0475624 -0.7482837
-0.40094838 0.12827577 0.42811188 1.0197376 0.022208354 -0.32091978 -1.0827501 1.1347865
-0.4453062 1.0813669 1.3102121 0.68240285 0.43859524 0.13748178 0.5929089 0.56695426
-1.7497973 0.9706698 -0.032607794 1.1147801 0.38781166 0.6626375 0.9337232 1.4756032
-0.27342737 -1.0916947 -0.49995038 -0.15326425 -0.42866606 0.74639577 0.5490991 -1.73115
0.67238826 0.35752946 0.3836211 1.1092609 -0.8617696 0.6027361 -1.164096 1.3858411
-0.6493765 1.3264318 1.4366987 -0.09765961 -0.80325365 0.45614743 -0.16614795 -0.66905266
1.0365677 0.02188554 0.87236726 -0.1429426 0.6435208 -0.6815477 0.16433305 0.6220175
-0.027612004 0.8989661 -0.023192657 0.5624071 0.24283308 -1.1281507 0.03373648 -0.38628107
1.030576 -0.629057 -1.5257279 -0.30621144 1.4945531 -0.051626097 -0.83278406 0.97695583
0.71054035 0.103248276 -0.6747786 1.3535823 -0.20660499 -0.77129525 0.93248373 -1.7868428
0.8353141 -0.8590468 2.34639 -1.3143866 -0.80528617 1.1936535 2.660517 0.18902716
-1.6746747 1.2817669 -0.27111948 1.0806167 2.3265717 0.10097436 -0.9233231 1.1809869
0.5680449 1.4189651 0.14092651 -0.8466672 0.33654243 -0.6937776 -0.03622368 -0.23318306
-0.32139397 -0.304795 -1.0717953 -0.5096008 -0.18617119 -0.3751792 -0.14442548 -1.2394652
1.0703081 -1.413531 -0.22589485 1.5993718 -0.058648724 -0.38900557 -0.70595324 -0.26389563
0.425315 0.17515717 -0.6341603 -0.08757126 1.4039911 0.29601765 1.0114294 -0.4206685
0.6104235 1.5003699 2.1002982 1.3372319 1.0970763 -1.2448475 0.92592156 0.78646064
-0.95490456 1.2382643 0.31601036 -0.6228901 0.2739021 -0.7659988 -0.80667436 -0.24517445
0.313926 -0.3466599 0.035616525 1.3082484 0.8279438 0.3896571 0.7231089 1.1033797
00000000: 31cd c73d cd9d 973f 5bbd 2fbf b72c 453e
00000010: 2ace 233f 6888 86be b82f 28be 1427 cb3e
00000020: 180c c73e 2f6d 903f 5802 a1bf d901 e83e
00000030: da95 efbe 292c 8a3f 6e0a 9ebf 7352 a23e
00000040: 6f29 403e 9745 9ebf 1925 f33e 8c72 66bd
00000050: 41b6 923f 3c60 27be 07ae 203f d80a 84bf
00000060: f8a6 963f cbf3 f73d 8681 e73e 3cd4 89bf
00000070: 27a6 83bf 11e4 2ebf e6e6 2fbf 82f1 23bd
00000080: d6d1 d93e 30b5 a1bf 94c4 40bf 8cbf 47bf
00000090: 3de4 81bf c954 af3f be02 ee3f d65e 523f
000000a0: 69cd 18bf 3c81 aabf 674c 7b3f f278 ba3e
000000b0: a130 8b3f 63ba e33e 0e43 123c 1eba c13e
000000c0: 1ffd a33e b621 843f 2510 783f 30bf fbbd
000000d0: 6c4c 013e de3b f1be 6a88 f5bf e036 54bf
000000e0: 764a 953f 67d3 b13f d9e6 a33f 8090 5fbe
000000f0: ee93 103f 05ab a23f a2b6 a63f 3505 b7bf
00000100: 8b30 78bf b448 e33e 8377 8a3f 4772 c03f
00000110: 0f99 f73d e7ce febe 67bb e53f 873b 0a3f
00000120: 3b0a 88bf 1af3 dcbe 779f ec3e a002 983e
00000130: 31e5 3c3f f6de 9b3f 5bc9 7f3f 4ddd 6abf
00000140: 97f9 da3e af79 68bf 9daf 323e 00ed a2bf
00000150: 808e 9f3f 7d13 093f 127a cabc 24e2 953f
00000160: 1af8 213f ac57 a3bd 4ecb 633f 5f06 623d
00000170: 527b 84bf 99ee c63e e5f5 d4be d59c e7bc
00000180: a65d 943f c321 98bf ecc8 3c3f f03d f5be
00000190: 8aef 233d 118d 593d 8616 863f 858f 3fbf
000001a0: 1b49 cdbe b95a 033e 7b31 db3e c386 823f
000001b0: 4bee b53c 994f a4be 8e97 8abf af40 913f
000001c0: 2dff e3be 3b6a 8a3f 08b5 a73f f4b1 2e3f
000001d0: 8e8f e03e 06c8 0c3e e1c8 173f ea23 113f
000001e0: 5cf9 dfbf d17d 783f c08f 05bd 1db1 8e3f
000001f0: 408f c63e 9ca2 293f 7c08 6f3f 91e0 bc3f
00000200: acfe 8bbe a7bc 8bbf 7ff9 ffbe 4ef1 1cbe
00000210: 1e7a dbbe cb13 3f3f c291 0c3f 5396 ddbf
00000220: a321 2c3f 1a0e b73e fc69 c43e 43fc 8d3f
00000230: ef9c 5cbf ea4c 1a3f 1901 95bf 3e63 b13f
00000240: 8a3d 26bf 84c8 a93f bee5 b73f c301 c8bd
00000250: 08a2 4dbf 288c e93e b022 2abe 0947 2bbf
00000260: 40ae 843f 4e49 b33c 7653 5f3f 8c5f 12be
00000270: c7bd 243f e979 2ebf ec46 283e 8a3c 1f3f
00000280: 9232 e2bc a422 663f 87fe bdbc e9f9 0f3f
00000290: 3ca9 783e 3e67 90bf 432f 0a3d a2c6 c5be
000002a0: eae9 833f e109 21bf 0d4b c3bf bfc7 9cbe
000002b0: 844d bf3f e375 53bd 5631 55bf c719 7a3f
000002c0: f9e5 353f d573 d33d 4abe 2cbf 2f42 ad3f
000002d0: 4290 53be 9b73 45bf 41b7 6e3f 44b7 e4bf
000002e0: 25d7 553f 7eea 5bbf 412b 1640 d23d a8bf
000002f0: 3c27 4ebf a3c9 983f e945 2a40 5690 413e
00000300: be5b d6bf f010 a43f 2cd0 8abe a651 8a3f
00000310: 8de6 1440 a5cb ce3d e75e 6cbf 942a 973f
00000320: 646b 113f a6a0 b53f 0a4f 103e 2ebf 58bf
00000330: 4a4f ac3e 699b 31bf 485f 14bd 8ac7 6ebe
00000340: c08d a4be 170e 9cbe 9730 89bf 3375 02bf
00000350: a9a3 3ebe 7d17 c0be 46e4 13be cca6 9ebf
00000360: dbff 883f 95ee b4bf fb50 67be 37b8 cc3f
00000370: a539 70bd bd2b c7be 5ab9 34bf 541d 87be
00000380: e3c2 d93e 675c 333e 5458 22bf 9058 b3bd
00000390: fbb5 b33f a08f 973e 8576 813f dd61 d7be
000003a0: b744 1c3f 1f0c c03f 496b 0640 6a2a ab3f
000003b0: ff6c 8c3f 2a57 9fbf 3209 6d3f 7c55 493f
000003c0: a074 74bf 727f 9e3f 1ccc a13e ba75 1fbf
000003d0: e53c 8c3e 7f18 44bf 3682 4ebf 030f 7bbe
000003e0: e9ba a03e 687d b1be a2e2 113d af74 a73f
000003f0: 20f4 533f 2381 c73e aa1d 393f 8c3b 8d3f

l1.bias f4 [8]
1.6636562 1.5967753 2.2411633 2.4956021 1.6457742 1.8964356 2.3437943 1.6420678
00000000: b0f2 d43f 2263 cc3f 386f 0f40 f2b7 1f40
00000010: bba8 d23f 67be f23f ba00 1640 472f d23f

l2.weight f4 [8, 8]
5.327149 2.25918 0.9387786 -0.5130843 -0.80027497 4.6266475 2.787596 -1.5902709
-2.4687498 -1.2019243 2.3243644 0.25117746 0.25778842 3.1575787 2.7285552 0.9568008
0.7271628 0.4162021 3.1084101 2.890626 -2.2986436 -1.5030422 0.8873753 0.046467416
-1.5489227 3.5691972 -0.435706 3.6633577 1.5459833 3.1756282 -0.7513935 0.18991809
0.87585986 -0.28533742 -0.21133946 1.8748083 -1.8717523 0.93577313 2.0050547 2.759282
2.2146676 5.0665135 4.9858837 -0.93108267 1.6748123 0.38470408 0.010828916 3.8852317
0.93545705 -1.6729063 -0.77132887 2.239147 3.4023798 1.9277517 0.1900161 3.9599764
1.8464664 0.027619155 1.395245 2.2098475 5.6439166 -1.8161272 3.926664 -2.0901194
00000000: 0178 aa40 6896 1040 cb53 703f 7e59 03bf
00000010: d2de 4cbf 7f0d 9440 f967 3240 ff8d cbbf
00000020: ffff 1dc0 a8d8 99bf 63c2 1440 559a 803e
00000030: d8fc 833e c515 4a40 a6a0 2e40 e6f0 743f
00000040: 5727 3a3f 7118 d53e 31f0 4640 0400 3940
00000050: fa1c 13c0 b063 c0bf 072b 633f 9e54 3e3d
00000060: 1943 c6bf ba6d 6440 db14 dfbe 7474 6a40
00000070: c8e2 c53f 7e3d 4b40 535b 40bf e379 423e
00000080: 5a38 603f bf17 92be 5f69 58be b8f9 ef3f
00000090: 9495 efbf d48e 6f3f d152 0040 1498 3040
000000a0: 1dbd 0d40 e120 a240 5c8c 9f40 6f5b 6ebf
000000b0: 4060 d63f eff7 c43e c46b 313c a3a7 7840
000000c0: 1d7a 6f3f cb21 d6bf cf75 45bf 2f4e 0f40
000000d0: 97c0 5940 91c0 f63f 9593 423e 4170 7d40
000000e0: 0359 ec3f 9141 e23c 6397 b23f 246e 0d40
000000f0: f79a b440 db76 e8bf 774e 7b40 84c4 05c0

l2.bias f4 [8]
1.8077643 1.2421862 2.9663439 0.68280476 -1.1023822 0.9570275 2.4526353 0.8864459
00000000: d264 e73f f5ff 9e3f 94d8 3d40 4bcc 2e3f
00000010: dc1a 8dbf c1ff 743f faf7 1c40 1eee 623f

l3.weight f4 [206, 8]
0.24968147 0.5417785 -0.8622447 -0.8129918 -0.107041635 -3.2903585 -0.41537943 0.55076903
-0.6026462 -0.12782827 -0.7998773 -0.17798065 -0.20503102 -0.6771071 -0.3715576 -0.64412045
-0.45374346 0.33136147 -0.31312057 -1.6658587 -0.30100933 -1.2633058 -0.39963084 0.29859486
-2.844623 -0.43758458 -0.5632271 0.2553572 0.26550302 -0.9607239 -0.0010984266 0.41632003
-1.7941796 -0.4186324 -0.52300864 -0.115863875 0.14760606 -0.39257056 0.017542377 -0.53517294
-5.390881 0.49548903 -0.25745663 0.53777605 0.08502619 0.007968578 -0.0986019 0.07656222
0.044055164 -1.1892921 1.0393113 -0.077928476 -1.0978141 -0.34132847 -1.9169068 -0.9340588
-1.6515863 0.56786215 -0.48730442 -0.5706936 -0.64541674 -0.12609558 -0.53167474 -0.39934424
-0.47486615 -0.65822095 -0.9879311 0.5072364 -0.42302936 -1.1504997 -0.52150005 -0.24996796
-1.8661188 0.08332404 0.31376657 0.30181623 0.32621878 0.051379867 0.24637322 -3.3797636
0.52687883 -1.13632 0.6188008 -2.5408518 -0.43633863 -0.11028269 -3.071346 0.2202564
-1.2348677 -3.2695308 1.0385348 -0.45608106 -0.39488578 0.44989428 0.052131657 -1.1968924
0.7187686 -3.51988 -0.3193484 -0.6825739 -2.579309 0.29988927 -0.90842897 -0.38951418
0.5768372 -2.2013152 -0.7677367 -2.0474837 -0.8921659 -0.4247379 -0.2936442 0.16371585
-0.015725235 0.046654813 0.55593413 -0.8461585 -0.074861385 -0.9807984 -2.0347722 -0.23385753
-1.2631624 -0.29753727 0.6525781 -0.2618489 0.33215317 -0.4110193 -1.3481197 -0.5747079
-0.9023934 0.032815136 0.29227176 -1.0958877 -0.122647285 -0.22975165 -0.03558707 -1.286996
0.5158854 -3.8528552 0.8430317 -3.0778835 -0.03514132 -0.0044266423 -1.9697726 0.5981428
-2.6101422 0.63306844 -2.230929 -0.41512066 0.3484124 -0.24093346 0.55827385 -0.5650189
-2.2806513 0.37303072 -0.034525484 0.013624926 -0.7068571 0.8633374 -0.123377696 -3.046393
-0.17435841 -0.0509208 1.170425 -1.1917517 0.047001522 -3.1071656 -0.43067622 0.5356699
-0.7238015 0.44662368 -1.9670106 0.17317514 -0.17321375 -1.2306306 0.065429695 -0.52938414
0.51584166 0.7174695 0.2690474 -2.2257974 0.21677609 -3.1514707 -0.8471989 0.44625968
0.22908977 0.9588914 0.21336511 -0.76206553 0.37864685 -3.6629932 -0.13870417 -0.43143943
-0.4766036 0.11234238 -1.033347 -0.44448224 -3.8760777 0.016396413 -0.70841056 0.050142903
0.22433484 0.13409491 -0.74573153 -1.0335397 0.2657831 -0.2723507 -0.4371269 -2.4103487
-0.36141732 0.6074041 -0.65541446 -0.91936135 0.16937824 -0.9981714 -0.07639342 -1.1407667
-0.32244566 -1.3404177 0.4244442 -1.1866597 0.3531471 0.10129561 -1.6903402 -0.72910845
-0.7673327 -0.11969117 0.5440912 -0.27947062 0.25672767 0.17507058 -0.8392831 -2.88433
-0.14205715 0.0040376214 -1.241014 -1.610387 -0.1519603 -0.32472447 -0.30574042 -0.5593646
-0.38567978 -1.1056955 -0.36807215 -1.1188512 0.07554964 0.11337808 -0.37624028 -1.1084003
-0.50594056 0.3572466 -1.9782667 -0.6646228 -0.41143438 -0.04282501 -0.27041405 -1.1362472
00000000: 80ac 7f3e ffb1 0a3f 12bc 5cbf 3b20 50bf
00000010: a538 dbbd 3c95 52c0 9dac d4be 33ff 0c3f
00000020: 0547 1abf 6ae5 02be c2c4 4cbf 8f40 36be
00000030: a7f3 51be e456 2dbf cc3c bebe 14e5 24bf
00000040: 1051 e8be 36a8 a93e 5751 a0be dc3a d5bf
00000050: e51d 9abe 01b4 a1bf 6a9c ccbe 6de1 983e
00000060: 4e0e 36c0 160b e0be a72f 10bf 2ebe 823e
00000070: 03f0 873e 00f2 75bf 15f9 8fba e627 d53e
00000080: ada7 e5bf fc56 d6be e5e3 05bf 0a4a edbd
00000090: 0b26 173e 02ff c8be 08b5 8f3c 1801 09bf
000000a0: 1982 acc0 bdb0 fd3e 5bd1 83be b1ab 093f
000000b0: 3622 ae3d a38e 023c cbef c9bd a7cc 9c3d
000000c0: 3073 343d b93a 98bf 2708 853f f798 9fbd
000000d0: 2c85 8cbf 9bc2 aebe 345d f5bf 7a1e 6fbf
000000e0: 2e67 d3bf 6a5f 113f f77f f9be fa18 12bf
000000f0: 083a 25bf 331f 01be d61b 08bf d976 ccbe
00000100: a821 f3be 2b81 28bf 0de9 7cbf 3fda 013f
00000110: 4e97 d8be 9343 93bf 0781 05bf 9af7 7fbe
00000120: fbdc eebf cba5 aa3d 03a6 a03e a887 9a3e
00000130: 2606 a73e b273 523d 4349 7c3e 0c4e 58c0
00000140: 88e1 063f ef72 91bf bb69 1e3f 519d 22c0
00000150: c767 dfbe e4db e1bd ef90 44c0 e58a 613e
00000160: 2510 9ebf fe3f 51c0 b5ee 843f 7583 e9be
00000170: 782e cabe 8b58 e63e 0188 553d c533 99bf
00000180: 3801 383f b745 61c0 a281 a3be 2abd 2ebf
00000190: 6613 25c0 168b 993e cd8e 68bf 676e c7be
000001a0: 9aab 133f 59e2 0cc0 648a 44bf f909 03c0
000001b0: fc64 64bf 3f77 d9be 8858 96be 21a5 273e
000001c0: 35d2 80bc 1e19 3f3d b351 0e3f d89d 58bf
000001d0: ed50 99bd 9b15 7bbf b539 02c0 5978 6fbe
000001e0: 4eaf a1bf ce56 98be 5c0f 273f 0f11 86be
000001f0: fb0f aa3e 1f71 d2be 308f acbf 0f20 13bf
00000200: 4103 67bf 2a69 063d a5a4 953e 0c46 8cbf
00000210: 802e fbbd 0444 6bbe bfc3 11bd 49bc a4bf
00000220: 1111 043f 2e95 76c0 edd0 573f 0bfc 44c0
00000230: 58f0 0fbd 5e0d 91bb 8221 fcbf e31f 193f
00000240: 920c 27c0 c610 223f 8ac7 0ec0 b28a d4be
00000250: 1c63 b23e 43b7 76be 09eb 0e3f 14a5 10bf
00000260: 31f6 11c0 e2fd be3e 986a 0dbd 153b 5f3c
00000270: 96f4 34bf ae03 5d3f 72ad fcbd 1af8 42c0
00000280: 038b 32be 5492 50bd 7dd0 953f 528b 98bf
00000290: ab84 403d cddb 46c0 9881 dcbe aa21 093f
000002a0: 0e4b 39bf dcab e43e 01c7 fbbf d354 313e
000002b0: f25e 31be 4e85 9dbf 0100 863d b885 07bf
000002c0: 330e 043f 15ac 373f 95c0 893e 7773 0ec0
000002d0: 8dfa 5d3e b2b1 49c0 07e2 58bf 267c e43e
000002e0: 8296 6a3e e879 753f 627c 5a3e ba16 43bf
000002f0: 00de c13e 7b6e 6ac0 7708 0ebe a1e5 dcbe
00000300: 6305 f4be c313 e63d b744 84bf 2d93 e3be
00000310: a811 78c0 c551 863c 655a 35bf a562 4d3d
00000320: 08b8 653e 2d50 093e 43e8 3ebf 074b 84bf
00000330: b914 883e 8d71 8bbe 19cf dfbe 2743 1ac0
00000340: b10b b9be d67e 1b3f 3ec9 27bf 445b 6bbf
00000350: 7d71 2d3e 2988 7fbf 2774 9cbd a504 92bf
00000360: 9917 a5be cf92 abbf c050 d93e 77e4 97bf
00000370: b2cf b43e 1374 cf3d 115d d8bf daa6 3abf
00000380: ea6f 44bf a520 f5bd 9049 0b3f c616 8fbe
00000390: cf71 833e b445 333e 42db 56bf dd98 38c0
000003a0: 6e77 11be 064e 843b 8cd9 9ebf 2921 cebf
000003b0: 7b9b 1bbe 4942 a6be 028a 9cbe 8532 0fbf
000003c0: d277 c5be 6e87 8dbf f473 bcbe 8436 8fbf
000003d0: c5b9 9a3d c432 e83d 91a2 c0be 10e0 8dbf
000003e0: 5285 01bf 07e9 b63e d837 fdbf b824 2abf
000003f0: 87a7 d2be 4769 2fbd b673 8abe 8c70 91bf

l3.bias f4 [206]
-0.41318297 -0.7848128 -0.96115303 -0.48458534 -0.3485034 -0.62530154 1.0124141 -0.65696436
-0.5059797 -0.44049588 0.16800512 0.7628578 0.9659757 0.33959547 -0.94331104 -0.3647851
0.6496462 0.6353549 -0.029120991 0.35826483 0.8971064 -0.22263958 0.054197878 -0.45168635
-0.22507064 0.30336517 -1.2079302 -1.3617259 -0.60652614 -0.28159574 -0.37807563 -0.42563832
-0.30429196 -0.7436903 -1.2221676 -0.71609306 -0.07907449 0.34842765 -1.6403404 -0.70074534
0.05404322 -0.17195101 -1.2292497 -0.8791678 -0.3091096 -0.25571632 -0.44698343 -1.7784767
-1.085063 -0.55340314 -0.5679281 -0.19767278 -0.74689347 -0.4369246 -0.66737366 -0.1685233
-0.37479162 0.013622268 -0.18576358 0.38095966 -0.023027092 -0.014598169 0.7006892 -0.33608916
0.63249195 0.1502298 0.41858843 0.5347523 0.6695867 -0.4549559 0.66332316 -0.28537017
0.48967597 0.0919272 0.40113404 0.3297795 0.28883287 -0.1349966 -1.6006885 0.5037886
0.010320988 0.15451325 -0.052923743 -0.23324487 0.55779356 -0.0711131 -0.06814639 -0.25329924
-0.1976826 -0.11369571 -0.3389472 -0.30141157 -0.19274963 0.7193516 0.20510483 -0.109170005
-0.13544367 0.346736 -0.49213427 0.11805758 -0.5890561 -1.1218903 -0.44725063 0.32446077
0.39735708 -0.77994376 0.26843467 0.4477399 -0.06846736 -0.027182024 0.35862985 -0.23675235
-0.4279689 0.1814851 0.6952356 -0.45868692 -0.7708511 0.3288567 0.2509985 -0.6821774
-0.17517732 -0.32132787 -0.09520389 -0.60853434 0.34149078 -0.78148854 -1.1458762 -0.33493248
-0.102520026 0.09468845 1.137471 -0.40847424 -0.37610507 -0.2163218 0.092395104 0.15498145
1.1114064 0.28633478 -0.16892503 0.39828056 0.61700875 0.49483916 -0.1153791 -0.0025557254
0.3741607 0.5218613 0.07394084 -0.9927066 -0.24639432 -0.9003609 0.117331296 -0.38205916
0.23079526 0.3840006 -0.38898617 -0.45999137 -0.025275296 -0.49614176 0.5810789 -0.9501019
0.060049064 0.1166561 -0.35988775 0.8075486 -0.08340462 0.35926837 -0.0010887207 -0.90788805
0.027780874 0.43529144 -0.2883593 -0.39283147 -1.0197425 -0.5540796 -0.3411078 0.29922733
0.20713049 -0.67915 -0.25315866 -0.18217224 -0.9632957 -0.21203047 0.09934739 -0.35623562
-1.0035163 -0.10019515 -0.0063717067 0.20604753 -0.71170664 -0.54484046 0.15919007 0.20028073
-0.21057163 -0.5455925 0.43185452 -0.10366361 -0.23855303 0.06500098 0.21948822 0.66715074
0.29587275 -0.19202311 -0.042269208 -0.551984 -0.40065557 0.85698575
00000000: b88c d3be 7ee9 48bf 200e 76bf 921b f8be
00000010: 0a6f b2be c313 20bf c996 813f d12e 28bf
00000020: e387 01bf ad88 e1be 8909 2c3e a64a 433f
00000030: 2f4a 773f 75df ad3e d57c 71bf 1dc5 babe
00000040: 374f 263f 9ea6 223f 258f eebc 7d6e b73e
00000050: c4a8 653f a1fb 63be 98fe 5d3d 6f43 e7be
00000060: eb78 66be ae52 9b3e 759d 9abf 094d aebf
00000070: 4c45 1bbf 512d 90be 2193 c1be 44ed d9be
00000080: 28cc 9bbe 7d62 3ebf fd6f 9cbf e051 37bf
00000090: cef1 a1bd 1c65 b23e adf6 d1bf 0c64 33bf
000000a0: 6c5c 5d3d ed13 30be 0e58 9dbf 2411 61bf
000000b0: 9d43 9ebe 40ed 82be 03db e4be 20a5 e3bf
000000c0: 58e3 8abf d4ab 0dbf bc63 11bf bc6a 4abe
000000d0: 6934 3fbf 95b4 dfbe 00d9 2abf 5f91 2cbe
000000e0: b0e4 bfbe ef2f 5f3c cf38 3ebe 250d c33e
000000f0: 50a3 bcbc 292d 6fbc 5e60 333f e113 acbe
00000100: feea 213f d7d5 193e 3951 d63e 87e5 083f
00000110: 096a 2b3f fbef e8be 8ccf 293f 0a1c 92be
00000120: cfb6 fa3e 5444 bc3d 7161 cd3e dcd8 a83e
00000130: e7e1 933e 8c3c 0abe 5ce3 ccbf 4af8 003f
00000140: 5c19 293c b938 1e3e 91c6 58bd bed7 6ebe
00000150: 8fcb 0e3f bfa3 91bd 5690 8bbd 70b0 81be
00000160: 4f6d 4abe 4cd9 e8bd 7d8a adbe 9e52 9abe
00000170: 2960 45be 6d27 383f 0007 523e 8694 dfbd
00000180: bfb1 0abe 6287 b13e 06f9 fbbe 2cc8 f13d
00000190: 61cc 16bf 1a9a 8fbf 09fe e4be b91f a63e
000001a0: 6372 cb3e 65aa 47bf 4570 893e 2a3e e53e
000001b0: 9e38 8cbd d6ac debc 559e b73e 356f 72be
000001c0: bd1e dbbe 3bd7 393e f6fa 313f 03d9 eabe
000001d0: 7f56 45bf e85f a83e e082 803e 2ea3 2ebf
000001e0: af61 33be 1685 a4be 42fa c2bd e8c8 1bbf
000001f0: e1d7 ae3e a20f 48bf 12ac 92bf 457c abbe
00000200: 05f6 d1bd 05ec c13d a698 913f 8923 d1be
00000210: d890 c0be 7683 5dbe a539 bd3d 75b3 1e3e
00000220: 9142 8e3f 799a 923e affa 2cbe 6eeb cb3e
00000230: 49f4 1d3f 8f5b fd3e e14b ecbd f57d 27bb
00000240: fe91 bf3e b498 053f 4c6e 973d 0522 7ebf
00000250: cb4e 7cbe 0d7e 66bf 644b f03d 429d c3be
00000260: 9855 6c3e ba9b c43e 3229 c7be fd83 ebbe
00000270: 230e cfbc 4b06 febe 96c1 143f e139 73bf
00000280: 02f6 753d 65e9 ee3d 3543 b8be 81bb 4e3f
00000290: 0bd0 aabd 06f2 b73e 68b3 8eba 5a6b 68bf
000002a0: b794 e33c 85de de3e d5a3 93be 3521 c9be
000002b0: ec86 82bf 29d8 0dbf aea5 aebe 5334 993e
000002c0: 041a 543e c6dc 2dbf 039e 81be 5c8b 3abe
000002d0: 8c9a 76bf 841e 59be a576 cb3d 8464 b6be
000002e0: 3973 80bf 1d33 cdbd c0c9 d0bb 20fe 523e
000002f0: 6832 36bf aa7a 0bbf b902 233e 6416 4d3e
00000300: 17a0 57be f3ab 0bbf 091c dd3e 964d d4bd
00000310: 3f47 74be 3c1f 853d 85c1 603e 64ca 2a3f
00000320: a27c 973e b5a1 44be 7a22 2dbd d34e 0dbf
00000330: ba22 cdbe 6b63 5b3f
