Backed_Draft_01/data.pth (torch, 16234 bytes, 6 tensors)

l1.weight f4 [8, 178]
000000 31 11 85 be 74 97 ea 3e 63 d8 10 3f 49 7b b5 3e
       -0.25989679 0.45818675 0.5658018 0.35445622
000010 e3 b9 ea 3e 59 d4 35 3e 78 8b 16 3f 1e 7e 4a be
       0.45844945 0.17756785 0.5880656 -0.19774672
000020 49 de 6b 3e 58 91 f8 3e ee ee 14 3f 72 17 9c be
       0.23034014 0.48548388 0.5817708 -0.30486637
000030 4b 74 33 3f ea 18 6e bf 03 98 0c 3f bf 0b 82 3f
       0.70099324 -0.93006766 0.5491945 1.0159835
000040 bd f1 0d bf da dd 3a be 5e 06 30 3f 59 2a 01 3f
       -0.5544699 -0.18248692 0.68759716 0.5045524
000050 25 2a 1c 3d 18 73 06 3f ce 14 b9 3e 8c 68 fd be
       0.03812613 0.5251937 0.36148685 -0.49493825
000060 9b 08 d1 be f0 95 6e be 24 de a8 be 67 56 1e 3e
       -0.40826878 -0.23299384 -0.3298198 0.15462647
000070 5c ed 49 3f 7b 7d bc be 6d af bd be df 2f b2 bd
       0.78877807 -0.36814484 -0.37047902 -0.08700537
000080 f6 03 fb be 81 7d ce be b5 63 44 be 53 2b ee 3e
       -0.4902646 -0.40330127 -0.1917866 0.4651743
000090 9f 9a e9 3e a5 57 13 3f 4d 69 eb be fa 04 ba 3e
       0.4562578 0.5755561 -0.45978776 0.36331922
0000a0 65 9f 9d 3e 1e b9 02 3f 9d 94 5f 3d 26 14 ae be
       0.3078567 0.51063716 0.054585088 -0.33999747
0000b0 84 09 d2 be fc bb 05 3f d3 98 1d bf 10 a3 ea bd
       -0.41022885 0.52239966 -0.61561316 -0.11456883
0000c0 6e 87 ab 3f 06 26 5f bf 95 2c d5 3e 11 0a 14 3f
       1.3400705 -0.87167394 0.41635576 0.5782786
0000d0 0e b0 8f bf a3 18 35 3e 02 29 ca 3e bf 1f f9 3e
       -1.1225603 0.1768518 0.3948441 0.48657033
0000e0 ae f2 31 bc 2c 60 7c 3e 97 57 c4 be 03 d6 00 bf
       -0.010861082 0.24646062 -0.38348076 -0.50326556
0000f0 93 f5 a9 3e 2a 22 7e 3e 1a 07 27 bf 83 3c 88 3e
       0.3319517 0.2481772 -0.6524521 0.26608667
000100 82 aa e1 be f3 b5 01 3f d3 c8 f1 be 76 7f bf 3d
       -0.440754 0.5066826 -0.4722353 0.09350483
000110 16 5f e0 bf 67 92 09 be 73 75 bc be 51 91 dd 3e
       -1.7529018 -0.13434754 -0.36808357 0.4327493
000120 f4 01 22 3e 37 7f 10 3f 9e dd 2f 3f 47 a0 6e be
       0.15821058 0.56444114 0.68697536 -0.23303328
000130 a4 9c 51 bd f9 04 78 be 53 33 74 be 4d c6 23 3f
       -0.051174775 -0.24220647 -0.23847704 0.6397446
000140 ea 8c 8c be eb 2c c1 be a3 2b 3c 3d b0 dc 15 3d
       -0.2745126 -0.37729582 0.045940053 0.036587417
000150 0e cf 6c 3f f5 7a c7 be 7b 27 97 3d 8a 82 ec 3e
       0.9250344 -0.38960996 0.07380577 0.46193343
000160 d5 f0 27 3f 35 3c 00 bf 83 5b 1f 3f 2a 9e 38 3f
       0.65601856 -0.5009187 0.6224901 0.7211634
000170 50 0d 96 be be c3 e3 3d 06 fe 90 bf a8 39 b4 be
       -0.29307032 0.11121319 -1.1327522 -0.35200238
000180 2d d8 2b 3e df e0 10 3e a5 68 60 3f e5 5b 49 3f
       0.16781683 0.14148282 0.87659675 0.78655845
000190 69 ac 2e 3f a9 0d 56 be 53 97 ca be 7a 80 ad be
       0.6823183 -0.20903648 -0.39568576 -0.33887082
0001a0 fc f4 05 3f 31 ec 4b be fe f6 14 bf cc ee 95 be
       0.5232694 -0.19914319 -0.5818938 -0.2928375
0001b0 73 c6 1c 3f ac c9 00 be 1b 64 a7 be e2 ba 31 3f
       0.6124031 -0.12576932 -0.32693562 0.69425786
0001c0 fc 78 36 3d ff 2e bc 3d 69 36 86 be 3d 88 c3 3e
       0.044548973 0.09188651 -0.26213387 0.3818988
0001d0 97 4b f1 be b1 bd 71 bf 6f 93 b3 be 75 15 b8 3e
       -0.47127983 -0.9443007 -0.3507342 0.3595387
0001e0 44 d3 12 be 80 14 c8 be 66 c9 50 be 11 2b 43 bf
       -0.14338404 -0.3907814 -0.20389327 -0.7623759
0001f0 a9 40 e0 be 17 68 08 3f 74 35 71 3e c8 dc ae bd
       -0.43799332 0.5328383 0.23555547 -0.085382044
000200 f6 79 cf bc 44 2b 10 bf 47 c5 06 3f 75 85 69 bf
       -0.02532671 -0.5631602 0.5264477 -0.91219264
000210 f2 d0 03 3e c3 85 7f be 5a a6 b3 be 8d 4c 17 3f
       0.12872675 -0.2495337 -0.35087854 0.5910118
000220 9b 46 04 be 55 b4 e8 be 6f 24 d6 be 5d ef 7f be
       -0.12917559 -0.45450082 -0.41824672 -0.24993654
000230 6f 71 c9 3d 9c 5a 8c 3d 73 fb 21 3e 75 34 75 3e
       0.09836089 0.0685322 0.15818577 0.23945792
000240 22 9d b7 be 3e 68 3b 3e 2e 79 10 3f ad 46 da be
       -0.3586207 0.18301484 0.56434906 -0.42632046
000250 58 51 59 be c8 c1 13 3f 70 6b 02 3f 3f d7 7e 3e
       -0.21222436 0.5771756 0.50945187 0.24886797
000260 1a 1c 13 3f 3a 8c 0e 3f 10 5f a0 3f 80 f8 b6 3f
       0.57464755 0.5568272 1.2529011 1.4294586
000270 a4 b0 da 3e ff 2c 29 3f 6d dd 62 be 8d 1e 69 bd
       0.4271289 0.66084284 -0.2215478 -0.0569139
000280 8c 08 b6 3d a8 42 2a be 7f 6e 22 3f ba a2 04 3f
       0.08888349 -0.1662699 0.63449854 0.518108
000290 8e 5d 82 be dc 3e f8 be 2e cd c5 3d fd 17 31 bf
       -0.25462002 -0.48485458 0.096582755 -0.6917723
0002a0 4f b4 dd 3c 8b 87 31 3f c0 8f ea 3e d2 fd 83 3e
       0.027063517 0.6934745 0.45812798 0.25779587
0002b0 3c 74 22 3e 4d a0 ea 3e 88 0e 20 be 3b 18 8c be
       0.15864652 0.45825425 -0.15630543 -0.27362236
0002c0 e6 d5 58 3d 57 39 c1 3a 62 4d b0 3e 4c bd 83 3e
       0.052938364 0.001474182 0.34434038 0.2573036
0002d0 20 33 90 3e 90 04 99 bd 76 62 bb be 24 d2 b3 3e
       0.28164005 -0.07471573 -0.36598557 0.35121262
0002e0 8c 6e 04 be 97 f0 86 be 73 30 c4 3e 44 84 5b 3d
       -0.12932795 -0.2635543 0.38318214 0.053592935
0002f0 3a d5 3e be f1 5d e7 be 29 6d be 3e 77 c5 2e 3f
       -0.18636027 -0.4518886 0.37192658 0.6827006
000300 0e 19 34 be 17 93 0d bf ec a6 8b bd 0e 64 0a be
       -0.17587683 -0.55302566 -0.06818947 -0.1351473
000310 9a 17 b4 be ea d5 65 3e ab 71 46 3e 04 6f 99 3e
       -0.35174257 0.22444883 0.19379298 0.2996751
000320 81 29 98 3a 05 53 c2 3e 6e f6 ad 3e e1 b9 1e bf
       0.0011609049 0.37953964 0.33977073 -0.6200238
000330 6f 21 d4 be 57 dc 6f 3e 4d 38 aa 3d 6a af 7a 3b
       -0.41431758 0.23423897 0.0831152 0.0038251528
000340 84 b1 11 bf bb 02 ee 3b f8 6d 5b 3e 00 f4 41 be
       -0.5691149 0.007263509 0.21428668 -0.18940735
000350 53 6b 83 be c0 57 f3 3d 2a 1c 96 3e d3 21 a3 be
       -0.2566782 0.11881971 0.29318362 -0.31861743
000360 96 51 ca 3e 82 25 4c 3f 94 36 1f bf 29 e8 8f 3e
       0.3951537 0.7974473 -0.62192655 0.28106812
000370 fa cb 36 bf 2c f0 13 bf 5f 0e 75 be b6 2e fe bd
       -0.71404994 -0.5778835 -0.23931263 -0.12411253
000380 3a 1e 43 3f 7a c1 2a be 8b 4f 1e 3f ea 3a 1d 3b
       0.76218 -0.16675368 0.6184012 0.0023991414
000390 f0 e3 9d 3c 24 b2 2f 3f 60 32 45 3f 42 9a 9d 3e
       0.019273728 0.68631196 0.7702999 0.30781752
0003a0 f1 00 44 3d 75 64 fe be a9 ba 09 3f f3 c3 23 bf
       0.04785246 -0.49686018 0.53800446 -0.6397087
0003b0 63 aa 21 be 67 50 ad 3e a0 17 fd 3e 9c 65 bb 3e
       -0.15787654 0.33850405 0.49432087 0.3660096
0003c0 43 ac c4 3e e0 8a 0e bf 96 08 8e be 13 46 57 bd
       0.38412675 -0.55680656 -0.27740926 -0.052557062
0003d0 03 b7 33 3f 43 2b 8b bd da 9f 8a 3f 7a ca 44 be
       0.7020113 -0.06795361 1.0830033 -0.19217864
0003e0 ba db 7e 3d 7c fb f7 3e e3 34 92 3e a4 2d c5 3e
       0.062221266 0.48434055 0.28555974 0.38511384
0003f0 96 10 d5 be e8 ad b7 be ee 09 5c 3d 4d b8 b7 be
       -0.41614217 -0.35874867 0.053720407 -0.35882798

l1.bias f4 [8]
000000 e9 5c bc 3e f7 b8 b7 3e 83 cf c3 3f 88 f6 a8 3f
       0.36789635 0.35883304 1.5297703 1.3200235
000010 ae b7 01 3f a0 d0 03 3f 89 21 35 3f 15 2f a5 3f
       0.506709 0.5149021 0.70754296 1.2904993

l2.weight f4 [8, 8]
000000 03 ca 3c 3f 9c db 8e 3f a7 73 09 3e bf 2f c9 be
       0.73745745 1.116077 0.13423024 -0.3929424
000010 c4 0e 7b bf ee 27 ea 3c 7c fd be bf 77 b6 df 3f
       -0.98069406 0.028583493 -1.4921107 1.7477559
000020 7e 3d 65 bf 4e 00 65 3f c4 0b 12 40 8a 06 e5 bd
       -0.89546955 0.8945359 2.281968 -0.11182888
000030 b6 a3 bc be 71 7c a9 3f be d9 71 3f ac 05 6c be
       -0.36843652 1.3241102 0.94472873 -0.23049039
000040 83 0d d9 3d 57 22 12 be 95 26 bb 3f 72 1a 69 3e
       0.1059828 -0.14270912 1.4621149 0.22763994
000050 98 8e 9e bf c9 2f a9 bf a3 d6 aa be 89 c2 70 3f
       -1.2387266 -1.3217708 -0.3336688 0.9404684
000060 1b 29 5b 3f c9 94 71 3f 0c 9b 69 3e 2a e0 b7 be
       0.85609597 0.94367653 0.22813052 -0.3591321
000070 5d 0f e8 3f 5f 2a ee be af 58 95 3f 26 64 5b 3e
       1.8129689 -0.46516702 1.1667689 0.21424922
000080 9b 08 df 3f 37 34 12 bf a3 f1 ce be 44 a9 af 3f
       1.7424501 -0.57110924 -0.4041873 1.3723531
000090 23 de 88 bf b9 da c4 3f 64 31 76 3f 59 f7 b7 bd
       -1.0692791 1.5379249 0.96169114 -0.08982725
0000a0 77 4d c9 bf c9 b3 72 bf 8c ec e4 be 80 0d 45 3f
       -1.5726765 -0.9480558 -0.4471172 0.76973724
0000b0 ec 14 05 3f 6f 18 42 3f b1 0a e2 3f 82 51 ce 3f
       0.5198505 0.7581853 1.7659513 1.6118624
0000c0 bd 1c 56 be e2 2f c9 3f 9c 1d f7 3a d5 3b b5 3f
       -0.209094 1.5717738 0.0018853429 1.4158884
0000d0 94 b1 cb 3f 2e db 8c bf ef 44 bb bf 72 ef 04 3f
       1.5913568 -1.1004388 -1.4630412 0.51927865
0000e0 d3 f8 d0 3e b9 b1 93 bf 6c ca a4 bd be 92 99 3f
       0.40814838 -1.1538612 -0.080464214 1.1997907
0000f0 a4 d7 fb be 10 5c 88 bf 3a 98 1b 3f d3 e7 fd 3e
       -0.49187958 -1.0653095 0.60779154 0.4959093

l2.bias f4 [8]
000000 9f ec d8 3e 58 33 a1 3f 6d df 6b 3f fd dc c3 be
       0.42368028 1.2593794 0.92137796 -0.38254538
000010 ac 85 44 3c bd e5 fb 3e 8b 69 40 3e b5 4b a2 3f
       0.0119947605 0.49198714 0.18790261 1.2679354

l3.weight f4 [44, 8]
000000 25 84 85 bf 98 54 c5 bd da ec db bf cd ca 67 3d
       -1.0430952 -0.096352756 -1.7181656 0.05658989
000010 3b 79 d7 3e 96 53 a0 bf 3a 3c b8 bf 3f 8a 87 be
       0.4208468 -1.2525508 -1.439338 -0.2647266
000020 ea 68 ab 3e aa cc 40 bf 8c ef ef bf 50 af 8c bf
       0.3347848 -0.7531229 -1.8744979 -1.0991001
000030 42 fb 02 3f a4 8a 9c bf 0a 7f 39 3e 5b 56 0c bf
       0.5116464 -1.222981 0.18114868 -0.5481927
000040 aa 2c 68 bf 25 33 8f 3e 75 43 07 c0 d8 45 99 bf
       -0.9069315 0.27968708 -2.1134923 -1.197444
000050 10 a1 88 3e 78 52 e8 3e 56 59 e0 bf 0b 5a 3b bf
       0.2668538 0.4537542 -1.7527263 -0.7318427
000060 39 47 49 be 77 68 22 bd 89 14 d2 3c 6f a2 4c 3e
       -0.19656076 -0.039650407 0.025644558 0.19983838
000070 22 54 dd bf 01 62 e6 3e f6 84 3b bf 66 db cb bf
       -1.72913 0.44996646 -0.7324976 -1.592633
000080 5b 1e e0 bf 32 e8 8e bf 50 5e 19 c0 af ee 66 3d
       -1.7509264 -1.116461 -2.3963814 0.05637997
000090 45 55 75 be e4 08 41 3f 71 56 41 bf 3b e4 a0 3e
       -0.23958309 0.7540419 -0.75522524 0.31424126
0000a0 f2 64 9c 3e 3f 25 14 bd da 17 1c c0 38 3c 06 bf
       0.30545765 -0.036168333 -2.4389558 -0.52435637
0000b0 77 47 60 be c3 79 84 be 05 43 78 3e 24 83 17 c0
       -0.21902262 -0.25874147 0.24244316 -2.3673792
0000c0 99 94 16 3e 2d 63 d7 bf 68 b9 8d bf 9e 5c a7 bd
       0.14705123 -1.6827141 -1.1072206 -0.08171962
0000d0 4f b4 50 be f6 ba 67 bf 65 2a 04 3f 71 17 25 be
       -0.20381282 -0.90519655 0.5162719 -0.16122223
0000e0 86 ab da bf 70 61 07 3e d0 af f6 bf ec 73 b3 be
       -1.7083595 0.13220763 -1.9272404 -0.3504938
0000f0 6b a2 e2 be bc 32 03 3f fb ee 31 3e 9f 7f e6 bf
       -0.4426454 0.5124929 0.1737632 -1.8007697
000100 d5 df 06 3d 03 41 af be 44 87 91 bf 8e 32 e3 3e
       0.032928307 -0.34229288 -1.1369405 0.44374508
000110 11 bc db be 0e 1c 83 bf 5b c7 07 be 07 0a 5b bf
       -0.4291692 -1.0242937 -0.13259642 -0.85562176
000120 a4 a9 f2 3d 21 63 e6 bf 79 27 8e bf c4 eb d5 bf
       0.11848763 -1.7999002 -1.1105796 -1.6712575
000130 69 d3 a0 3e 91 d9 9e 3b 0e 57 88 be 9a 8a 0b 3f
       0.31411293 0.0048477133 -0.26628917 0.54508364
000140 af 75 c1 3b aa 69 8e bf 16 70 d8 bf 20 3c 6b 3c
       0.0059039216 -1.1125996 -1.6909206 0.014357597
000150 75 f3 b5 bf 85 53 b4 3e e2 f6 0f 3f 8f cc 89 bf
       -1.4214922 0.3521997 0.5623609 -1.0765551
000160 17 78 c6 3e af c8 67 bf dd 42 30 3e 1d 25 88 be
       0.38763496 -0.90540594 0.17213006 -0.26590815
000170 32 a2 66 bf be be 9a be bb 0e 4b 3e 26 18 75 39
       -0.9009124 -0.3022365 0.19829838 0.00023374017
000180 fa 9d d9 3e 5f 01 24 bf dc 89 84 3d 05 9d eb be
       0.4250334 -0.6406459 0.06471607 -0.46018234
000190 5c 76 e7 bf 6b a6 b0 3d b3 21 14 3f c6 1f e6 bf
       -1.8082995 0.08625492 0.5786392 -1.7978446
0001a0 3b 97 b6 3e 3c a8 86 bd e6 ca f6 3d 6d 63 fb be
       0.35662255 -0.06575057 0.120504186 -0.49099293
0001b0 54 be 00 bf 82 d2 c3 3d 7f b0 0c bf a4 1c 8b bf
       -0.5029042 0.095616356 -0.5495681 -1.0868115
0001c0 5a 16 9c bf 6a 2e e5 bf 34 f0 c2 bf 5b 0d 4f 3c
       -1.2194321 -1.790479 -1.5229554 0.012637462
0001d0 f9 84 a7 3e f3 c0 7d be 71 b4 90 be fb e3 bb 3e
       0.32718638 -0.24780636 -0.28262666 0.36697373
0001e0 ab b5 ce bd cf eb 26 bf b5 2b 00 c0 2d df 21 be
       -0.10093244 -0.65203565 -2.0026677 -0.15807791
0001f0 91 5c f3 be 9d b0 de 3e f7 3b be bc 10 06 20 be
       -0.4753156 0.4349412 -0.023221953 -0.15627313
000200 9c 3b 11 3e 75 df 03 c0 6f 39 d4 3e 45 8d c6 bf
       0.14182895 -2.0605137 0.41450068 -1.5511862
000210 af 17 7c be e2 ac 1a 3e 22 dc 20 3e b6 7d e1 3e
       -0.2461841 0.15105012 0.15708974 0.44041222
000220 12 4c ee be e4 13 14 bf d9 11 c0 bf 18 2b a3 bd
       -0.46542412 -0.5784285 -1.5005447 -0.07967204
000230 34 28 b4 3e 98 46 a6 3e ed 63 86 bf f6 1d c4 bf
       0.35186923 0.32475734 -1.0499245 -1.5321643
000240 e4 e0 5f be 71 a5 39 3e 1e ea ad bf 5e e0 5a 3e
       -0.21863133 0.18129517 -1.3587072 0.21374652
000250 2b ba fd be 3f 1a 93 3e ea e0 e8 bf ae f2 b4 bf
       -0.49556097 0.28730962 -1.8193638 -1.413656
000260 8d b0 38 3f bd 70 f8 bf 34 9e e3 bf 62 87 7a be
       0.72144395 -1.9409405 -1.7782655 -0.24465707
000270 9c b7 88 be 07 b7 70 3e dd e0 db bc d5 17 a8 bf
       -0.26702583 0.2350732 -0.026840622 -1.3132273
000280 49 1c d8 bf 47 61 08 3d c5 98 e4 bf 58 73 37 bf
       -1.6883632 0.033295896 -1.7859122 -0.71660376
000290 1b d5 da bd 12 3d 8b 3e 23 32 97 be 0b a1 d2 3e
       -0.10685178 0.2719503 -0.2953044 0.4113849
0002a0 30 ed 0a be e5 71 be be 29 12 a4 bf 73 32 e8 3e
       -0.13567042 -0.3719627 -1.2818042 0.4535099
0002b0 c7 c8 c7 bf 49 d7 a1 bf 9c 85 32 3f 07 81 a9 bf
       -1.5608147 -1.2643825 0.6973512 -1.3242501
0002c0 d3 1b e4 bf 25 c1 a7 bf a1 53 cc bf 15 92 0d bd
       -1.7820991 -1.3105818 -1.5963022 -0.034563143
0002d0 f5 85 0a bf 59 9c 68 3e 2b dc f8 3e a7 ef 10 3e
       -0.5411065 0.22715892 0.48605475 0.1415392
0002e0 ca 8d 0f 3f 71 95 bd bf 79 d5 45 bd 3a 17 d9 be
       0.5607573 -1.4811231 -0.048299287 -0.42400533
0002f0 63 06 82 bf 1e 33 f8 3e df 52 23 bf 36 43 a8 3e
       -1.0158199 0.484765 -0.63798326 0.32863778
000300 bf 7c a3 bd 60 0e 35 bf 30 dd 04 c0 54 a1 42 bf
       -0.07982778 -0.7072506 -2.0760002 -0.7602742
000310 ef ea 74 3e e8 26 23 3f 61 58 e3 bf fc 01 87 3e
       0.23917745 0.6373124 -1.7761346 0.263687
000320 40 eb 17 3f 99 0f d9 bf 29 24 17 3f 92 76 95 be
       0.5934334 -1.6957885 0.5903955 -0.29192024
000330 3e 0f 68 be 77 64 5e bf cb 96 86 bf 44 b8 dd 3e
       -0.22662064 -0.8687205 -1.0514768 0.43304646
000340 f9 e2 ad 3e fb a1 64 bf 49 bc 99 be 1c 45 04 bf
       0.3396223 -0.8930966 -0.30026463 -0.5166795
000350 98 af 08 3e 50 ad 23 be 1e 01 3a bf b0 be 14 3e
       0.13348234 -0.15984082 -0.72657955 0.14525867
000360 5b 7e c9 bf b2 09 54 bf eb 23 c0 bf 15 b7 30 bf
       -1.5741686 -0.82827294 -1.5010961 -0.6902936
000370 ab a8 2e 3f b6 09 ab be 00 01 cd bf 68 33 2f 3f
       0.68226117 -0.33405846 -1.601593 0.68437815
000380 74 3d cf 3e 83 ee 4b bb 7b bf be bf 4e 5d 39 bf
       0.40476573 -0.0031117506 -1.4902185 -0.72407997
000390 70 3d f0 3e 31 78 78 bf 08 34 a8 bf da 1b a7 bf
       0.46921873 -0.970584 -1.3140879 -1.3055375
0003a0 b9 83 1b 3f 29 79 d3 be 4a e8 f6 3d 8d 17 86 be
       0.6074787 -0.41303375 0.120560244 -0.26189843
0003b0 de 48 4b bf 74 61 a7 bf 4b 46 84 3e 8d c2 eb bf
       -0.7940806 -1.3076615 0.2583488 -1.8418747
0003c0 09 a3 a2 bf f3 f5 ae 3e ca 51 a3 be c5 3b 99 bd
       -1.2706004 0.3417202 -0.31898338 -0.07482103
0003d0 9d 3a 07 c0 5a 0f 0f bf 7d b3 07 3d a0 0b 83 bf
       -2.1129525 -0.558828 0.033130158 -1.0237923
0003e0 25 9d c6 bf 13 84 19 3e 0f 3e 19 c0 24 bf 0d 3e
       -1.5516707 0.14991789 -2.3944128 0.13842446
0003f0 8d e6 3d be e5 cf 93 bf 67 ac 1f 3d cd 04 c6 bf
       -0.1854498 -1.1547819 0.038982775 -1.5470215

l3.bias f4 [44]
000000 ae f9 36 3e 6f df 0c be 7d 6c 3e be 44 52 f5 be
       0.17868683 -0.13757108 -0.18596072 -0.47914326
000010 70 58 7e bd d8 b8 9b 3c 14 4c 70 3e 70 e3 5b be
       -0.06209606 0.019009039 0.23466522 -0.2147348
000020 dd 9a 99 3e 58 9e d4 be 99 91 8c be 13 ca be be
       0.30000964 -0.41527057 -0.27454832 -0.37263545
000030 ef 5f 01 be de 2e 95 be d8 fe 88 3e 65 65 36 be
       -0.12634252 -0.2913732 0.2675693 -0.17812116
000040 19 e3 29 be 9d 1b 84 bd 85 ab fe bd f7 50 24 be
       -0.16590537 -0.06450579 -0.124350585 -0.1604651
000050 6f 16 ac be 33 5a 8c 3d d3 27 41 be 50 95 a0 3d
       -0.33610865 0.06853142 -0.18862848 0.07840979
000060 13 2b e3 bd 35 c1 b4 be 4f 8b 1a be e0 41 42 3d
       -0.110922 -0.35303655 -0.15092205 0.047426105
000070 ae 66 bf bd b9 0b 10 3e c7 7d 3b be 9d 35 49 bd
       -0.093457565 0.14066972 -0.18309699 -0.049123395
000080 92 f4 90 be 0a 72 7e 3d c5 72 c5 bd d1 d9 2b be
       -0.28311592 0.062120475 -0.09641031 -0.16782309
000090 de e7 e0 bd 5a 18 1d 3d 6d 0d da 3e 3f 7e 1c 3e
       -0.10981725 0.0383533 0.42588368 0.15282534
0000a0 64 fd 86 3e 36 27 a3 3d 7d a5 ab 3e 4d 8e b4 3e
       0.26365197 0.07966463 0.33524695 0.35264817
