Backed_Draft_01/data.pth (torch, 5482 bytes, 6 tensors)

l1.weight f4 [8, 54]
00000000: 5967 11be 6e9f a83e 3f1f 803d 689c d5bd
00000010: e324 15bf 67c3 153f 493b 223e 5c32 d6bc
00000020: 08d9 fd3d 0cd8 9d3d d81f 6fbe cdbb 1d3f
00000030: 986a e73e f1b0 363f a3db d03d af3a fe3e
00000040: 548a 69be a53b 113f 1b3a 0d3f 20e0 ddbe
00000050: 31bb 32be 01d4 c3be 96de 96be 4fd0 0e3f
00000060: e660 e33e b9e4 7cbe f698 f93e 8001 e93e
00000070: aabc 8b3e b92b c33b 6170 063f 0b03 233f
00000080: 78fc 3fbe cda2 2c3e 57df 363e 9766 d63e
00000090: 43f5 643e 3c75 03be 3eb6 843e cd6c a13e
000000a0: 4108 253f 8096 dc3e 896d ee3e 2fcc e93d
000000b0: e126 453f 3e49 5f3e 422d ecbe 27e5 14be
000000c0: cece 003e 8549 433f 479b 963e 5381 de3e
000000d0: 6b56 393e 478e 54be 3dbe f23e 0de3 103f
000000e0: 8eb0 f5be d213 aebd 744e c4be 1af8 2c3f
000000f0: bc32 e1bd a9a1 60be c8f0 85bd 1af8 a4be
00000100: 1d57 a5be 1da9 223e 807e 8f3d c888 c2bc
00000110: 172d bf3e 142a af3e f7be 4abe 0610 773f
00000120: 56e5 72be 38fa 04bf 31c8 0b3f 11fa 04bf
00000130: ce02 05bf 010d c1be 91e6 bb3c 09c4 5ebe
00000140: aee4 55be 2545 073f 8399 d1bd 092a 093f
00000150: 801c d23e 0ae1 e0bd 13c8 283e 532b aebe
00000160: b806 d53e 5de3 ba3e 0063 14ba 9ff1 95be
00000170: 532b 52be 52dc 1abe 1797 b53e ff50 e3be
00000180: 48cb 9b3d 73c9 e53e 5509 94be 1f37 113f
00000190: 4cce 3e3f 426a 003f 8a65 5ebe e0ee c5be
000001a0: f017 183e 7eb8 9cbe ef6a 9bbd 1be4 763e
000001b0: ef86 b6bd 5add d4be f21c 103f 557e ee3e
000001c0: 328f dc3e a3e9 403f fefb da3e 1f9c 053f
000001d0: 3965 083f 5be6 173f f92f da3e 9c88 bbbe
000001e0: 4160 66bd 2c2d 0bbf 60c6 4ebe 1059 1c3e
000001f0: df4b 043f 562f 513f ec4c 70be 6e77 343f
00000200: ab6b 24be 5ffd 213f 9e9b 193f 79c9 b23e
00000210: 6fe7 cd3e a120 b53e 73e6 06bf 0751 d6be
00000220: 3e29 9bbe 9651 a5be a834 ab3e 8b74 d5be
00000230: f243 90bd 42a2 fc3e 0774 acbe 5e71 c83d
00000240: 9371 b4be 9526 1e3f d41f f23e 8828 d03e
00000250: ceb0 0f3f bcf1 f6be 3958 c2be 5919 30be
00000260: c50e 1e3e 796c 87be e0c1 2dbf 8e78 45be
00000270: 80c7 a83e 9632 06bf a94d 46bc 27b1 d0be
00000280: 005d cd3e 7072 9c3e dac6 edbd 5024 52bc
00000290: bcf9 46bd e2c9 75bd 3211 a4bd e244 d13d
000002a0: 30d0 e23d 2b31 f7bd 12e9 9a3d a898 f4bc
000002b0: 92ac 003e 6345 02be d005 3c3c 806c dfbd
000002c0: 52fa ac3d 40af 4f3d 5684 97bd d0dc edbd
000002d0: 48e9 6b3d ee67 59bd 08d6 083e 5c21 223d
000002e0: 0019 2d3d b85d 333d 58a7 74bd acd9 823d
000002f0: ac7e 613d a6c3 a5bd b454 d43d 68e8 8f3c
00000300: 10f0 97bd 78f5 a23c 8c56 06bd 723b 32bd
00000310: 0851 88bc 12a5 95bd 662e a1bd 803f bf3d
00000320: a202 fdbd e080 803c b297 a63d 866d a23d
00000330: 43cf eabd 0043 443d 129e 8a3d c455 68bd
00000340: b4b8 e13d a4cc 933d 3daf e8bd 6cd0 ef3d
00000350: d86f f23d a891 bb3c 8670 883d c53d dfbd
00000360: f215 36be 4366 8e3d e9bb 113e c385 c1bc
00000370: f99c 863e 1c47 9ebe adfc 903e cc32 d93d
00000380: ff2c a73e 6eae 833e b163 423d ee55 b03d
00000390: 3e08 463f 0256 06be d1cb 943e 4a33 783d
000003a0: 7d9a 0e3d 4763 9ebe 6016 063f c3ea 55bd
000003b0: fb98 36bd f136 b0bc f95c a7bd 7018 d6be
000003c0: 173a bb3e b193 40be b407 353f 2b38 b33d
000003d0: 3f3f 033f 4da1 1d3d 0376 9dbe c4ba 98bd
000003e0: c03c 2f3c 3038 823e f421 8f3e b763 793e
000003f0: 5936 aa3e e3aa ec3e 80ae 9b3e a9c7 2a3e
-0.1419958 0.32934135 0.0625596 -0.10430223 -0.5825941 0.58501285 0.15842928 -0.02614706
0.12394911 0.07707223 -0.23351991 0.61614686 0.45198512 0.7136374 0.101981424 0.49654147
-0.22806674 0.56731635 0.55166787 -0.43335056 -0.1745422 -0.38247684 -0.29466695 0.55786604
0.44409865 -0.24696626 0.48749512 0.45508957 0.27292377 0.00595614 0.52515227 0.6367652
-0.18748653 0.16858979 0.17858635 0.41875145 0.22359185 -0.1283769 0.2592029 0.3152832
0.6446572 0.43083572 0.46567944 0.11415898 0.7701245 0.21805283 -0.4612828 -0.1454054
0.1257889 0.76284057 0.29415342 0.43458042 0.18099372 -0.207574 0.47410765 0.5659645
-0.47986263 -0.08499874 -0.38341105 0.6756607 -0.10996005 -0.21936668 -0.06540066 -0.32220536
-0.32293025 0.15884824 0.0700655 -0.023746863 0.37339088 0.3421179 -0.1979941 0.96508825
-0.23720297 -0.51944304 0.5460234 -0.5194407 -0.51957405 -0.37705234 0.022937091 -0.21754469
-0.20888016 0.5283988 -0.10234358 0.53579766 0.4103737 -0.10980423 0.16482572 -0.3401743
0.41606688 0.3650159 -0.0005660504 -0.29285905 -0.2052434 -0.15123108 0.35466835 -0.44397733
0.07607132 0.44880256 -0.2891337 0.56724733 0.74533534 0.50162137 -0.21718422 -0.3865881
0.14852881 -0.30609506 -0.07588755 0.24110453 -0.08912455 -0.41575128 0.5629417 0.4658076
0.43078 0.753565 0.4277038 0.52191347 0.53279454 0.5933587 0.42614725 -0.36627662
-0.05624414 -0.543658 -0.20192862 0.1526835 0.5167827 0.81712854 -0.23466843 0.70494735
-0.16056697 0.6327724 0.6000308 0.34919336 0.40215632 0.35376456 -0.5269539 -0.41858694
-0.30304903 -0.32288808 0.3343861 -0.41690478 -0.070442095 0.49342543 -0.33682272 0.09787248
-0.352429 0.6177762 0.47289908 0.40655923 0.5612916 -0.48231304 -0.37957934 -0.1719717
0.15435322 -0.26449946 -0.67873955 -0.19284269 0.32964706 -0.5242094 -0.012103477 -0.40760157
0.40110016 0.3055606 -0.116101936 -0.01282604 -0.04857801 -0.060006984 -0.08011092 0.102182165
0.11074865 -0.12069925 0.07563986 -0.029857948 0.1256583 -0.12721781 0.011475995 -0.109093666
0.08446182 0.05070424 -0.07398288 -0.11614382 0.05759552 -0.05307763 0.13362896 0.039582595
0.04226017 0.04379055 -0.059729904 0.06389174 0.055052444 -0.080939576 0.10367718 0.017566875
-0.07418835 0.01989244 -0.03279738 -0.043513723 -0.016640201 -0.07306875 -0.07870178 0.093382835
-0.12354018 0.015686452 0.08134402 0.07931046 -0.11465313 0.04791546 0.06768431 -0.056722417
0.110215575 0.072167665 -0.11361549 0.11709675 0.11837739 0.022896603 0.06662087 -0.109004535
-0.17781809 0.069530986 0.14231838 -0.023623353 0.26291636 -0.30913627 0.28317776 0.10605392
0.32651517 0.25719017 0.047458354 0.0861014 0.77356327 -0.13118747 0.2906175 0.060595788
0.0348153 -0.30935118 0.5237789 -0.05222584 -0.044579487 -0.021510573 -0.0817203 -0.4181552
0.36567757 -0.1880634 0.7071488 0.087509476 0.5126838 0.038483907 -0.30754098 -0.07457498
0.010695636 0.25433493 0.27955592 0.24354444 0.3324459 0.46224126 0.3040657 0.16677727

l1.bias f4 [8]
00000000: fa30 ec3e edf6 043f 0aa9 793f d34e eebd
00000010: c846 9e3e ae24 293f 9068 b83e e9ff 723f
0.46131116 0.5193928 0.9752356 -0.11636128 0.30913377 0.66071594 0.36017275 0.9492174

l2.weight f4 [8, 8]
00000000: a6c9 833f 4484 fb3e f181 97bf eded a8be
00000010: 0999 553f 437c 843f c786 1e3f d71a a8be
00000020: 5582 82bf c7ea 373f e985 01bf 6020 81bc
00000030: 4bba b3bf 026c 0f3e 69a5 2e3f 279b 323f
00000040: 0e9a 90be b5ad 27bf ee89 423f 99c2 63be
00000050: 940e 833d 0a75 a33f ef32 32bf a771 b73f
00000060: cd82 883e 138c db3f 7d0b cb3e 4677 2b3e
00000070: 3a62 89bf c566 ad3e 5af8 753f 0bfe 103f
00000080: dc88 59be 9a39 72bf e27d c33f 6e96 86be
00000090: f442 b4bd ea42 a23e 0321 16bf ca06 5f3e
000000a0: 54cb 37be ec67 4f3d b0dd 6c3b 01fc b43e
000000b0: 67d3 913d 275a 52be 1bfd d03d 5b8e 9abe
000000c0: 25c4 393f 411c 2cbf 7baf 163f 66b8 783e
000000d0: eb26 573f d29d 8abe d7fb 30bf e325 21bf
000000e0: 64c5 843f d56b 2b3f ea00 353f 6371 923e
000000f0: 3d07 1d3e 508a 81bf 0c8a 03bc 3fc9 eebe
1.0295913 0.49124348 -1.183653 -0.32994023 0.8343664 1.0350422 0.61924404 -0.32832977
-1.0196024 0.71842617 -0.50594956 -0.015762508 -1.4041227 0.14006045 0.68221146 0.69767994
-0.28242534 -0.6549943 0.75991714 -0.22242202 0.06399265 1.2770092 -0.6960897 1.4331559
0.26662293 1.7152122 0.39657202 0.16744718 -1.0733101 0.3386747 0.9608208 0.5663764
-0.21243614 -0.94619143 1.5272791 -0.26286644 -0.08801833 0.31691676 -0.5864412 0.21779934
-0.17948657 0.050636217 0.0036142878 0.35348514 0.071204 -0.20542203 0.10204526 -0.30186734
0.7256492 -0.6723061 0.5886151 0.24289092 0.8404376 -0.27073532 -0.6913428 -0.62948436
1.0372739 0.66961414 0.7070452 0.28602132 0.15334792 -1.0120335 -0.008028518 -0.46637914

l2.bias f4 [8]
00000000: 7976 1e3e c022 053d fc48 2c3f 7f5b 243f
00000010: 9d3b 0b3f dcf7 06be 6c47 253d cd30 2e3f
0.15474881 0.032503843 0.67298865 0.6420211 0.5438784 -0.13180488 0.040351316 0.68043214

l3.weight f4 [7, 8]
00000000: cdd8 163e 4f3a 38bf d1c5 80bf fbd0 27bf
00000010: f0da afbf b7af 003e f9e6 e73e 2c69 1a3f
00000020: d60c 353f d2a6 22bf 854e 67bf dc8c aa3e
00000030: 6a8c 75bf 2512 9bbd fbc6 c6bf 4cea 8dbf
00000040: 5269 96bf 71ba 6cbf 11da c0bd f36c fa3e
00000050: 3989 82bd 2d54 e738 fd7b a6bf 66ca be3e
00000060: 7b93 9bbf a9f9 6cbf 7566 483f 8f01 06bd
00000070: 7ec4 6f3f 08b8 8f3e 5ed2 a6bf a0bd c9bf
00000080: 51ad cb3e db47 4dbf be9f 113f c592 7dbf
00000090: bfe4 80bf e1ff 0cbe d247 16be 9219 82bf
000000a0: bf3a a3bf 078b 39bf 8376 ba39 6ed4 b3bf
000000b0: 363c 1f3f ea3f a0bd 2b9f 113f f079 7e3e
000000c0: 4709 51bf edca 723f 384b d73e e956 f63e
000000d0: d7c5 7dbf 024f 963e 31c3 51bf ccc0 d9bf
0.1473114 -0.7196397 -1.0060369 -0.65553254 -1.373869 0.1256703 0.45293406 0.6031673
0.7072271 -0.635358 -0.90354186 0.33310592 -0.9591738 -0.0757182 -1.5529474 -1.1087127
-1.1750891 -0.92471987 -0.09416593 0.48911247 -0.063738294 0.00011030617 -1.3006588 0.37263793
-1.2154382 -0.9256845 0.7828134 -0.03271633 0.936592 0.28070092 -1.3032949 -1.5760994
0.39780667 -0.8018777 0.5688437 -0.9905208 -1.0069808 -0.13769485 -0.14675835 -1.0164053
-1.2752303 -0.72477764 0.00035564983 -1.4049203 0.6220125 -0.07824691 0.56883496 0.24851203
-0.8165478 0.9484089 0.42049575 0.48113182 -0.99130005 0.29357153 -0.81938463 -1.7011962

l3.bias f4 [7]
00000000: 485e e73d 8003 b1be 7e71 b3bd 1454 6bbe
00000010: 30b2 1639 6e2c 5cbc eb22 2fbd
0.112972796 -0.34572983 -0.08761881 -0.22981292 0.00014371495 -0.013438327 -0.04275791
