Backed_Draft_01/data.pth (torch, 26410 bytes, 6 tensors)

l1.weight f4 [8, 392]
0.7272483 0.059178196 0.9531312 0.48657152 0.5770176 -0.22007278 -0.28882843 1.0355262
0.28827268 0.2437175 0.047683667 0.7304523 0.089779414 0.44402164 -0.14656812 0.2489568
0.5578135 -0.15028222 0.5334675 0.028731981 0.48862886 0.55241674 -0.031021383 -1.0690368
-0.118649796 0.8630428 0.56682795 -0.5682523 0.51732117 -0.2274203 0.09482364 0.38056463
0.28186896 -0.031879064 -0.10548543 -0.5545783 -0.74428463 0.26122382 0.3550895 -0.6469227
0.32978594 0.3901964 -0.8024896 -0.5949197 -0.217858 -1.4996252 -0.4423043 0.51685506
0.20453937 1.4287829 0.33594683 0.29421464 -0.28610536 0.14609389 -0.208879 0.15539795
-0.3753316 0.9210991 0.96789443 0.0036643234 -0.33803648 -1.0097048 0.75331503 0.42193592
0.06955259 0.12024353 0.6561822 0.11262457 -0.61250657 -0.43130368 -0.9001675 1.0477461
-0.15395151 -0.20070149 -0.499967 -0.08094676 0.20615056 0.6386724 -0.19082998 -0.1587348
0.3363962 -1.0402064 -0.06653618 -0.08088715 0.13533857 -0.7797818 0.9487027 -0.4086709
0.57973385 0.23103637 -0.69168043 0.5894388 0.8587417 -0.078896925 0.32051823 0.14209738
0.8031756 0.85662913 0.001192467 -0.0059171524 1.5207663 0.7695207 -0.29099584 -0.5817793
-0.086210765 -0.15578906 0.27968776 -0.5452151 1.2519864 0.32124767 -0.5856811 0.28282332
-0.25658238 0.29087245 0.54296726 -0.04907418 0.35313794 0.23956646 -0.6249573 -0.5249828
-0.10631638 -0.19885093 -0.11618848 0.49577066 0.81715715 0.6247919 -0.25559035 0.2850853
0.04182943 -0.38306284 1.0034401 -0.11342469 0.5200283 0.17320453 0.4205541 -0.3053076
0.8432269 0.081478715 0.5318473 0.5043917 0.6173899 0.7257046 0.61971843 0.28615108
-0.25600353 0.9113577 0.45229653 0.5748716 -0.51249945 -0.92564714 -0.37467024 0.22969063
-0.6936175 -0.5088493 1.1898777 -0.29130486 0.6619116 1.8316969 0.39399543 1.0255922
-0.23899862 0.4664906 0.15075038 0.12721154 -1.0426143 -0.6592729 0.26172882 0.6720964
-0.20278503 -0.2015751 -0.20320301 0.620223 -0.013592946 -0.36667693 0.64900976 0.21033072
0.059810165 -0.34906924 -0.5651273 -0.5417124 -0.31084576 -0.5796534 0.4761947 -0.17012887
1.1037334 -0.99454826 -0.9699574 0.15019102 0.78511083 -0.94039583 -0.043536365 -1.1222531
0.458652 0.18864617 -0.89318645 0.6710058 0.8225861 -1.5688251 -0.71198404 -0.9892433
-0.026657928 0.5736843 -0.69793826 0.78027415 1.0053113 0.0945449 1.0878992 0.062476285
-0.29527986 0.4734275 0.0797022 -1.0111824 0.66388613 0.116694875 0.57005686 0.329418
0.2028028 -1.0904207 -1.3642502 0.8221527 0.3883471 0.6206248 -0.59390604 0.72852093
0.008675881 0.5546866 0.7020207 0.99740994 -0.47089642 0.16781823 0.058133774 0.3724814
0.73136806 0.30287594 0.65961605 1.0847888 -0.5846384 -1.3145721 -0.9402847 -0.013669223
0.4054069 -1.044489 -0.75325173 0.49476412 1.166502 0.9864884 0.5618329 0.88778037
0.7309558 -1.0964273 0.047436766 0.20717247 0.9409795 -0.11241569 0.25650266 -0.42831355
00000000: f22c 3a3f d664 723d 6800 743f e71f f93e
00000010: 6db7 133f c25a 61be 52e1 93be 1f8c 843f
00000020: 7a98 933e 1591 793e f34f 433d ecfe 3a3f
00000030: 45de b73d ce56 e33e f415 16be 88ee 7e3e
00000040: decc 0e3f 95e3 19be 5391 083f 555f eb3c
00000050: 902d fa3e 2f6b 0d3f 8e20 febc 33d6 88bf
00000060: aafe f2bd 5ff0 5c3f a31b 113f fc78 11bf
00000070: 296f 043f dee0 68be e632 c23d 5ed9 c23e
00000080: 2151 903e 9f93 02bd bf08 d8bd d8f8 0dbf
00000090: 7089 3ebf 21bf 853e 4ace b53e ba9c 25bf
000000a0: b4d9 a83e d3c7 c73e f56f 4dbf a84c 18bf
000000b0: 2b16 5fbe b8f3 bfbf b675 e2be 9d50 043f
000000c0: c572 513e 5ce2 b63f 3901 ac3e 4da3 963e
000000d0: 677c 92be a399 153e 60e4 55be a420 1f3e
000000e0: 772b c0be 27cd 6b3f eec7 773f 2525 703b
000000f0: 1e13 adbe 023e 81bf 41d9 403f fc07 d83e
00000100: 9771 8e3d 3d42 f63d 8ffb 273f b6a7 e63d
00000110: 3bcd 1cbf d6d3 dcbe 6171 66bf 8b1c 863f
00000120: 77a5 1dbe b184 4dbe adfb ffbe 6ac7 a5bd
00000130: 2219 533e 0980 233f ef68 43be 608b 22be
00000140: 1f3c ac3e 7c25 85bf 1f44 88bd 29a8 a5bd
00000150: 3296 0a3e c89f 47bf 2ede 723f 503d d1be
00000160: 7069 143f cc94 6c3e f811 31bf 76e5 163f
00000170: 7fd6 5b3f b694 a1bd f71a a43e fa81 113e
00000180: eb9c 4d3f 0c4c 5b3f 8e4c 9c3a ace4 c1bb
00000190: 78a8 c23f 4fff 443f 68fd 94be 7def 14bf
000001a0: 458f b0bd 2b87 1fbe 3c33 8f3e 3793 0bbf
000001b0: 1741 a03f 937a a43e 32ef 15bf 38ce 903e
000001c0: c45e 83be 3ced 943e e7ff 0a3f 0202 49bd
000001d0: 7fce b43e e950 753e 34fd 1fbf 4665 06bf
000001e0: 67bc d9bd 949f 4bbe 3af4 edbd a7d5 fd3e
000001f0: 3631 513f 5df2 1f3f bddc 82be b3f6 913e
00000200: 5655 2b3d d020 c4be ba70 803f 344b e8bd
00000210: 9320 053f 875c 313e de52 d73e 4751 9cbe
00000220: b8dd 573f 50de a63d 2527 083f d01f 013f
00000230: 440d 1e3f c7c7 393f dea5 1e3f 6582 923e
00000240: e512 83be bd4e 693f 6993 e73e c92a 133f
00000250: 2a33 03bf 36f7 6cbf c7d4 bfbe 0534 6b3e
00000260: eb90 31bf f343 02bf ea4d 983f e925 95be
00000270: 0a73 293f 0b75 ea3f c5b9 c93e 9b46 833f
00000280: 0ebc 74be dbd7 ee3e 4f5e 1a3e be43 023e
00000290: 6374 85bf 1cc6 28bf 5201 863e 820e 2c3f
000002a0: e1a6 4fbe b469 4ebe 7314 50be efc6 1e3f
000002b0: f3b4 5ebc 14bd bbbe 8125 263f f060 573e
000002c0: 81fb 743d 34b9 b2be 2fac 10bf aaad 0abf
000002d0: 2d27 9fbe 2a64 14bf cbcf f33e 4336 2ebe
000002e0: 2347 8d3f b79a 7ebf 214f 78bf adcb 193e
000002f0: 06fd 483f c8bd 70bf 3053 32bd fda5 8fbf
00000300: 6fd4 ea3e 762c 413e dea7 64bf 09c7 2b3f
00000310: 0195 523f 43cf c8bf 9644 36bf 0d3f 7dbf
00000320: ba61 dabc f9dc 123f 15ac 32bf 0cc0 473f
00000330: 0aae 803f c2a0 c13d 4840 8b3f 22e7 7f3d
00000340: ec2e 97be 1765 f23e e83a a33d 6d6e 81bf
00000350: 71f4 293f b9fd ee3d 3fef 113f 7aa9 a83e
00000360: 8aab 4f3e e892 8bbf c09f aebf 9978 523f
00000370: 6ed5 c63e 44e1 1e3f 3a0a 18bf 5980 3a3f
00000380: 4825 0e3c f1ff 0d3f a1b7 333f 4256 7f3f
00000390: 5619 f1be 8bd8 2b3e ae1d 6e3d e2b5 be3e
000003a0: f03a 3b3f 8e12 9b3e 99dc 283f 5cda 8a3f
000003b0: ddaa 15bf e643 a8bf 80b6 70bf e0f4 5fbc
000003c0: 7e91 cf3e d1b1 85bf 1bd5 40bf b951 fd3e
000003d0: f04f 953f 818a 7c3f 48d4 0f3f 9345 633f
000003e0: eb1f 3b3f bb57 8cbf 0e4d 423d 0525 543e
000003f0: 08e4 703f 333a e6bd 5154 833e ea4b dbbe

l1.bias f4 [8]
0.19948341 0.46733537 0.7992719 0.17435455 0.726167 0.94268376 1.2783866 1.2061669
00000000: 6145 4c3e 9546 ef3e 159d 4c3f 008a 323e
00000010: 15e6 393f b953 713f 2ca2 a33f ad63 9a3f

l2.weight f4 [8, 8]
-0.1539102 -0.32953623 -0.22004698 0.32677346 0.043841425 -0.079744026 0.0069860946 -0.077203035
2.7086186 1.4419968 0.9432308 2.6091318 0.0038422737 -1.3002177 1.3221725 -0.7317482
-0.07846927 -0.28393492 -0.12128577 0.11534336 0.2918902 0.0060450123 0.2900802 -0.1450159
-1.4316626 -1.2539542 1.5291994 -0.23186854 0.7250589 -1.0742775 1.0390794 1.590345
0.68855286 1.6294057 -1.5537684 -2.2354767 1.529189 -1.0405614 1.0809608 1.0055008
0.49215072 1.4492466 -1.0592632 -0.59915686 -1.386509 1.0665127 0.45069087 1.6686915
-0.037355155 -0.23304784 -0.05744428 0.0806743 -0.1950196 0.1417974 0.08928448 -0.12588266
-1.7965987 1.4956994 2.1850138 -1.2240402 3.6076825 2.9846158 0.69241655 -0.8941225
00000000: a39a 1dbe f9b8 a8be ff53 61be da4e a73e
00000010: 1193 333d d650 a3bd 9ceb e43b a01c 9ebd
00000020: 025a 2d40 5a93 b83f 9377 713f 04fc 2640
00000030: a8ce 7b3b 896d a6bf f33c a93f da53 3bbf
00000040: 7fb4 a0bd eb5f 91be ac64 f8bd 2439 ec3d
00000050: a272 953e 3d15 c63b 6485 943e 0c7f 14be
00000060: b840 b7bf 9281 a0bf cebc c33f f26e 6dbe
00000070: 769d 393f ed81 89bf 8e00 853f 6d90 cb3f
00000080: 0045 303f 5e90 d03f e2e1 c6bf 0d12 0fc0
00000090: 77bc c33f 1e31 85bf ec5c 8a3f 40b4 803f
000000a0: 2efb fb3e ea80 b93f f095 87bf 5862 19bf
000000b0: 2079 b1bf 7d83 883f f4c0 e63e af97 d53f
000000c0: b801 19bd 18a4 6ebe b14a 6bbd 9138 a53d
000000d0: 38b3 47be 5633 113e c8da b63d 62e7 00be
000000e0: f2f6 e5bf 1473 bf3f 44d7 0b40 59ad 9cbf
000000f0: 45e4 6640 f203 3f40 3642 313f 36e5 64bf

l2.bias f4 [8]
-0.24247336 -0.2012645 -0.15771313 0.6752317 -0.17038532 0.9272249 -0.3814278 0.71283907
00000000: f04a 78be 4818 4ebe 8d7f 21be fcdb 2c3f
00000010: 7d79 2ebe 9c5e 6d3f 814a c3be 9f7c 363f

l3.weight f4 [54, 8]
-0.088430464 -0.31271935 -0.053134035 -2.8326802 -2.5249994 1.0918629 -0.35994163 0.11237429
0.24544218 -2.6019933 0.0064833825 -0.42937544 0.9895268 1.0700824 -0.16625094 -2.4149075
0.25676295 1.0120968 -0.25705394 -3.1669035 -0.07308901 0.21515505 0.09089255 -2.569574
0.25780734 0.50707567 -0.5730635 -0.26132593 -2.7499151 -0.50139475 -0.322287 -0.3412344
0.13432175 -0.19579007 -0.27187538 0.64107203 -0.7092496 0.23330797 0.29269847 -2.0645583
0.049260616 0.72610384 0.2902374 -2.5746078 -1.0820842 -1.3698895 -0.046602417 0.06210304
0.303251 0.18706267 0.4827755 -0.5950144 0.6079956 -0.94154555 0.022392154 -0.46986446
0.008755952 0.2372613 0.5470013 0.38491094 0.010735986 -2.1431117 0.12363554 -0.51522946
0.18198916 0.4254086 0.054395054 -0.9076548 -0.46259686 -0.45795548 -0.27640486 -0.23387212
0.285965 0.04498401 0.20293319 -0.035216965 -0.8289516 -0.9912685 0.20739251 0.18837887
-0.23563084 -0.2101861 0.011379548 -0.4740117 0.09886428 -0.098788865 -0.26782468 -0.17343791
-0.10963758 0.5833519 0.41194987 0.28969336 -3.0268352 -2.22303 -0.0949583 -0.12946428
-0.21684629 0.2081158 -0.1879296 -1.4434863 0.75431013 0.08626745 -0.034371037 -2.0421739
0.18189874 0.5287914 -0.20230992 0.7095747 -1.628857 -1.4744084 -0.38518587 -1.6142936
-0.135612 -0.07535328 -0.52762705 0.21198194 -0.12916961 -0.10072089 -0.19783144 -0.72074145
0.106053025 -1.2809416 -0.9695954 -0.14250632 0.2660215 0.107126 -0.3860342 -0.08810165
0.24471566 0.4133419 0.46544945 -0.15456054 0.16388276 -0.2605081 -0.3598187 -1.9779656
0.33191684 -0.32565683 -0.22006012 0.17529841 -3.085887 -1.2728826 0.16715464 0.5062066
-0.2498841 -0.66743004 0.13907868 0.3999359 0.12410443 -0.81098413 0.025494006 -0.019360071
0.2850609 -1.928063 -0.7590688 0.963777 0.46710208 0.024306377 0.032411806 -1.8082861
0.20166674 0.56955457 -0.2176385 -2.9342163 -0.5127052 -0.1435393 -0.12735902 -0.32784206
0.15090087 0.4498564 -0.06324384 -0.79397106 -2.6761682 -2.1506054 -0.04723244 0.49100345
-0.20952938 -1.0060958 0.1872251 0.29254562 0.6169731 -0.2101666 -0.24142362 -0.67909586
-0.24777879 -0.44995964 0.28104725 0.97758347 -0.10124259 -1.0511775 0.17526741 -0.70622337
-0.01992774 0.2954153 0.3122217 -1.4441772 -0.03952148 -1.2089034 -0.19216718 0.12856774
-0.10412324 0.98282 0.29503304 -0.448318 -1.1180605 -1.8419535 0.16803883 -1.2674448
0.33492264 -0.5676516 0.34693414 0.49175337 -0.37962368 -1.7182578 0.14416336 0.28845394
-0.15463324 0.48952124 -0.22319235 -0.49239004 -0.46711344 -2.4255104 0.06286349 0.1408463
0.19939312 -0.27310532 0.0024804545 0.5759173 -3.0362487 -0.037747324 -0.2566971 -0.50968844
0.30515656 0.19259717 -0.57381725 -0.9872788 0.13527748 0.27454236 -0.35505766 -0.89531755
-0.18456341 -0.26317313 -0.098900095 -0.3051623 0.67633885 0.00060044945 -0.20621541 -1.1458309
0.045493305 0.65648246 -0.19249065 -0.4479518 -2.4669662 0.050070737 -0.09110806 -1.8891345
00000000: 081b b5bd c01c a0be 13a3 59bd a24a 35c0
00000010: 9799 21c0 2ac2 8b3f 454a b8be 7e24 e63d
00000020: 3255 7b3e 0f87 26c0 8e72 d43b 19d7 dbbe
00000030: a151 7d3f 76f8 883f b03d 2abe d88d 1ac0
00000040: 6f76 833e 638c 813f 939c 83be 8cae 4ac0
00000050: b1af 95bd 9b51 5c3e e025 ba3d e773 24c0
00000060: 53ff 833e b6cf 013f 4ab4 12bf 83cc 85be
00000070: 9cfe 2fc0 685b 00bf cd02 a5be 46b6 aebe
00000080: a48b 093e 317d 48be 4033 8bbe 4c1d 243f
00000090: 6291 35bf 49e8 6e3e 93dc 953e b921 04c0
000000a0: 80c5 493d f1e1 393f ff99 943e 60c6 24c0
000000b0: bc81 8abf 8a58 afbf 2de2 3ebd c25f 7e3d
000000c0: b743 9b3e 5b8d 3f3e 5a2e f73e dd52 18bf
000000d0: 9aa5 1b3f 2109 71bf c06f b73c 1392 f0be
000000e0: 2075 0f3c a0f4 723e 4708 0c3f 0c13 c53e
000000f0: fde5 2f3c be28 09c0 a134 fd3d 14e6 03bf
00000100: 5e5b 3a3e 28cf d93e 59cd 5e3d 115c 68bf
00000110: 7fd9 ecbe 2479 eabe f084 8dbe 2c7c 6fbe
00000120: 016a 923e 2741 383d b8cd 4f3e aa3f 10bd
00000130: 2c36 54bf c6c3 7dbf b45e 543e 64e6 403e
00000140: 3649 71be 063b 57be 4971 3a3c a9b1 f2be
00000150: 5b79 ca3d d151 cabd 5120 89be b599 31be
00000160: ab89 e0bd 8d56 153f 18eb d23e b052 943e
00000170: abb7 41c0 2046 0ec0 7f79 c2bd 4992 04be
00000180: f40c 5ebe 4f1c 553e 9e70 40be 29c4 b8bf
00000190: 781a 413f fdac b03d a5c8 0cbd fab2 02c0
000001a0: aa43 3a3e e05e 073f 552a 4fbe b0a6 353f
000001b0: 637e d0bf 6ab9 bcbf 1537 c5be 2ca1 cebf
000001c0: dfdd 0abe d252 9abd 9112 07bf cb11 593e
000001d0: 0a45 04be c146 cebd 5394 4abe 8382 38bf
000001e0: 5432 d93d e5f5 a3bf 6737 78bf 2ded 11be
000001f0: f833 883e e064 db3d 46a6 c5be a36e b4bd
00000200: be96 7a3e 8da1 d33e 644f ee3e 1e45 1ebe
00000210: e2d0 273e 5161 85be 283a b8be fa2d fdbf
00000220: 01f1 a93e 7ebc a6be 7157 61be 6d81 333e
00000230: 2c7f 45c0 d1ed a2bf 962a 2b3e c196 013f
00000240: 9ee1 7fbe b2dc 2abf a46a 0e3e 66c4 cc3e
00000250: 772a fe3d a89c 4fbf ced8 d03c 0399 9ebc
00000260: 81f3 913e c5ca f6bf 5552 42bf 17ba 763f
00000270: 0128 ef3e 2b1e c73c 3ec2 043d eb75 e7bf
00000280: ba81 4e3e 54ce 113f a0dc 5ebe 33ca 3bc0
00000290: a640 03bf f7fb 12be 676a 02be eada a7be
000002a0: c285 1a3e 9453 e63e fd85 81bd b041 4bbf
000002b0: 5746 2bc0 85a3 09c0 ce76 41bd ce64 fb3e
000002c0: df8e 56be bfc7 80bf f0b7 3f3e 8ac8 953e
000002d0: f3f1 1d3f ea35 57be c137 77be 3ad9 2dbf
000002e0: b9b9 7dbe 1c61 e6be 6de5 8f3e e942 7a3f
000002f0: 4658 cfbd fc8c 86bf 4d79 333e 0ecb 34bf
00000300: 803f a3bc ad40 973e 86db 9f3e ccda b8bf
00000310: 47e1 21bd 59bd 9abf 79c7 44be 43a7 033e
00000320: 913e d5bd 179a 7b3f 920e 973e f089 e5be
00000330: 9b1c 8fbf 22c5 ebbf 5f12 2c3e a23b a2bf
00000340: fb7a ab3e 9e51 11bf 5aa1 b13e 19c7 fb3e
00000350: 095e c2be dfef dbbf 8f9f 133e 3cb0 933e
00000360: 2d58 1ebe 87a2 fa3e 898c 64be 8c1a fcbe
00000370: 7e29 efbe 903b 1bc0 93be 803d 033a 103e
00000380: b62d 4c3e 76d4 8bbe 1f8f 223b 516f 133f
00000390: e651 42c0 f09c 1abd cd6d 83be f17a 02bf
000003a0: 7b3d 9c3e 3138 453e b0e5 12bf 4ebe 7cbf
000003b0: 2e86 0a3e d190 8c3e 1eca b5be 8833 65bf
000003c0: 31fe 3cbe a1be 86be 228c cabd 3c3e 9cbe
000003d0: 8b24 2d3f 7b67 1d3a 222a 53be 96aa 92bf
000003e0: 3057 3a3d 3c0f 283f 451c 45be f059 e5be
000003f0: c6e2 1dc0 f916 4d3d dd96 babd 29cf f1bf

l3.bias f4 [54]
1.3047327 1.1195637 1.0633161 0.17694983 -0.18078214 -0.5484899 -1.2633336 -0.28604773
0.2680008 -0.105849475 -0.81422347 -0.65986633 -1.4462403 -0.07840711 0.053353067 -0.8434828
-0.0045507746 -0.7986639 -0.33177367 -0.5347689 -0.619159 -0.24492551 -1.5351332 -0.19923775
-0.8519698 0.42267826 -1.2061038 -0.18647192 -0.5443426 0.09294151 -1.3555179 0.18440866
-1.0674679 -0.18843438 0.32974544 0.15035349 -0.25546536 -0.22367854 -0.59304994 0.3764898
1.471804 1.2929416 0.3131946 -0.04606684 -0.35571003 -0.5007995 -0.07335478 -0.36954385
-0.48159233 0.40379056 0.5835967 -0.04526678 -0.104040235 -0.49485046
00000000: 7b01 a73f dd4d 8f3f be1a 883f 5632 353e
00000010: f41e 39be d669 0cbf eab4 a1bf d974 92be
00000020: 6737 893e 9cc7 d8bd f370 50bf 00ed 28bf
00000030: 671e b9bf e893 a0bd bf88 5a3d 7dee 57bf
00000040: aa1e 95bb 3d75 4cbf 3dde a9be 9de6 08bf
00000050: 3481 1ebf c1cd 7abe 3f7f c4bf fb04 4cbe
00000060: b11a 5abf 4969 d83e 9c61 9abf 7ff2 3ebe
00000070: 095a 0bbf 1e58 be3d 9c81 adbf a0d5 3c3e
00000080: caa2 88bf f1f4 40be 65d4 a83e 44f6 193e
00000090: 5bcc 82be fd0b 65be 1fd2 17bf 45c3 c03e
000000a0: 1364 bc3f 1c7f a53f 0b5b a03e 95b0 3cbd
000000b0: a01f b6be 6534 00bf 083b 96bd da34 bdbe
000000c0: 4593 f6be a3bd ce3e 9866 153f a969 39bd
000000d0: 0c13 d5bd 0a5d fdbe
