Backed_Draft_01/data.pth (torch, 16234 bytes, 6 tensors)

l1.weight f4 [8, 178]
00000000: 96d6 06be 1bf6 7b3e fc54 b43e 416c bfbe
00000010: 9314 4a3f 60d2 cb3d 24fa 0d3e f334 9f3e
00000020: 9ff2 b3bd 12c3 b73c 3a4e 3e3e 17c4 92be
00000030: ac92 cc3e 7b8e 153f 8e74 053e 1056 3d3f
00000040: d05d 4f3f f391 4abe 03ac 46bf ec78 d4be
00000050: 6d31 403e 7868 b5be 2034 55bf 4f94 273f
00000060: 35d7 2a3f aa64 df3e 62ea f0bc 2e61 b23d
00000070: 469e 84bf b7e1 3e3f d6af afbe b69c b0bd
00000080: 1bca c03e 230a 35be 0bf0 a5be e22e 413f
00000090: 16f8 8c3e 28eb 31bf 999f 223f 8249 913f
000000a0: b867 93be 3539 873e 87de 3dbf 5b40 93be
000000b0: 10c2 e7bd b08a 783e 55c2 6a3f 2170 30be
000000c0: 599f a33f 1a40 77bf fa2d 0b3d 0fb7 71bd
000000d0: b040 543f cd07 3a3e 2cc6 94bd 0b9a bbbe
000000e0: 5d1c 7cbf 9aac b7be c48c 0a3f 32b0 253f
000000f0: 1039 c83e 5883 973e 838f 343f bc3f 97be
00000100: 224f 0e3f 0c63 bebc 9a3e 66bf a445 383d
00000110: ff6e 2dbe ab16 62be 06d2 3c3f 7b9a 053e
00000120: bc63 ea3d 2192 aa3e 3d71 423f d832 c9be
00000130: 94ce b6bd 342a c9be ac5f c9be 0dc4 253e
00000140: 831b ff3e c3cc 0d3f db13 35bf 7359 a13d
00000150: 26d8 86bf f736 81be 6dfa 00bf 7f2a a9bd
00000160: d37b 253f 1bbe e33e fd7b 8e3f 1d2a 413f
00000170: f04d 013c 5f37 d43d 9aa2 ca3f b7fe debd
00000180: 5b44 8a3d 6034 553e da87 83bf a5d9 88be
00000190: 6feb 08be fb43 083f 01ca 543e 836c c6bb
000001a0: 93c3 74bd 84eb cebd b4ef ec3e 9958 d4be
000001b0: 8378 0cbe 052d db3e 5ba1 b3be 5caf a5be
000001c0: 51a3 e6be c193 893d bdbd 14bf 50bf 9cbe
000001d0: 1a3a cd3e 0cbb 133f 71f8 ae3e c55a a23f
000001e0: 464e c4be 7646 7bbd c826 d33e 2192 4c3f
000001f0: f374 d43e 4f78 a4be 6762 b1be 8d18 323d
00000200: cc61 2d3c 6a30 0b3f 988a adbe e988 75bf
00000210: 4449 4dbf ffdc 67bf f927 c5be efb9 463e
00000220: 315d 223e ed00 7a3e e42f 38be 1561 d83e
00000230: f4b3 7f3f fb30 4abf 099d 5b3e b162 79be
00000240: 1de5 6f3f 292e d53d d20c 913e 98b1 6a3f
00000250: e7dd 0a3f f837 efbe 0fd0 b43e f248 bdbc
00000260: 144a 4abf e49e 093c 25ae acbe a394 a1bf
00000270: f47c d3be 3a92 76be caef 04bf 3e1e 30be
00000280: 9945 2c3e d77a 86be fc25 3ebf 2f66 063e
00000290: 9380 70bf 9dd3 963e 27bd 353e 7441 363f
000002a0: 9a1f c6be d68a b1be ac22 353f 435a ee3e
000002b0: 1c4f 453d 78d0 fc3e 9698 0bbf 7859 19bf
000002c0: d1d4 013e 8b31 813f 4b9d 6ebe 479e 0c3f
000002d0: 8164 263f 43a4 10bf eadd 923e 57c7 d7bc
000002e0: 46c3 193f 8a22 d9bd 24fd bd3c 7857 283e
000002f0: 8b0d 083f b51d c63e 41f1 623f 658a 8cbf
00000300: 1798 1a3f 6051 c3be fd82 03bd 154e d2be
00000310: 073b 1abf 2854 513f 8f3a 67bd 661b 443f
00000320: fa9e 01bf 8c53 373f 890e 463f 0140 cabe
00000330: 7d4e 70be da73 e63b de48 19bf 634b 533f
00000340: 8d8f b4be 0fb6 8d3e 4e7d 023f bbe3 1a3d
00000350: cc4c d03e fc49 163e 597c 213f 62ea fbbe
00000360: 2e26 383f f782 263f 06f6 0e3e 788b 323f
00000370: 30fa 74bf d88a 96be 4445 f63d 699d 273f
00000380: 5d1f f33e f808 9abe b728 35bf e2b3 5fbf
00000390: e953 303f f959 8f3f 3685 85bf 0cca 353e
000003a0: 33e6 703f e816 033e 83a6 e63e b8f3 8e3e
000003b0: 6aea 353f 4866 3f3f f239 f53e 7f1c ea3e
000003c0: ec57 c2be 927d 293e 4a8c a2be c509 97bd
000003d0: e39b 403f 82d8 893e f9ed 9a3f db34 89be
000003e0: c794 623f b8de c63e 2d56 b7bd 04b2 0a3f
000003f0: bac5 373f 14a6 11bf 15b6 25be 2cae 11bf
-0.13167796 0.246056 0.35221088 -0.3738728 0.78937644 0.09952235 0.13864952 0.31095085
-0.08786511 0.022431884 0.18584529 -0.2866523 0.39955652 0.5842053 0.13032743 0.73959446
0.8100252 -0.19782238 -0.7760622 -0.41498506 0.18768854 -0.35431266 -0.8328266 0.65460676
0.6673463 0.43631488 -0.029408637 0.08709942 -1.0360801 0.74563164 -0.3431384 -0.0862364
0.37654194 -0.17679648 -0.324097 0.7546216 0.27533025 -0.69499445 0.63524777 1.1350558
-0.2879007 0.26410833 -0.74167675 -0.28760037 -0.11316311 0.24271655 0.9170278 -0.17230274
1.2783004 -0.96582186 0.033979394 -0.05901247 0.82911205 0.18167038 -0.07264361 -0.36640963
-0.9848078 -0.35873872 0.5412104 0.6472198 0.39106035 0.29592395 0.7053148 -0.29540813
0.555895 -0.023240589 -0.8993927 0.04498829 -0.16936873 -0.2207896 0.7375797 0.13047211
0.11444804 0.33314613 0.7595404 -0.39296603 -0.089261204 -0.3929001 -0.39330804 0.16188069
0.49825677 0.55390567 -0.7073342 0.07878389 -1.0534713 -0.25237247 -0.5038212 -0.082600586
0.64642066 0.44480976 1.1131588 0.75454885 0.007892117 0.10362124 1.5830872 -0.10888427
0.06751319 0.2082076 -1.0275834 -0.2672855 -0.13371061 0.5322873 0.20780183 -0.006055416
-0.059756827 -0.10103515 0.4627663 -0.41473845 -0.13717847 0.42807785 -0.35084042 -0.3236035
-0.45046476 0.06717635 -0.5810202 -0.3061471 0.4008339 0.57707286 0.3417392 1.2683951
-0.38340968 -0.061346494 0.41240525 0.79910475 0.41495475 -0.32123038 -0.34645388 0.043480445
0.010582399 0.5437075 -0.338948 -0.95912033 -0.8018992 -0.9057159 -0.3850706 0.19406866
0.15855862 0.24414416 -0.17987019 0.42261568 0.9988396 -0.7898099 0.21446623 -0.24354054
0.93708974 0.10409195 0.28330094 0.91677237 0.54244846 -0.46722388 0.35314986 -0.023106072
-0.79019284 0.008399699 -0.33726612 -1.2623485 -0.4130627 -0.24079219 -0.5192839 -0.17199036
0.16823424 -0.26265594 -0.7427671 0.13124917 -0.9394619 0.29458323 0.17747937 0.71193624
-0.38695985 -0.34676236 0.7075603 0.4655324 0.048171148 0.493778 -0.545297 -0.59902143
0.1267884 1.0093244 -0.2330219 0.5492901 0.64997107 -0.56500643 0.28684932 -0.02634017
0.6006359 -0.10602291 0.023191996 0.16439617 0.53145665 0.3869454 0.88649374 -1.0979735
0.6038832 -0.38148022 -0.032107342 -0.41075197 -0.6024632 0.8176904 -0.05645233 0.76604307
-0.50633204 0.7161186 0.7736593 -0.39501956 -0.23467441 0.0070328536 -0.5987681 0.82536906
-0.3526577 0.27677962 0.5097245 0.037814837 0.4068359 0.1467666 0.63080364 -0.49202257
0.7193326 0.65043586 0.13961038 0.6974406 -0.95694256 -0.29402804 0.1202493 0.65474564
0.47484866 -0.30084968 -0.7076525 -0.87383854 0.68878037 1.1199332 -1.0431278 0.17752856
0.94101256 0.12801707 0.45048913 0.27920318 0.7106081 0.74765444 0.4789577 0.45724866
-0.37957704 0.16551808 -0.31747657 -0.0737491 0.75237864 0.26922995 1.2103873 -0.26798138
0.88508266 0.38841796 -0.089519836 0.5417788 0.7178608 -0.5689404 -0.1618274 -0.5690639

l1.bias f4 [8]
00000000: b627 c93e a996 113f 5027 653f 8577 243f
00000010: 9808 473f 3506 743f 1360 c73f 8473 893e
0.3928811 0.56870514 0.8951311 0.6424487 0.7774749 0.9532197 1.5576195 0.26845944

l2.weight f4 [8, 8]
00000000: 5f75 053e b3e0 883d d753 77bf 70a1 d43f
00000010: 879b b43f 524c 71be bf49 3f3f 80e0 ab3f
00000020: 1912 233f 0309 96bf 9ca7 863f 8a48 cc3e
00000030: 52f0 843f f73e 43bf 8ecd da3f fa4a 18bd
00000040: 82c9 bdbf c391 4c3e da81 4a3e 582d 8c3e
00000050: 65d0 b43f a9db df3f 6c95 84bf 56b6 803f
00000060: 6a7c e83d 5391 483f cea2 8e3d 9c47 0ebf
00000070: ff50 0b3d df6b 223f b304 c33f f7da 9fbf
00000080: a565 aebf 8d8c 323f be1e 333f 9d35 80bf
00000090: bff6 0f3f 246c b43f 74ba 263f f8b2 2abe
000000a0: 99f3 06c0 b709 0fbf d48e bc3f 35e9 3a3f
000000b0: ef4d 8dbe 04ec 3e3f 675a a43e d2ac f9bd
000000c0: 2528 b03e 67a8 3f3f f255 86bf 8177 573f
000000d0: b372 ccbe 5666 9c3f 2675 8c3f 3072 50bf
000000e0: c158 d93f 6eaa f23f 6777 fe3f 116d 20bb
000000f0: 489a e8be 2836 013f 5d24 0ebf 7978 633e
0.13033055 0.06683483 -0.96612304 1.6611767 1.4109963 -0.2356427 0.747219 1.3427887
0.6369949 -1.17215 1.05199 0.39899093 1.038584 -0.7626795 1.709398 -0.03718088
-1.482712 0.19977479 0.19776097 0.27378345 1.4126097 1.748891 -1.03581 1.0055645
0.11351855 0.7834675 0.06964646 -0.5557802 0.03401279 0.6344585 1.5235809 -1.2488698
-1.362477 0.69745713 0.69968784 -1.0016361 0.5623588 1.4095502 0.65128255 -0.16669834
-2.108618 -0.558742 1.4731088 0.73012096 -0.2759852 0.7457888 0.32100222 -0.12191166
0.34405628 0.74866337 -1.0494978 0.84166723 -0.3993126 1.221873 1.0973251 -0.81424236
1.698021 1.8958261 1.9880189 -0.002447907 -0.45430207 0.5047326 -0.55524236 0.22213925

l2.bias f4 [8]
00000000: f0c4 19bd eafb 5a3f 3603 1d3f 6702 a53f
00000010: 1f19 b93d 4367 803f 7fed dc3e 5ca9 03bf
-0.03754133 0.8554064 0.61333025 1.2891358 0.090379946 1.0031513 0.43149945 -0.51430297

l3.weight f4 [44, 8]
00000000: 8e01 85bf ea41 0ac0 c42a a5bf ec57 0e3f
00000010: b9ca 9e3e 3813 d1bf 1e26 323f 11d2 a23d
00000020: a58f 0cbf 24d9 52c0 733c 043f af7c 003d
00000030: 5cc7 853d 6719 fbbf 9b5a bfbd b330 273e
00000040: ca12 39bf c392 e0bf a884 a03e b7b3 d0bf
00000050: c066 033e d06d ea3e 310f 1bc0 8f6d 053e
00000060: 9b48 4ebf 789e 9cbf abc4 9ebe 660a 733e
00000070: cf9f 7c3e 228b f5bf 60f6 dcbf 0afa 073f
00000080: db3c 0e3e fdf2 e9be 42e8 c43e d5ef 07c0
00000090: 3172 b7bd 9111 823d 72e1 34c0 1d22 4dbf
000000a0: b215 14be f4f0 c1be 25db 24be ed5c 66be
000000b0: 93c5 733e 7ab0 1ac0 13b2 a5bf ab82 b93d
000000c0: afc9 3f3e 5319 9bbe d679 84be 0fff 99bd
000000d0: 4b8a 1fbf a545 37c0 5d5c 743c 2c5c cdbe
000000e0: 1b9b 923e f87f cbbe f678 bb3d 3525 ecbd
000000f0: b818 753d ccca 8ebf 0cf2 66bf 21e4 66bf
00000100: acc9 76bd fb61 06c0 009e 0a3f d2ff dcbf
00000110: ee1a 573e 57b0 0ac0 847c 09c0 53a8 ae3e
00000120: 1fc0 dfbf 4257 22c0 1929 6d3e 7d61 70be
00000130: 1dc9 433e a0c9 d63e 625a a3bf 42f2 873e
00000140: ab43 b4bf 1b26 dfbf c19b 45bf 0749 c63e
00000150: 427b 07bf 5fda c1bf 12d4 333d 3b23 1d3f
00000160: 28cf 07be 89f6 b4bf a944 fbbc 51d9 8bbe
00000170: 96d6 9c3e b5f1 2fbf cc71 debe 4745 67bd
00000180: 04fc b43e d76e 7ebc d3a4 633e 8275 c9bf
00000190: ecb4 87bf 22bf f5bf 203f 81bf 101a 08bf
000001a0: 8eba c83e 3f82 edbf 82b8 ee3e a86b 9dbe
000001b0: 1db9 0bbe 1090 44c0 cc73 18bf 73c1 98be
000001c0: 2841 18be 5912 7fbf 0fef 64bf be25 3dbf
000001d0: 832d 8ebf 595e 71bf 9eb1 11c0 7f72 5d3f
000001e0: 6d98 5e3e 8f68 c3bf aac8 b1bd 4e80 74bf
000001f0: f781 82bf f237 00c0 e757 44bf 0698 e93e
00000200: 1f78 b83e 1cdc 2dbf 26e9 243f bef1 41bf
00000210: 0f1e 18c0 85e7 2ac0 5fb1 37c0 677c b3bd
00000220: 79f3 1ebe 2976 91bf bf71 703d a2d8 29bf
00000230: ff25 903e 1e7b 983e 3399 d0bf df2a 95be
00000240: 13ab 4fbe 05af 44bf bd21 c63c dca9 d9bf
00000250: 7e25 1cbe 5edc 84be 0744 1fc0 ad6f 773e
00000260: cbec f63d c138 663d a3b1 9e3c 0f29 b5bf
00000270: 9551 e0bf c06a 203e e710 c5bf 705b 0ebf
00000280: f256 42bf 2c33 a9bf 2449 a1bd 28c7 a73e
00000290: 0b49 383e 208a 2fc0 7a6d 943e 34fd a23d
000002a0: d38c e3be 76d7 2ac0 f28d 0b3f 0787 36bf
000002b0: c561 f03e 5b18 8cbe 63bb cfbf 3056 333c
000002c0: 8643 dfbf 5726 fbbf 5546 f6bd e2d5 893e
000002d0: 0414 933e 9310 01bf 1880 abbe f971 9c3e
000002e0: 4c28 083f 532e bf3d dc54 debf 6512 eabf
000002f0: 8b8d 2abf 1324 afbf 903b adbe 5f6d 8ebe
00000300: cb9a c13d 42d8 aa3e 5fe8 16bf 71e8 7a3d
00000310: 4350 f5bf 46ff f1bf 6258 03c0 77dc 223e
00000320: 6077 173f 6423 13bf 2c86 283f ffa0 31bf
00000330: 0962 7fbf 0080 1ebf 6fcf 1ac0 30dd c7bf
00000340: a937 4b3e 5735 7ebf 1507 1c3f ef55 0cc0
00000350: b3bd 9c3e b079 a0bf 8024 acbf 4c65 e2be
00000360: cad3 96bf bd34 8fbf e12c d33e dc37 423e
00000370: 8eb8 b63d 28c6 b3be d771 cabf 663c 253e
00000380: b3bc d83d f334 00bf 4cc7 9f3d 5e8a dcbf
00000390: 3a4d c8be dbe9 efbf ab20 35c0 3c16 8d3e
000003a0: 747d c4be 16fd 16bf d377 88bf c7ce 673d
000003b0: 7dbe d7bd 1aec cfbf 343d 35be 4a8c 983e
000003c0: 1543 563d a075 ad3e 21d7 03be 811a 66bc
000003d0: b736 66bf f094 0ec0 d795 5fbe ee97 bdbf
000003e0: 2f1f cd3e 6261 153e 4777 f8bf bd0b 503e
000003f0: 4103 eebf 4e6b c1bf dfab c13d 9b2a d9bf
-1.03911 -2.160273 -1.2903676 0.5560291 0.3101404 -1.633399 0.6958941 0.07950223
-0.54906684 -3.2945032 0.5165474 0.031368908 0.065321654 -1.9617127 -0.093434535 0.16327171
-0.72294295 -1.7544788 0.3135121 -1.6304845 0.12832165 0.45786905 -2.4228022 0.13030075
-0.8057954 -1.2235861 -0.3100942 0.23734435 0.24670337 -1.9183085 -1.7262688 0.53115904
0.13890402 -0.45693198 0.3845845 -2.1240132 -0.08957327 0.06351007 -2.82626 -0.8013018
-0.14461401 -0.37879145 -0.16099222 -0.22496386 0.23805837 -2.4170213 -1.2944969 0.09058126
0.1872928 -0.30292758 -0.25874203 -0.07519352 -0.62320393 -2.8636258 0.014914599 -0.40109384
0.2863396 -0.3974607 0.09153931 -0.11530534 0.059838027 -1.1155639 -0.90213084 -0.9019185
-0.060250923 -2.0997303 0.5414734 -1.726557 0.21006367 -2.167013 -2.1482248 0.34112796
-1.7480506 -2.5365758 0.23160209 -0.23474689 0.19119687 0.41950703 -1.2761958 0.26552016
-1.4083151 -1.7433504 -0.77190787 0.3872759 -0.5292245 -1.5144767 0.043903418 0.6138188
-0.13262618 -1.4137737 -0.030672388 -0.27314237 0.30632466 -0.6872819 -0.43446195 -0.056462552
0.35348523 -0.015529356 0.22230844 -1.5738986 -1.0602088 -1.9198954 -1.0097389 -0.5316477
0.3920483 -1.8555373 0.46625143 -0.30746198 -0.13644834 -3.0712929 -0.5955169 -0.2983509
-0.14868605 -0.9963737 -0.89427274 -0.73885715 -1.1107639 -0.9428459 -2.276466 0.8650283
0.21737833 -1.5266284 -0.08680852 -0.9550828 -1.0195912 -2.0034146 -0.7669663 0.45623797
0.36029145 -0.67913985 0.64418256 -0.75759494 -2.3768346 -2.6703808 -2.8702009 -0.08763962
-0.15522565 -1.1364185 0.058702227 -0.6634618 0.2815399 0.2978143 -1.6296753 -0.2913427
-0.20280103 -0.7682956 0.02418601 -1.7004962 -0.15248677 -0.25949377 -2.488527 0.24163695
0.120568834 0.05620647 0.019371813 -1.4153155 -1.7524897 0.15665722 -1.5395783 -0.5560827
-0.7591392 -1.3218741 -0.078752786 0.32769132 0.17996614 -2.7428055 0.28989774 0.07958451
-0.44443378 -2.6694007 0.54513466 -0.71299785 0.46949592 -0.27362332 -1.6229061 0.010945842
-1.7442482 -1.9621075 -0.120251335 0.26920992 0.28726208 -0.50415915 -0.33496165 0.30555704
0.5318649 0.093350075 -1.7369647 -1.8286864 -0.6662223 -1.3682884 -0.33834505 -0.2781782
0.094533525 0.33368117 -0.5894832 0.06125683 -1.9165119 -1.8906028 -2.0522695 0.15904413
0.59166527 -0.57475877 0.6582973 -0.69386286 -0.99758965 -0.6191406 -2.4189107 -1.5614376
0.19845451 -0.9930014 0.60948306 -2.192745 0.3061348 -1.2537136 -1.3448639 -0.44217908
-1.1783383 -1.118797 0.41245177 0.18966621 0.0892192 -0.3511212 -1.5815991 0.16136321
0.105828665 -0.50080794 0.07801685 -1.7229726 -0.3912142 -1.8743242 -2.830119 0.27556026
-0.38376963 -0.5897993 -1.0661567 0.056593683 -0.1053438 -1.6243927 -0.17699128 0.29794532
0.05231007 0.33878803 -0.12875034 -0.014044405 -0.8992724 -2.2278404 -0.21834503 -1.481199
0.40062854 0.1458793 -1.94114 0.20316978 -1.8594743 -1.5110872 0.0945661 -1.6966127

l3.bias f4 [44]
00000000: 0d56 93bd 017d 67be 3829 a3be 3e4f ba3d
00000010: 63f6 bdbd f792 88bd 0fc2 1bbb 8c7f 63be
00000020: e1e3 9d3c 4873 bfbd e076 f03d 3b84 0cbd
00000030: 6aa6 61bd 2035 3ebe fce2 bb3e 4fbc dc3e
00000040: 118e ae3e 506b d1be a3c9 02bf a0f3 a7be
00000050: 6b21 ac3d 92a5 86be 9c0c bbbd 929c a23e
00000060: c419 8b3e d1db 0b3e b894 47bd c383 d0be
00000070: 03bf 05bf 9a7b dcbe 576a 1abe 9335 e3bd
00000080: ce9e ccbe 9727 eebe bb4a a9be 4b99 a6bd
00000090: 3328 c3be 33a9 cebe b6a1 d73e 9826 f03e
000000a0: a991 023f d57e 943e 4abe 493c 6859 ac3e
-0.07194147 -0.22606279 -0.31867385 0.090971455 -0.0927551 -0.06668656 -0.002376679 -0.22216624
0.0192737 -0.0934816 0.117414236 -0.034305792 -0.055090345 -0.18574953 0.36696613 0.43112418
0.34092763 -0.40902185 -0.51088923 -0.3280306 0.084048115 -0.26298195 -0.091332644 0.3176008
0.27168095 0.13658072 -0.048725814 -0.40725526 -0.52244586 -0.4306305 -0.15079628 -0.11094203
-0.39964908 -0.4651458 -0.33064827 -0.08134707 -0.38116607 -0.40363464 0.42115563 0.46904445
0.5100351 0.29003015 0.012313435 0.33661962
