Backed_Draft_01/data.pth (torch, 26410 bytes, 6 tensors)

l1.weight f4 [8, 392]
00000000: 89fd 4dbd ee53 fb3e 009f f23e 6d36 bdbe
00000010: 9359 853c a7f9 c4be 22e3 66bc c540 24bf
00000020: d318 923e 4cb9 803e 63ae 073e 3e12 0e3f
00000030: 1bc7 f5bd eed1 363e 4c8d 3a3f d738 ddbe
00000040: d951 e93e 05e7 093f 3677 e4be 2935 d33e
00000050: 88e0 1fbe 5cb9 f13e fa5e 9f3e b9a8 123f
00000060: 970e 183f 496c 693e f241 d43d d91c 38bf
00000070: 1ca5 a43e f1d4 b1bc 7d01 6d3e 7378 98be
00000080: 0c39 ef3e 33f6 1d3f 362b 6dbe a17d c33e
00000090: e6b7 cfbe eadf f93e 138f 993c 4ae5 30be
000000a0: 9842 e43e 1765 92be 247b c6be 36c4 40be
000000b0: 9030 f63d 7a27 b3be 8739 403e cd14 9d3e
000000c0: 991d 28be caaf 843f 3199 9f3d 6acd 9d3e
000000d0: 17ee f33d daf2 333f 65bc 09bf 3a52 f8be
000000e0: 62d2 0dbf 803b b23e 6786 8abe 9c96 fb3e
000000f0: 99f5 e53e 8886 163f ce99 993e 18dd 143e
00000100: 1955 1cbd 329a 033f d908 2c3f 30b9 77be
00000110: 77ad 453e d5c5 62be 7481 c93c 056d c4be
00000120: e463 84be 4497 973e 8eaa 47be a4fd e53e
00000130: 67df f93d c160 d03e 5310 b1be 5d1e b83e
00000140: 6be9 0f3d c589 d03e 3f05 fabe ef77 af3e
00000150: 02de d9be ae6c bcbe 3c7a 303f b864 253f
00000160: e3ad 45be 183b 7e3d 162a d8be 9127 8e3d
00000170: 2100 a0bd 5d38 123e c67e 5e3b 46a3 ce3e
00000180: 3df0 8a3e 0ae7 f23e c0a2 c73c c659 62bc
00000190: 1b00 a9be 5d4b c9be 0a34 c03d 01b2 89be
000001a0: 4a1b 5dbe 33aa 50be 77aa d13e 90e5 f73e
000001b0: 958f 64bf 5007 853e 08b1 973e cd5a 133d
000001c0: 7bf5 19be 56ac eebc 3708 cebe 6f9d 083f
000001d0: 7f8b 8ebe 553d e5be 1f91 05bf 08cc 4c3f
000001e0: 2acf 19be 55c4 87be e1b7 d73d 557c 02bf
000001f0: a82d d73e 9543 efbe 3af7 f0bd d760 b13e
00000200: 24e5 4c3f e57e 5e3f 489b bc3e 2ca8 473e
00000210: ebee 9f3e b704 14be 1b23 1c3f d705 15be
00000220: aa3a 04bf 91a2 b83e c3dc 563e 5205 b8be
00000230: 1b9e cabe d636 dd3e 1abb 943e d5fd 293f
00000240: 2609 303e f0b3 153f 95c8 0c3e 96f9 00be
00000250: d579 44be ee17 07bf 11b5 98be 00f6 2a3f
00000260: 7316 803d d569 61be d5be b83e 50f2 aabe
00000270: 4a2c 1cbe cdca 083e 2e37 9abe ff13 133e
00000280: 4bc8 a73e 9c3f 9a3e f7f3 c0be 6a39 653d
00000290: 0133 13bf ad7c f2be ab68 91be 0f96 983e
000002a0: 60aa d1be 96a7 dabe fd6a d5be 83eb dcbe
000002b0: 1b2e 99bc b15d ce3e 3106 c5be 7932 00bf
000002c0: 938b 7e3e 899b a4be cb8f cabe bfc2 f33e
000002d0: f1ee 08bf e1eb bdbe b0e1 013f 31c6 493f
000002e0: 2f5c 493e 20f1 f3be 4f09 16bf 1146 8e3f
000002f0: 5048 493f 2393 cebe 942c 42bd 8f9a 2abf
00000300: 5bb1 863f bdb4 41be dd66 0bbf f334 4a3e
00000310: 9d7e 0f3f 5f51 33bf 7e62 89be e6fe 203f
00000320: 2bf0 273f 8aa3 913e 51a7 72be 90d5 113f
00000330: 617a 22bf af46 e53e 0056 193f d9ac d43e
00000340: 15de f6bc 6a92 2ebe c8db 0a3f 1f9b 283f
00000350: 32c2 753e e5c2 8f3e 0fe6 f03e b9e0 903e
00000360: 704e b43e ba56 a6be 4cef d8be 8a4f f93e
00000370: af85 363e c879 993d 74be 52be 26c5 d23d
00000380: aeeb 223f 1dcf 0e3f 5655 a3be dc70 12bf
00000390: b38d 053f d995 34be 88c1 163f bdd0 52bc
000003a0: 2a61 303f ab30 023f 2b6a 6d3e 6d36 543f
000003b0: c089 92be 3982 d1be bfd6 083d 45f0 cf3e
000003c0: 1194 053f 155d 42bf 8e05 9a3e 29f3 b53e
000003d0: dbd3 bd3e 6fb7 483f 52e0 a4be 6eaf 783d
000003e0: e039 343f bccd d23e 9b91 3b3f 2de4 603e
000003f0: b303 1f3f 6881 ac3e 9669 cebd 0bcc 263f
-0.050290618 0.4908747 0.47386932 -0.36955586 0.016278064 -0.3847172 -0.014092239 -0.6416133
0.28534564 0.2514137 0.13250117 0.55496585 -0.12000867 0.1785352 0.7287185 -0.43207428
0.45570257 0.5386813 -0.446222 0.41251495 -0.15612996 0.4721173 0.3112715 0.572887
0.5939726 0.22795214 0.103641406 -0.7191902 0.32157218 -0.021707984 0.23145099 -0.29779395
0.4672321 0.61703795 -0.23161015 0.38181785 -0.4056999 0.48803645 0.01874498 -0.17274967
0.44582057 -0.2859275 -0.38765824 -0.18824849 0.12020981 -0.34991056 0.18771945 0.30679932
-0.1641754 1.0366147 0.07792891 0.3082078 0.119106464 0.7029244 -0.5380309 -0.48500234
-0.55399144 0.3481102 -0.27055666 0.49138343 0.4491394 0.5879903 0.30000156 0.14537466
-0.038167093 0.5140716 0.67201 -0.24191737 0.19304453 -0.2214578 0.02459786 -0.38364425
-0.2585746 0.29607594 -0.19498655 0.44920075 0.12200814 0.40698817 -0.34582767 0.35960665
0.035134714 0.4073011 -0.48832127 0.3427119 -0.4255219 -0.36801666 0.68936515 0.6460681
-0.19304614 0.062068075 -0.4221961 0.069411404 -0.078125246 0.14279313 0.0033950075 0.40358943
0.27136412 0.47441894 0.024369597 -0.013815349 -0.33007893 -0.3931531 0.09384926 -0.2689362
-0.21592441 -0.20377426 0.40950367 0.4841733 -0.8928159 0.25982141 0.29627252 0.035975266
-0.1503505 -0.02913491 -0.40240642 0.53365225 -0.27840802 -0.44773355 -0.5217456 0.79998827
-0.15020433 -0.26516977 0.10533119 -0.50970966 0.4202702 -0.46731248 -0.11765905 0.34644195
0.8003714 0.86912376 0.3683722 0.19497746 0.31236967 -0.14454924 0.60991067 -0.14553009
-0.51652014 0.36061528 0.20982651 -0.3594156 -0.3957375 0.432059 0.29048997 0.6640294
0.1719099 0.5847769 0.13748391 -0.1259521 -0.191871 -0.5277089 -0.29825643 0.66781616
0.06254282 -0.22013028 0.36083093 -0.33387995 -0.1525127 0.13358612 -0.30120224 0.14363097
0.3277 0.30126655 -0.3768613 0.055962957 -0.574997 -0.47360745 -0.28400168 0.29801986
-0.40950298 -0.42705983 -0.41683188 -0.4314843 -0.018698743 0.40305856 -0.38481286 -0.50077015
0.24857931 -0.32149914 -0.3956283 0.47609517 -0.53489596 -0.37094024 0.50734997 0.7881804
0.19664072 -0.476449 -0.58607954 1.1115133 0.78625965 -0.4034663 -0.047405794 -0.6664209
1.0522875 -0.18916602 -0.5445383 0.19746761 0.5605257 -0.7004604 -0.26832956 0.62888944
0.6560084 0.28445083 -0.23696639 0.56966496 -0.63467985 0.4478049 0.5989685 0.41538122
-0.030135194 -0.1704804 0.5424161 0.65861696 0.23999861 0.2807838 0.4705052 0.2829645
0.35216093 -0.32488042 -0.4237007 0.48693496 0.17824434 0.07493931 -0.20580465 0.10291509
0.6364087 0.5578478 -0.31901044 -0.5720346 0.5216934 -0.17635287 0.58889055 -0.01286715
0.6889826 0.5085551 0.23185031 0.8289555 -0.2862072 -0.40919665 0.033407923 0.40613
0.52179056 -0.7592328 0.30082363 0.3553708 0.37075695 0.784049 -0.32202393 0.060714178
0.7040081 0.41172588 0.7326905 0.21962042 0.6211502 0.3369248 -0.10078733 0.65155095

l1.bias f4 [8]
00000000: e079 fc3e 1c31 583f b7da c83e fd49 033f
00000010: d9dd 363f 4e78 003f 2b21 573e 1e18 8f3e
0.49311733 0.84449935 0.39229366 0.5128477 0.7143226 0.5018357 0.21008746 0.27948087

l2.weight f4 [8, 8]
00000000: db64 80bf 7ab8 b83e b6b3 dfbd b1b3 e53f
00000010: 325b c73f aa88 363f 06df fd3e 053c efbf
00000020: eff9 f63e 4bef f43e b65a 1a40 0d1f 043f
00000030: c793 703f e4a2 92bf f5c5 163e 24a4 ec3f
00000040: c249 80be b4bc 3cbe fc57 23be 645f 803d
00000050: 84a9 e1bd 84a3 9abe 8c51 ccbd 60bf 06be
00000060: 5fd7 cd3f b026 01bf 6c77 0cbf 1d90 92be
00000070: 07f7 883f a59c 11be 0f6d a13f 0a74 cbbe
00000080: 00c3 06be 6050 b4bd 6b28 a03e 8c9e d7bd
00000090: 30ed 6abe 0090 103c 1cdc 9bbd 301c 84bc
000000a0: b34e b83f fcaf b23f dfa3 af3e d06e e1be
000000b0: 0989 573f deb0 fcbe c3a3 aabf a364 57bf
000000c0: e586 353f 92a0 b03f 30cc 23bf c355 c63e
000000d0: ae6d 9ebf 00ca 643f d1bc 8f3f 682f 823f
000000e0: 7c7d 833f 4bae 223f 3810 3fbf cdae 6cbf
000000f0: c786 96be 9c36 d43f 58f1 913f 0ea3 acbe
-1.0030779 0.36078244 -0.10922949 1.7945462 1.5574706 0.7130228 0.49584216 -1.8690192
0.4823756 0.47838816 2.4117866 0.5160988 0.9397549 -1.145596 0.14723952 1.8487592
-0.25056273 -0.1843136 -0.15951532 0.06268194 -0.11018661 -0.30202878 -0.09976491 -0.13158941
1.6081351 -0.5044966 -0.54869723 -0.28625575 1.0700387 -0.14219911 1.2611407 -0.39736968
-0.13160324 -0.08804393 0.31280836 -0.10528287 -0.22942042 0.008823395 -0.07610342 -0.016126722
1.4399017 1.3959956 0.3430471 -0.44029856 0.84193474 -0.4935369 -1.3331226 -0.84137934
0.7090896 1.3799002 -0.6398344 0.38737306 -1.2377222 0.8937073 1.1229497 1.0170717
1.027267 0.635472 -0.7463412 -0.92454225 -0.29399702 1.6579165 1.1401777 -0.3371815

l2.bias f4 [8]
00000000: 1e1f 583f 83c2 86be 388e acbd f21f 98be
00000010: 085f a7be c3fa 983f b25f d6bd c537 533f
0.8442248 -0.26320276 -0.084255636 -0.29711872 -0.3268969 1.1951526 -0.10467471 0.8250697

l3.weight f4 [54, 8]
00000000: 51f1 05bf 8163 0e3f 81e6 48be 1f02 31bf
00000010: 9a1a 88be 1a9d df3e 666f 02c0 bb83 acbf
00000020: a1af 1b3e 1c02 073f 00d8 26bb 4276 09c0
00000030: b0de 90bc 9d87 923e b4db 0cc0 b0f6 acbf
00000040: b0a6 92bd 343f f53e 15df b43e 48bf 1abf
00000050: 1c69 08be 552b 683e 51f8 93bf 7b75 fcbf
00000060: 83f1 23bf 95d9 c73e 9b2b b03e 3b91 55be
00000070: 652f 8c3e 18b3 1cbd 8d25 08be c368 4dbf
00000080: 229f bd3e 3052 b9be 05ce 9fbe 622f acbe
00000090: 3606 0a3e ebfc 913e 211a 1abf 9d77 cbbe
000000a0: 025e 00c0 a360 10bf 0012 613a adf2 6abd
000000b0: 48e4 3c3d 6b57 47be 9dc4 243f 1693 ce3d
000000c0: 8fb0 3fbe 993f 7b3d 149d 083e 0528 1fbe
000000d0: be25 553e a9db de3e 9c99 5dbf e88e 05bf
000000e0: ecf5 1fbf 6f7c cf3e ac30 e03d b32c 08c0
000000f0: cad8 9bbe d1c0 473e f482 ddbc 1a10 1fbf
00000100: a9c2 1c3e 23d8 91bd ff4a a83e 5a84 4cbf
00000110: c4c0 8dbd 3efb 3e3e fd3c 86be d938 bfbe
00000120: 2c15 40bd f272 9abe 0eee a9be c770 39bd
00000130: 2a41 633e 15c4 9dbe 1d9e 76be 6ebf 933e
00000140: 7a66 103f 0a23 c2be 6452 8cbe 3c44 18be
00000150: 7a64 5d3e 3cd5 e2bf 735c d5be 2876 973d
00000160: 8edf 88bf e347 c03e 1099 aabe fad3 c7be
00000170: 8cd5 c53d 66d1 debe 56b0 a73d a0c9 0dbd
00000180: c28d 33be 7100 933e a05a d0bd ca49 c33e
00000190: 7065 843d 31f2 b5bd a241 95bf 22e9 c7bf
000001a0: 9c87 0b3f 4a99 9e3d 7037 6a3d 3066 e1bf
000001b0: a6b3 643e b334 ab3e b84a c4bf ea1f efbf
000001c0: 7fec 3bbe 7e84 3e3d c0d4 f0bc e894 28bf
000001d0: 58d2 963d 030b acbf 9936 b33e b69c 323c
000001e0: 4ea8 353e 502f 4dbf eb3e b33e 1027 ebbf
000001f0: c8ad 233d c3c6 b4bf aa39 153f 4ad1 213e
00000200: 85f1 6a3e e2df 43bf 0d38 883e 2489 04be
00000210: cc66 c23d 9317 0fbe 49f3 5cbd dddb df3c
00000220: a095 c43e 4aac 063e 2ef8 4dbe 62b3 85bf
00000230: 253d 96be db1d 0dc0 bc4e 993b 9e97 f6be
00000240: 80b0 d53e 1d22 22bf 00f2 dc3c 1ec5 d5be
00000250: be0e 743e eea7 c1bf e4ac 463e c2f3 78bc
00000260: 62d6 eabf 4865 813e c4ac 923d 358e ccbf
00000270: d066 73be af80 e83d 685c b13e bbf7 0ebe
00000280: 8686 99bd 8af9 173d beb0 89be 5750 533e
00000290: 803b cdbb 8439 83be 4b39 55be 2852 3fbf
000002a0: 8099 73bf caa6 b33c 6d25 843e ebfa f3bd
000002b0: dabb 5a3e 6c35 73bf 35e7 ec3e 7628 7e3c
000002c0: ac3f dabd a406 9fbe 3992 51be c6de 013f
000002d0: 7f4a 92be bf6e 0ec0 578c 333e 3ff6 56be
000002e0: 214f bbbc 2d54 a43e 4de4 9ebe 151c 81bf
000002f0: 488e 503d 1116 2abf 9ff2 033e c9f0 61bf
00000300: 85da b63d 54e6 8f3d 906d 82bc 018b febf
00000310: 5887 a1bd 7d95 e43e 9dfb f0bd 622c 03c0
00000320: f925 cebe c5c1 143e 9444 aa3d 137a 08c0
00000330: 2a6d 7b3e 7c76 06c0 50c5 d03e 1e25 8c3e
00000340: 3ffb f7be 1d00 c7be 7d8b 963e 62c2 23bd
00000350: 31d5 a13e b28c 3dbf 2638 143e a38c e03e
00000360: fe81 9f3e 9171 003f 642a c73d 84bf c7bf
00000370: 3be8 91be d3be f3bf 3bbb 56be a9b0 ffbf
00000380: 5346 333e 6b47 fabf 6bbf 94be ea65 bc3e
00000390: eaf5 3b3e 5ba3 efbf 68f6 32bd 98b8 f33e
000003a0: 6bfc f7be d763 f33d 963c 263e 1365 c3be
000003b0: 20fa ffbc a6ea a1be c24f 15bd 1a51 583e
000003c0: 06a5 b5bf b9f8 15bf 05eb a1be 6a53 cf3e
000003d0: 787d 3f3d 9905 c8bf 1a0a d83e 4fb5 bc3e
000003e0: 5162 da3e c14d 703d dd53 923e fff6 a93e
000003f0: 0cba c03d 637f 89bf 1493 32bf 4072 a4bf
-0.52321345 0.5562058 -0.1961918 -0.6914386 -0.26582795 0.43674546 -2.0380492 -1.3477701
0.15203716 0.52737594 -0.0025458336 -2.147843 -0.01768431 0.2861909 -2.2009096 -1.3512783
-0.07160699 0.47899783 0.35326448 -0.6044812 -0.13321346 0.2267278 -1.1560155 -1.9723352
-0.6404039 0.3903319 0.34408268 -0.20856182 0.2737991 -0.038256735 -0.13295574 -0.8023798
0.3703547 -0.36195517 -0.31211868 -0.336299 0.13478932 0.28513274 -0.6019612 -0.39739695
-2.0057378 -0.56397456 0.0008585751 -0.05736034 0.046116143 -0.19466941 0.6436251 0.10086648
-0.18719696 0.06133995 0.1334117 -0.1554261 0.20815179 0.43526962 -0.86562514 -0.5217118
-0.6248462 0.40524623 0.109467834 -2.1277282 -0.30438834 0.19507147 -0.027039982 -0.62133944
0.15308632 -0.07121303 0.32869717 -0.7988945 -0.06921533 0.18650529 -0.26218405 -0.3734806
-0.04689519 -0.3016582 -0.33189434 -0.04527357 0.22192827 -0.3081366 -0.24083753 0.28856987
0.56406367 -0.37917358 -0.2740661 -0.1486978 0.2162036 -1.7721324 -0.41672096 0.073955834
-1.0693223 0.37554845 -0.33319902 -0.39028913 0.096598715 -0.43519133 0.0818793 -0.034616113
-0.17534545 0.28711274 -0.10173535 0.38142234 0.0646466 -0.08884085 -1.1660655 -1.5618021
0.545038 0.07744081 0.057181776 -1.760931 0.22334155 0.33438644 -1.5335302 -1.8681614
-0.18351935 0.046513073 -0.029398322 -0.6585221 0.07364339 -1.344086 0.35002592 0.010901621
0.17739984 -0.8015032 0.3500894 -1.8371296 0.039960653 -1.4123157 0.58291113 0.15802494
0.22943695 -0.76513493 0.26605263 -0.1294294 0.09492263 -0.13973837 -0.053942952 0.027326519
0.38395405 0.1315166 -0.20114204 -1.0445368 -0.29343525 -2.2049472 0.0046785753 -0.4816255
0.4173622 -0.633333 0.026970863 -0.4175195 0.23833749 -1.5129373 0.1940189 -0.015194835
-1.8346674 0.25272584 0.07161859 -1.5980898 -0.23769689 0.113526694 0.34640813 -0.13961689
-0.074963614 0.037103213 -0.26892656 0.20636116 -0.0062631965 -0.25629818 -0.20822637 -0.74734735
-0.951561 0.021930117 0.25809804 -0.11913093 0.21360722 -0.9500339 0.46270147 0.015512576
-0.10656676 -0.31059754 -0.20465936 0.5073055 -0.2857246 -2.2255094 0.17534004 -0.20992373
-0.02286488 0.3209547 -0.31033555 -1.0086695 0.05091694 -0.6643992 0.12885521 -0.88258034
0.08928398 0.070263535 -0.015921384 -1.9886171 -0.07887143 0.446453 -0.117667414 -2.049584
-0.40263346 0.14527042 0.083138615 -2.1324508 0.24553362 -2.1009817 0.40775537 0.27372068
-0.48433873 -0.38867274 0.29403296 -0.0399803 0.31607965 -0.7404281 0.14474544 0.43857297
0.31153864 0.5017329 0.09724882 -1.5605321 -0.2849749 -1.904261 -0.2096986 -1.9975787
0.17507295 -1.9553045 -0.2905229 0.36796504 0.18355528 -1.8721727 -0.043692023 0.4760177
-0.48434767 0.11884277 0.16234049 -0.3816305 -0.031247199 -0.31624335 -0.036453016 0.21124688
-1.4190986 -0.58582646 -0.31624618 0.40493327 0.046750516 -1.5626708 0.42195207 0.36857077
0.42653134 0.058667902 0.28579608 0.33196256 0.094104856 -1.0742 -0.69755673 -1.2847366

l3.bias f4 [54]
00000000: 0770 773e 23f5 123e 04be d63e fa5c ec3e
00000010: 337f 1dbe 574d 55bf 46da 3dbf 3823 d2bd
00000020: 813f 18be ad2c 9a3d 6773 60bd bd85 763e
00000030: b561 6bbf 73b3 d6bd 560e 693e eb9f 8f3e
00000040: dcb6 913d 9f5f 763d bc42 ba3e e298 0bbf
00000050: 42d2 5abe 8fb0 d8be b743 dabe 0f80 6b3d
00000060: 6095 28bf 37df 233f d4ad 3c3e 8e40 a73e
00000070: 838a 71bd b954 af3b d647 1b3e 32ed 1abf
00000080: 07b8 b8bc 25cc f63e 4892 843e 7087 8e3e
00000090: c243 ebbd ed1c a23e a23b c33d dbe7 71be
000000a0: 2acc 433f 82ea 0c3f 9022 983e 278d 45be
000000b0: 45d8 a13e 67de 003f 48e8 6cbf 80ce c03e
000000c0: 3a62 9a3e 1deb 1ebf cdf2 cabc 855a 96be
000000d0: 92d6 a53e 0d4a c33c
0.24163829 0.14351325 0.41941845 0.46164685 -0.15380554 -0.83321136 -0.74161184 -0.10260624
-0.14867975 0.075280525 -0.054797556 0.24074455 -0.91945964 -0.10483446 0.22759375 0.28051695
0.07114956 0.060149785 0.3637904 -0.54530156 -0.2136927 -0.42322204 -0.42629787 0.057495173
-0.6585293 0.64012474 0.18425685 0.3266644 -0.058969986 0.005350676 0.15164122 -0.6051818
-0.022548689 0.48202625 0.25892854 0.27837706 -0.11487533 0.31662694 0.095328584 -0.23623602
0.76483405 0.5504533 0.2971387 -0.19292127 0.31610313 0.5033936 -0.92541933 0.37657547
0.30153066 -0.62077504 -0.02477398 -0.29365936 0.32390267 0.023839021
